Train-KMNIST_train_with_crop-20240404-091514/weights.pt (torch, 183696 bytes, 97 tensors)

stem.0.weight f4 [4, 1, 3, 3]
0.2495188 -0.022195937 0.07610994 -0.44160715 -0.6854992 -0.14119722 -0.17290509 0.07521252
0.16782996 -0.019383801 0.35653362 -0.31784484 -0.037250534 0.54739743 0.14422204 0.07256068
-0.051105283 -0.2251105 0.02556926 -0.5499679 0.03257233 0.059037108 0.36046603 0.31306195
-0.115924805 0.517376 -0.22068378 -0.21685885 -0.06035147 -0.008102613 -0.09470717 -0.023749653
-0.06735147 0.25381768 -0.0633354 -0.028035345
00000000: db81 7f3e 41d4 b5bc 87df 9b3d 551a e2be
00000010: e07c 2fbf 0196 10be 080e 31be 0609 9a3d
00000020: 9edb 2b3e c7ca 9ebc 938b b63e 8fbc a2be
00000030: 0494 18bd 3d22 0c3f f1ae 133e b29a 943d
00000040: c653 51bd 5e83 66be a076 d13c b2ca 0cbf
00000050: 906a 053d e5d0 713d 018f b83e a849 a03e
00000060: fc69 edbd c172 043f eefa 61be 3f10 5ebe
00000070: 1a33 77bd d2c0 04bc d5f5 c1bd a28e c2bc
00000080: 91ef 89bd 64f4 813e fdb5 81bd 61aa e5bc

stem.1.weight f4 [4]
0.60975236 0.28494254 0.3142985 0.36246663
00000000: bb18 1c3f fde3 913e bceb a03e 3a95 b93e

stem.1.bias f4 [4]
0.02176886 0.100959316 0.12927862 0.08292931
00000000: 9c54 b23c c2c3 ce3d 9d61 043e d8d6 a93d

stem.1.running_mean f4 [4]
0.032372553 -0.024330422 -0.016895395 0.0070886
00000000: 1599 043d 9850 c7bc 3668 8abc 7d47 e83b

stem.1.running_var f4 [4]
0.86877084 0.35869718 0.36826608 0.10646877
00000000: c467 5e3f 28a7 b73e 5f8d bc3e 4c0c da3d

mixlayers.0.op.1.weight f4 [4, 1, 3, 3]
0.02132145 0.1796597 -0.12057236 0.30103284 0.5683144 0.059532598 -0.014381533 0.12206476
0.0009221414 0.010864772 -0.2710207 -0.11925391 0.38348284 -0.09329871 -0.34237716 0.13564585
0.021812597 -0.103063054 0.33103663 -0.3152078 -0.10398184 -0.17886375 -0.60694057 -0.038244918
0.08318543 0.28808907 0.09967964 -0.23679556 -0.12722716 -0.109099746 -0.06439917 0.06958594
0.14080384 -0.07854936 0.08578862 0.21689196
00000000: 52aa ae3c b6f8 373e a4ee f6bd fa20 9a3e
00000010: 0d7d 113f 74d8 733d 85a0 6bbc 17fd f93d
00000020: ddbb 713a 2802 323c 3ac3 8abe 653b f4bd
00000030: dd57 c43e 6513 bfbd 0f4c afbe bfe6 0a3e
00000040: 55b0 b23c b912 d3bd a27d a93e eb62 a1be
00000050: 6ef4 d4bd 0f28 37be 7560 1bbf b4a6 1cbd
00000060: 1f5d aa3d 6980 933e d724 cc3d 897a 72be
00000070: d647 02be b06f dfbd b6e3 83bd 1383 8e3d
00000080: e22e 103e 7dde a0bd f2b1 af3d ed18 5e3e

mixlayers.0.op.2.weight f4 [16, 4, 1, 1]
-0.039608475 0.12162255 0.2473747 0.052970584 -0.069327004 -0.09926648 -0.20797993 -0.037573185
0.13409637 -0.3057018 0.06249269 -0.097497225 0.01795999 -0.04029234 -0.12833227 0.035843786
0.16742226 0.10951776 -0.20424157 -0.066251844 -0.12067305 0.06199376 0.27111766 0.06032171
-0.20847632 -0.10410154 -0.015160157 0.1409351 -0.2890358 0.10183137 -0.1982004 0.0009611511
-0.23874184 0.27749568 0.10076793 -0.07485206 -0.023446107 0.043860625 -0.26661637 0.04579234
0.16769014 -0.066642374 0.20101817 0.121475585 0.2635326 -0.016364656 0.22036795 0.22213185
-0.09735501 0.2814632 -0.0021465456 -0.09497122 -0.21192747 -0.014681619 -0.08727777 -0.06664579
0.065897465 -0.13950148 -0.049993265 0.11068196 -0.33822876 0.25562435 0.022293169 0.2382588
00000000: 7f3c 22bd 3e15 f93d cb4f 7d3e aff7 583d
00000010: 51fb 8dbd 394c cbbd b1f8 54be 57e6 19bd
00000020: 8f50 093e f284 9cbe 56f8 7f3d a0ac c7bd
00000030: d420 933c 9509 25bd 8969 03be efd0 123d
00000040: be70 2b3e d94a e03d b424 51be 0caf 87bd
00000050: 6f23 f7bd 2bed 7d3d efcf 8a3e e613 773d
00000060: d17a 55be 3033 d5bd 4f62 78bc 4a51 103e
00000070: 80fc 93be f78c d03d 0cf5 4abe c2f5 7b3a
00000080: be78 74be ea13 8e3e 6b5f ce3d 094c 99bd
00000090: 0d12 c0bc 33a7 333d f181 88be c090 3b3d
000000a0: f7b6 2b3e cc7b 88bd b5d7 4d3e 31c8 f83d
000000b0: bfed 863e 2c0f 86bc 23a8 613e 8876 633e
000000c0: 1062 c7bd f21b 903e 0fad 0cbb 4580 c2bd
000000d0: 8403 59be 2c8b 70bc b0be b2bd 977d 88bd
000000e0: 40f5 863d 7ad9 0ebe bdc5 4cbd 39ad e23d
000000f0: 522c adbe 32e1 823e 2aa0 b63c 1dfa 733e

mixlayers.0.op.3.weight f4 [16]
0.2253027 0.22786523 0.23327726 0.21533701 0.2815715 0.30689615 0.22940841 0.26241368
0.22730824 0.26074886 0.30437386 0.3268273 0.22235452 0.20395829 0.19023713 0.25868896
00000000: c0b5 663e 8155 693e 3ce0 6e3e 4e81 5c3e
00000010: 242a 903e 7e21 9d3e 0aea 6a3e 165b 863e
00000020: 7ec3 683e e080 853e e4d6 9b3e e855 a73e
00000030: e7b0 633e 71da 503e 86cd 423e e172 843e

mixlayers.0.op.3.bias f4 [16]
0.23282509 0.09935035 0.14815703 0.02254785 0.054599617 0.1417503 -0.045973025 0.14393307
0.084804 0.08467551 0.17509526 0.1468144 0.09216299 0.12104229 0.098394856 0.13127758
00000000: b369 6e3e 3278 cb3d 7ab6 173e 45b6 b83c
00000010: d9a3 5f3d fe26 113e 364e 3cbd 3163 133e
00000020: b8ad ad3d 5b6a ad3d 2c4c 333e 8456 163e
00000030: f3bf bc3d 05e5 f73d 3e83 c93d a16d 063e

mixlayers.0.op.3.running_mean f4 [16]
-0.03543817 0.0010021239 0.04946711 0.015468825 0.05624884 -0.056416135 -0.053389076 -0.070735484
-0.08561014 0.009451435 0.03339518 0.05453796 -0.039322272 -0.05048567 0.027053978 -0.11125466
00000000: 9d27 11bd b359 833a 069e 4a3d f470 7d3c
00000010: 2f65 663d 9b14 67bd 81ae 5abd c4dd 90bd
00000020: 5e54 afbd 31da 1a3c 62c9 083d 3263 5f3d
00000030: 6410 21bd 10ca 4ebd 4ea0 dd3c 7cd9 e3bd

mixlayers.0.op.3.running_var f4 [16]
0.004012766 0.003723132 0.0025645213 0.0008523035 0.0012473006 0.003322176 0.001774299 0.005155593
0.0036333106 0.0029510523 0.003563074 0.0065517775 0.002317753 0.0022957667 0.00083335594 0.0040285187
00000000: 857d 833b caff 733b 8711 283b 1f6d 5f3a
00000010: 777c a33a ddb8 593b 988f e83a 40f0 a83b
00000020: d61c 6e3b 7166 413b 7682 693b 4bb0 d63b
00000030: 71e5 173b 9374 163b 9275 5a3a aa01 843b

mixlayers.1.op.1.weight f4 [16, 1, 3, 3]
-0.08233391 -0.32923576 -0.17905092 -0.057069905 0.049895115 0.040282767 0.04972056 0.062998086
-0.06251401 -0.11456081 0.172102 -0.18526909 0.17792669 0.35263827 0.0065867295 0.050033998
-0.05069313 0.021942548 -0.09517893 -0.0040043443 0.0379468 -0.1968438 0.022669299 0.116940364
-0.2147177 0.24723902 0.12723733 -0.027059468 0.0025294647 0.13261655 0.009700519 -0.008573351
0.08238129 -0.16868128 0.13780609 0.041957166 -0.16771804 -0.0010259263 0.019521423 0.022901904
0.08019276 0.029140724 -0.25443283 0.043576676 0.11165876 -0.083385564 -0.059356127 -0.15217435
0.11430424 0.18784775 -0.09538327 0.0918723 0.30542186 0.03583682 -0.0978922 -0.093148865
-0.118227415 0.08111134 0.06905041 0.04371044 0.19132894 0.070428245 0.14027286 0.16063675
-0.14841779 0.060883824 -0.113633856 -0.34493116 -0.13801388 0.2634973 0.26503563 0.0026645756
-0.00019527708 0.076829195 -0.068578795 -0.1011574 -0.24327174 -0.20096998 0.068119876 -0.002061753
-0.10060174 0.12081987 0.023331745 -0.06356843 -0.18278806 0.10563033 0.17965582 -0.19781227
0.3175223 -0.00035723174 -0.20923069 -0.22385469 0.075141326 -0.1321796 0.062248763 0.15678103
-0.053356614 0.14138854 0.015820095 -0.100614615 0.054099284 0.023825128 0.003958206 -0.20055395
-0.14828119 0.005432481 -0.19853857 -0.30971038 0.10770587 -0.018667305 0.15091985 0.0360748
-0.20396039 0.009574485 0.050333012 -0.18699367 -0.10293209 -0.014421206 -0.1771996 0.012780845
-0.16319789 -0.17067063 -0.021163646 -0.03795811 0.1850353 -0.020574573 0.0377169 0.085676655
0.09070054 0.10181398 -0.012248789 0.064011656 -0.05078506 -0.20166364 0.003574522 0.14609258
0.107014805 0.07563884 0.0231673 -0.06729778 -0.31247622 0.07129797 0.31754923 -0.11812916
00000000: ae9e a8bd 9791 a8be 2059 37be 22c2 69bd
00000010: d25e 4c3d 8bff 243d c9a7 4b3d 2405 813d
00000020: 5807 80bd dc9e eabd 823b 303e 2eb7 3dbe
00000030: 6a32 363e 018d b43e 7ed5 d73b 73f0 4c3d
00000040: 99a3 4fbd dcc0 b33c 2ced c2bd e036 83bb
00000050: 1b6e 1b3d 6c91 49be f7b4 b93c 6e7e ef3d
00000060: f5de 5bbe 3a2c 7d3e 814a 023e d1ab ddbc
00000070: 60c5 253b a2cc 073e edee 1e3c 3e77 0cbc
00000080: 86b7 a83d c9ba 2cbe 0a1d 0d3e 47db 2b3d
00000090: 47be 2bbe 6078 86ba 64eb 9f3c c69c bb3c
000000a0: 1a3c a43d 87b8 ee3c 0545 82be 757d 323d
000000b0: 59ad e43d 0dc6 aabd 691f 73bd 98d3 1bbe
000000c0: 5718 ea3d 295b 403e 4e58 c3bd 8b27 bc3d
000000d0: 4160 9c3e a1c9 123d b57b c8bd d5c4 bebd
000000e0: 3721 f2bd b41d a63d 4d6a 8d3d b809 333d
000000f0: bceb 433e af3c 903d b0a3 0f3e f67d 243e
00000100: d5fa 17be 5161 793d deb8 e8bd d19a b0be
00000110: 8353 0dbe 1ee9 863e c0b2 873e 29a0 2e3b
00000120: 4bc3 4cb9 a058 9d3d 0a73 8cbd 9c2b cfbd
00000130: 3a1c 79be 13cb 4dbe 6f82 8b3d 7a1e 07bb
00000140: 4908 cebd 6870 f73d 3722 bf3c 2a30 82bd
00000150: cb2c 3bbe b754 d83d b2f7 373e 4d8f 4abe
00000160: 4892 a23e d54a bbb9 9240 56be 2a3a 65be
00000170: b2e3 993d 175a 07be 8ff8 7e3d 358b 203e
00000180: 778c 5abd 28c8 103e 2599 813c 090f cebd
00000190: 3697 5d3d ea2c c33c d7b3 813b 045e 4dbe
000001a0: 06d7 17be f402 b23b b24d 4bbe 5c92 9ebe
000001b0: e594 dc3d 2dec 98bc bc8a 1a3e 2bc3 133d
000001c0: feda 50be 4dde 1c3c fd29 4e3d 457b 3fbe
000001d0: 0fce d2bd ec46 6cbc d073 35be c066 513c
000001e0: 591d 27be 48c4 2ebe 625f adbc f779 1bbd
000001f0: e579 3d3e 028c a8bc 097d 1a3d 3e77 af3d
00000200: 34c1 b93d d983 d03d 25af 48bc 8b18 833d
00000210: ff03 50bd ea80 4ebe 8742 6a3b 4b99 153e
00000220: 942a db3d 89e8 9a3d 59c9 bd3c 6bd3 89bd
00000230: e2fc 9fbe ac04 923d d095 a23e b3ed f1bd

mixlayers.1.op.2.weight f4 [16, 16, 1, 1]
0.08420513 0.12700385 -0.3148921 -0.13976489 0.066507965 0.09103536 0.10913798 0.08473218
0.025997356 -0.058777414 0.22747244 -0.010659888 -0.052774325 -0.18641336 0.060593527 0.24260384
0.0010368117 -0.08490028 0.09974611 0.067670226 -0.06754866 0.09091336 0.0035717816 0.08647327
0.056116205 0.15920864 0.017795594 -0.21736878 0.032304876 0.015100703 -0.023499662 0.13049671
0.0861347 0.103101894 -0.1293883 -0.0922918 -0.11482608 -0.017721696 0.06919668 0.11142168
0.12664679 -0.08799034 0.0212767 0.09823874 0.0029260118 -0.079266176 0.06652596 0.0066222283
0.26157913 -0.04408739 0.074521564 0.00716266 0.031086974 0.11610719 -0.08827104 -0.12454427
0.18783216 -0.023120375 0.13135605 0.042917363 -0.017335555 -0.13002285 0.078622825 0.05608444
0.13326444 0.18638016 0.08873155 0.05992128 0.09045451 -0.12770471 -0.022352472 -0.29234353
0.078800485 0.0602132 0.1227059 0.006987829 0.13042551 -0.095148 -0.08110925 -0.037786406
0.04510112 0.03374399 0.027210928 0.07600736 0.007619426 -0.21127139 0.08762515 -0.18709192
0.038164265 0.19157119 0.10874867 0.18766703 -0.05447549 0.04216545 -0.11027597 -0.34621596
-0.052246172 -0.0474759 -0.00993856 0.05498465 -0.006615386 0.09071982 -0.011358307 0.16940287
0.07397504 0.27266264 -0.14507401 0.103373036 -0.013730425 0.11989267 -0.021113368 -0.011596624
0.05978786 -0.03179868 -0.18333311 -0.10436922 0.075380534 -0.016119577 -0.06517451 0.0016926914
-0.19766556 -0.032056164 -0.020825341 0.21197349 -0.16984516 0.009593929 -0.10282137 -0.06357494
0.04649444 -0.0166558 -0.20697008 -0.08801471 0.098426394 0.08958726 -0.06923955 0.03609555
-0.13744341 -0.2478181 0.11716455 -0.067764394 -0.09840792 -0.059076697 0.06383879 -0.075977676
-0.15379223 -0.05707209 0.14211638 -0.11368149 -0.05331648 -0.1572582 -0.2721709 -0.16406101
-0.21543045 -0.10950803 -0.02784582 0.15221453 -0.16343243 -0.050071564 -0.09944281 0.009891983
0.17159551 0.14356434 -0.010982319 0.05651076 -0.06689894 0.07099712 0.07582998 -0.15103185
0.116759084 0.0031927063 -0.120565765 0.054307487 -0.009746858 -0.09146104 0.016343348 -0.02870041
0.13871355 -0.1092453 0.039903425 -0.0533923 0.101767175 0.109074846 -0.036367785 0.09393631
0.19842423 -0.113008045 0.051787645 -0.073368035 -0.10586322 0.19012994 0.017053992 0.115080655
0.22029044 0.054444026 0.17810069 0.00069209305 -0.10107582 -0.011411198 0.08395581 0.062093943
0.017281312 0.1349333 -0.09897121 0.020564178 0.16656986 -0.035978433 0.00052783143 -0.13219714
-0.03193233 -0.02216457 -0.10021268 -0.017816711 0.07687363 -0.13753836 0.056667045 0.16979313
0.042734746 0.08250049 -0.052314095 0.25717697 -0.09019961 -0.013084857 -0.054074764 0.2516836
-0.0435042 -0.27676433 -0.010626553 0.012057013 0.16263136 0.099496685 -0.088507466 0.013582306
-0.020243999 0.044286475 -0.04652733 0.3034361 -0.11545055 0.12710518 0.038873136 0.08349463
0.052792545 -0.059140373 -0.083198905 0.044580992 0.117450334 0.041836213 -0.1193559 -0.04679198
0.0264703 0.029340196 0.24693225 -0.12227776 0.02191678 -0.024418034 0.0090244915 0.14179325
00000000: bd73 ac3d 4c0d 023e 8a39 a1be 871e 0fbe
00000010: 5435 883d bf70 ba3d bc83 df3d 1188 ad3d
00000020: 68f8 d43c 96c0 70bd 89ee 683e d0a6 2ebc
00000030: e429 58bd 25e3 3ebe eb30 783d 246d 783e
00000040: a1e5 873a 33e0 adbd b047 cc3d b096 8a3d
00000050: f456 8abd c930 ba3d 8d14 6a3b e618 b13d
00000060: 1bda 653d 9707 233e 11c8 913c ec95 5ebe
00000070: 1e52 043d f068 773c 5d82 c0bc eea0 053e
00000080: 6467 b03d 1627 d33d 5e7e 04be 7c03 bdbd
00000090: f029 ebbd 172d 91bc fdb6 8d3d 0d31 e43d
000000a0: b2af 013e 4834 b4bd 794c ae3c 6431 c93d
000000b0: 55c2 3f3b 4e56 a2bd c33e 883d 47ff d83b
000000c0: b3ed 853e fb94 34bd c39e 983d bfb4 ea3b
000000d0: 1caa fe3c 9bc9 ed3d 72c7 b4bd 1111 ffbd
000000e0: 1357 403e f166 bdbc 3382 063e 1eca 2f3d
000000f0: 4b03 8ebc b624 05be 0105 a13d ccb8 653d
00000100: 7976 083e 71da 3e3e e3b8 b53d 0470 753d
00000110: 3740 b93d 06c5 02be 881c b7bc 0dae 95be
00000120: 2662 a13d 1ea2 763d 3b4d fb3d 29fa e43b
00000130: 448e 053e f4dc c2bd 9b1c a6bd ebc5 1abd
00000140: f4bb 383d 2337 0a3d 74e9 de3c bfa9 9b3d
00000150: 61ac f93b 8757 58be d174 b33d 0695 3fbe
00000160: 2252 1c3d 3d2b 443e 9fb7 de3d c92b 403e
00000170: b121 5fbd aeb5 2c3d 5ed8 e1bd 3843 b1be
00000180: 1500 56bd 1776 42bd 58d5 22bc 9637 613d
00000190: e1c5 d8bb 50cb b93d 3118 3abc f277 2d3e
000001a0: 3a80 973d 709a 8b3e 488e 14be 3eb5 d33d
000001b0: 94f5 60bc 4a8a f53d f1f5 acbc c4ff 3dbc
000001c0: 1de4 743d 553f 02bd adbb 3bbe 88bf d5bd
000001d0: 1c61 9a3d 340d 84bc 377a 85bd 4cdd dd3a
000001e0: d768 4abe 534d 03bd e899 aabc 940f 593e
000001f0: e4eb 2dbe db2f 1d3c 0394 d2bd 9433 82bd
00000200: f470 3e3d bf71 88bc f7ef 53be 0e41 b4bd
00000210: c793 c93d 8679 b73d 77cd 8dbd edd8 133d
00000220: f7bd 0cbe 07c4 7dbe f8f3 ef3d 0fc8 8abd
00000230: 178a c9bd 68fa 71bd e9bd 823d 2f9a 9bbd
00000240: b67b 1dbe 6dc4 69bd f586 113e d7d1 e8bd
00000250: 6262 5abd 4b08 21be fc59 8bbe 9cff 27be
00000260: cd99 5cbe bf45 e0bd eb1c e4bc 20de 1b3e
00000270: d55a 27be d717 4dbd aca8 cbbd fc11 223c
00000280: bcb6 2f3e 8802 133e 2fef 33bc d477 673d
00000290: 5002 89bd f066 913d c04c 9b3d 18a8 1abe
000002a0: 631f ef3d b93c 513b 2feb f6bd 8771 5e3d
000002b0: 49b1 1fbc ed4f bbbd 7ce2 853c 1f1d ebbc
000002c0: ed0a 0e3e 00bc dfbd c671 233d e2b1 5abd
000002d0: 4f6b d03d a262 df3d 63f6 14bd ae61 c03d
000002e0: b92f 4b3e c370 e7bd 481f 543d fb41 96bd
000002f0: d1ce d8bd 6cb1 423e d0b4 8b3c 68af eb3d
00000300: d193 613e b300 5f3d 0760 363e 946d 353a
00000310: d700 cfbd 09f6 3abc 06f1 ab3d 3856 7e3d
00000320: 8a91 8d3c f42b 0a3e 6bb1 cabd 3576 a83c
00000330: 4a91 2a3e 1f5e 13bd 2b5e 0a3a b05e 07be
00000340: 7acb 02bd 7992 b5bc 4e3c cdbd 5af4 91bc
00000350: ec6f 9d3d dbd6 0cbe b41b 683d 40de 2d3e
00000360: a10a 2f3d 04f6 a83d 4e47 56bd b3ac 833e
00000370: 93ba b8bd de61 56bc 807d 5dbd acdc 803e
00000380: 7631 32bd 0eb4 8dbe fe1a 2ebc c78a 453c
00000390: d688 263e ebc4 cb3d 6743 b5bd 5288 5e3c
000003a0: bed6 a5bc bc65 353d 7193 3ebd fa5b 9b3e
000003b0: 5771 ecbd dc27 023e 7039 1f3d 3cff aa3d
000003c0: ff3c 583d 2d3d 72bd 3064 aabd 8f9a 363d
000003d0: cd89 f03d 735c 2b3d de70 f4bd f2a8 3fbd
000003e0: 3ed8 d83c da5a f03c cfdb 7c3e c36c fabd
000003f0: d28a b33c 5408 c8bc 76db 133c 4032 113e

mixlayers.1.op.3.weight f4 [16]
0.24031074 0.32012653 0.20456281 0.26517186 0.17248647 0.298814 0.30152556 0.24406692
0.19809504 0.29880074 0.19247393 0.35894316 0.191583 0.26901594 0.29110044 0.27679592
00000000: 0514 763e a0e7 a33e ea78 513e 9bc4 873e
00000010: 4ba0 303e 26fe 983e 8f61 9a3e aeec 793e
00000020: 6dd9 4a3e 69fc 983e e317 453e 66c7 b73e
00000030: 552e 443e 75bc 893e 1e0b 953e 32b8 8d3e

mixlayers.1.op.3.bias f4 [16]
0.2202622 0.1256898 -0.099242546 0.007939346 0.24814978 0.0783468 -0.1331003 0.013339501
0.21305554 -0.061959352 0.1889255 0.05850915 0.22312282 0.09137317 0.024486687 0.07087695
00000000: 6a8c 613e d4b4 003e ad3f cbbd 0814 023c
00000010: fa1a 7e3e 4974 a03d 724b 08be ec8d 5a3c
00000020: 3b2b 5a3e 17c9 7dbd b075 413e 4aa7 6f3d
00000030: 4f7a 643e db21 bb3d 4e98 c83c ef27 913d

mixlayers.1.op.3.running_mean f4 [16]
0.010550491 0.050268993 -0.03277873 -0.04544485 -0.026525829 -0.06918814 -0.0059274035 -0.043691356
0.0069217593 -0.011384361 -0.01609072 -0.026516622 -0.025946554 -0.042493373 -0.058582447 0.009008428
00000000: f7db 2c3c dce6 4d3d fd42 06bd 6124 3abd
00000010: b24c d9bc 83b2 8dbd aa3a c2bb b5f5 32bd
00000020: edcf e23b 7985 3abc b0d0 83bc 6339 d9bc
00000030: de8d d4bc 880d 2ebd 26f4 6fbd 1698 133c

mixlayers.1.op.3.running_var f4 [16]
0.0032919182 0.002322651 0.0008409304 0.0022775573 0.0040421686 0.0056120157 0.0024508017 0.0020057263
0.0024885915 0.0015743581 0.0018386486 0.0034118237 0.0016358922 0.0026066229 0.002147043 0.001793136
00000000: 39bd 573b 9e37 183b e271 5c3a 1243 153b
00000010: 2b74 843b 00e5 b73b a19d 203b 8172 033b
00000020: a317 233b b15a ce3a cffe f03a e798 5f3b
00000030: 6f6b d63a e0d3 2a3b 67b5 0c3b a907 eb3a

mixlayers.2.op.1.weight f4 [16, 1, 3, 3]
0.12741381 0.18952627 -0.28380936 0.1475573 -0.03650143 -0.19047862 0.04966283 -0.2725227
-0.04638345 -0.12189604 -0.01772251 0.07202907 -0.0057100225 -0.11063553 -0.26483366 0.21109235
0.18328424 -0.16243118 -0.05736264 -0.012258954 -0.007334022 0.09327161 0.10421276 0.12631127
0.11189106 0.086425655 0.06819871 -0.009885116 0.10425933 0.27908307 0.006714681 -0.031786587
-0.055609856 -0.1290833 -0.24280955 -0.13035624 0.035983175 0.23028392 0.15664008 -0.25900748
-0.10450688 -0.1426562 -0.3164052 -0.024965154 0.195846 0.054529723 0.23990138 -0.05776273
-0.23169844 0.19876675 0.14916587 -0.32182688 -0.13202012 0.21336254 0.10263842 0.17266247
0.15505919 0.03447335 0.18303126 0.04469404 -0.09941055 0.08890914 0.053727835 -0.15100458
-0.13562052 0.07256465 -0.16318451 0.06318926 0.115005404 0.019805763 0.21678597 0.1772407
-0.00532587 -0.052661967 -0.05144982 -0.08254599 -0.09017393 -0.1631173 -0.06813857 -0.038684797
-0.20626974 -0.27296257 -0.13787875 0.05450056 -0.017500676 -0.093424775 -0.112445615 0.30938002
0.18592487 -0.14389692 0.08773189 0.0045006336 -0.22555752 0.11095325 0.10868859 -0.015514198
0.04268273 0.14256959 0.20698945 0.12202748 -0.15784506 0.037586678 -0.075650185 -0.29097942
-0.11782579 0.06434068 -0.010732064 0.100790575 -0.15336809 -0.048533853 0.14766753 -0.10502094
-0.09590218 0.10514888 -0.116728924 -0.2138892 0.08359079 0.025687946 -0.12407072 -0.22924295
0.19128565 0.2229595 -0.22817706 0.029339088 0.095721245 -0.061257612 0.0063110404 0.16809005
0.033863157 -0.07770511 -0.23616914 -0.08321006 -0.043515652 -0.3079515 -0.02389452 0.0020889952
-0.14256264 0.0379087 -0.042550907 -0.08407439 0.08859282 -0.22124486 -0.15024042 -0.04439832
00000000: c478 023e 2d13 423e 764f 91be 4319 173e
00000010: 8682 15bd d40c 43be 406b 4b3d 1888 8bbe
00000020: 93fc 3dbd a2a4 f9bd cc2e 91bc fa83 933d
00000030: 241b bbbb e194 e2bd 4798 87be 9828 583e
00000040: ddae 3b3e 5c54 26be 16f5 6abd c8d9 48bc
00000050: 3c52 f0bb 3005 bf3d 806d d53d be57 013e
00000060: 2427 e53d efff b03d c4ab 8b3d 2ef5 21bc
00000070: ea85 d53d fae3 8e3e d406 dc3b a732 02bd
00000080: 29c7 63bd 6a2e 04be 11a3 78be 1b7c 05be
00000090: 1863 133d 8ccf 6b3e 4266 203e a19c 84be
000000a0: b407 d6bd 7814 12be ddff a1be b983 ccbc
000000b0: db8b 483e 8f5a 5f3d b5a8 753e 9d98 6cbd
000000c0: 5b42 6dbe 8389 4b3e f0be 183e 7ec6 a4be
000000d0: 4830 07be b67b 5a3e 1834 d23d 6ece 303e
000000e0: d6c7 1e3e ed33 0d3d 8c6c 3b3e 1911 373d
000000f0: c297 cbbd ff15 b63d b811 5c3d f2a0 1abe
00000100: 1be0 0abe c69c 943d d719 27be 5f69 813d
00000110: f487 eb3d b23f a23c 24fd 5d3e 967e 353e
00000120: a384 aebb 13b4 57bd 0cbd 52bd df0d a9bd
00000130: 1cad b8bd 3908 27be 3c8c 8bbd f373 1ebd
00000140: 6038 53be c0c1 8bbe 1630 0dbe fb3b 5f3d
00000150: 945d 8fbc 7d55 bfbd e349 e6bd 0f67 9e3e
00000160: 1763 3e3e b759 13be c7ac b33d 0d7a 933b
00000170: 8df8 66be 753b e33d 2098 de3d 432f 7ebc
00000180: 16d4 2e3d c3fd 113e 0bf5 533e 8be9 f93d
00000190: 23a2 21be 7df4 193d 7cee 9abd 41fb 94be
000001a0: a64e f1bd 0cc5 833d 8ad5 2fbc 4a6b ce3d
000001b0: 860c 1dbe 6fcb 46bd 2836 173e 3815 d7bd
000001c0: 5d68 c4bd 4c58 d73d 930f efbd c505 5bbe
000001d0: a631 ab3d 876f d23c ca18 febd aabe 6abe
000001e0: 63e0 433e 7f4f 643e 3fa7 69be 8758 f03c
000001f0: 8009 c43d 43e9 7abd d8cc ce3b cc1f 2c3e
00000200: 18b4 0a3d db23 9fbd 53d6 71be 096a aabd
00000210: 783d 32bd d2ab 9dbe 71be c3bc 86e7 083b
00000220: f1fb 11be 2746 1b3d dc49 2ebd 322f acbd
00000230: 2770 b53d 038e 62be a0d8 19be 03db 35bd

mixlayers.2.op.2.weight f4 [16, 16, 1, 1]
0.14334325 0.086055845 -0.12178275 -0.09777199 0.17978644 -0.04188726 -0.25457898 -0.14543408
0.11235718 0.023679145 -0.08725554 -0.0060411184 0.18809299 0.08439475 0.04202082 0.0042291516
-0.0009876201 0.19032711 -0.098489374 -0.15392835 0.06810462 0.32216713 -0.28239897 0.12780531
0.10013485 -0.10361741 0.079123795 -0.036229767 -0.0679438 -0.21943259 0.20404376 0.11341437
-0.2975033 0.042736843 0.19220531 0.026905453 0.046006598 0.018928034 0.04981457 -0.13084392
0.026477737 0.06547684 -0.067075275 0.25634938 -0.031600744 0.0992724 0.097500086 0.06742089
-0.027801087 -0.0314089 -0.008191605 -0.022046369 -0.15628825 -0.08207707 -0.03160727 -0.02210315
0.0035310383 -0.045923498 0.029855873 0.07992174 -0.15122987 0.062669516 0.05221122 0.04225594
0.08349442 -0.120961785 -0.012985689 0.090452306 -0.08259303 0.08659003 -0.007076622 -0.117137216
0.032724615 -0.027601069 -0.15751714 -0.045143098 -0.0088529205 -0.12846279 0.09621034 0.053315744
0.12920177 -0.018490205 0.1776631 -0.12553851 -0.13059647 -0.16249897 0.03918791 0.0801445
0.14319411 0.12982006 0.2427881 0.07438081 -0.08976353 0.20109858 0.068375185 0.0393808
0.103360265 -0.13461916 0.035692375 0.015058553 0.06073918 -0.045026954 -0.053642917 0.12893365
0.062276788 0.32387233 -0.09512103 -0.07771018 0.043568503 0.120796315 -0.014476189 0.095492676
-0.023121824 -0.04864062 -0.0009416283 0.16220286 -0.015775431 -0.18722789 -0.054889403 -0.042615864
0.0062312256 0.16666044 -0.19516253 -0.18766241 0.10665684 0.042898796 -0.033926573 0.010060444
0.35018325 0.13278621 0.014134185 0.118326046 0.0727802 -0.023941485 0.0062883836 -0.08386682
0.019471351 -0.016215537 0.09295239 -0.03140613 -0.061325487 -0.09102463 -0.089294955 -0.1884676
0.11621617 0.11602413 -0.02601276 0.13458292 0.16310455 0.096110284 -0.041337825 0.17648421
-0.10399294 -0.10534383 -0.06495449 0.016901644 -0.047077723 -0.027001124 0.08534015 -0.03625802
-0.0070502367 -0.0041415053 0.04000755 -0.13657424 0.034366086 -0.09501384 0.00824844 -0.073945396
-0.016618839 -0.06329517 -0.036329854 0.004155852 0.06930339 0.18186809 -0.061971053 -0.036937818
-0.03168774 0.16773692 0.01854855 -0.22849984 -0.3827281 0.055815015 0.059608955 -0.23860157
0.14079627 -0.016626928 0.0406767 0.18305354 0.10444595 -0.028276136 0.35273993 -0.09676615
-0.26841763 -0.003228459 0.11832013 0.14308122 -0.053662173 0.074335024 -0.19059262 0.15458003
-0.03364926 0.063310996 0.05008088 0.13216515 -0.28715894 -0.0062727206 0.06488509 0.21554941
0.06521068 -0.14823033 -0.025889186 0.04638163 -0.09120742 -0.2851201 0.07391233 0.096647926
0.17304897 0.25206137 -0.0010401402 0.04870547 0.053206846 0.1576977 -0.013234731 0.028383892
-0.041665714 -0.056651708 0.06451223 -0.011837396 -0.02834332 -0.13036062 0.1380148 0.044851117
-0.023932576 0.03794206 -0.029014207 -0.0047957627 0.11638077 0.029811244 -0.0050770435 0.098042324
-0.051708777 0.14541723 0.006180729 -0.028432578 0.089438796 0.22569919 -0.0427611 0.005594648
0.30172673 0.057789948 0.17494018 0.13954602 -0.12175245 -0.07572797 0.050703082 0.17659083
00000000: 93c8 123e 0c3e b03d 3c69 f9bd ae3c c8bd
00000010: f019 383e fa91 2bbd 2d58 82be acec 14be
00000020: 851b e63d c4fa c13c 08b3 b2bd 93f4 c5bb
00000030: 739b 403e 28d7 ac3d 061e 2c3d b294 8a3b
00000040: 0873 81ba 1ce5 423e ccb4 c9bd 659f 1dbe
00000050: 6f7a 8b3d 17f3 a43e 9996 90be 65df 023e
00000060: 8013 cd3d 5d35 d4bd a80b a23d aa65 14bd
00000070: 1e26 8bbd f0b2 60be d9f0 503e cb45 e83d
00000080: 5a52 98be d40c 2f3d 78d1 443e d368 dc3c
00000090: 6a71 3c3d f70e 9b3c 5d0a 4c3d f3fb 05be
000000a0: d7e7 d83c b918 863d c35e 89bd 3a40 833e
000000b0: c86f 01bd 544f cb3d 20ae c73d f713 8a3d
000000c0: 1bbf e3bc 9ea6 00bd 1536 06bc 969a b4bc
000000d0: 070a 20be 0618 a8bd a076 01bd aa11 b5bc
000000e0: fe68 673b 471a 3cbd 4e94 f43c 02ae a33d
000000f0: 01dc 1abe e058 803d 6fdb 553d 9114 2d3d
00000100: 1fff aa3d d0ba f7bd edc1 54bc 0f3f b93d
00000110: 8926 a9bd 1d56 b13d 02e3 e7bb a3e5 efbd
00000120: 3f0a 063d a31b e2bc 2c4c 21be f8e7 38bd
00000130: d70b 11bc c08b 03be ed09 c53d 9c61 5a3d
00000140: 784d 043e c578 97bc 51ed 353e 2b8d 00be
00000150: 15bb 05be 2166 26be 8083 203d cd22 a43d
00000160: 7aa1 123e 8def 043e 729d 783e f754 983d
00000170: f1d5 b7bd c9ec 4d3e 4a08 8c3d c34d 213d
00000180: 8cae d33d 9bd9 09be 2b32 123d 26b8 763c
00000190: a5c9 783d 2f6e 38bd adb8 5bbd 2f07 043e
000001a0: f215 7f3d 98d2 a53e d1ce c2bd 8426 9fbd
000001b0: e374 323d 0f64 f73d 8a2d 6dbc aa91 c33d
000001c0: fb69 bdbc 633b 47bd 9bd7 76ba 8218 263e
000001d0: 7a3b 81bc abb8 3fbe b6d3 60bd f98d 2ebd
000001e0: 4f2f cc3b 09a9 2a3e b0d8 47be 932a 40be
000001f0: e76e da3d a6b6 2f3d 97f6 0abd 8fd4 243c
00000200: 384b b33e 1cf9 073e 1293 673c ed54 f23d
00000210: c90d 953d ef20 c4bc c90e ce3b 5ec2 abbd
00000220: 6282 9f3c 72d6 84bc d35d be3d b7a3 00bd
00000230: 6f30 7bbd 1f6b babd 46e0 b6bd a7fd 40be
00000240: be02 ee3d 0f9e ed3d b618 d5bc 1bd0 093e
00000250: e104 273e 78d5 c43d da51 29bd 47b8 343e
00000260: 40fa d4bd 82be d7bd dc06 85bd 5175 8a3c
00000270: 92d4 40bd 7631 ddbc d1c6 ae3d 4a83 14bd
00000280: ac05 e7bb 77b5 87bb f5de 233d 1eda 0bbe
00000290: 74c3 0c3d 9e96 c2bd 7724 073c af70 97bd
000002a0: 3b24 88bc e6a0 81bd 9dce 14bd d02d 883b
000002b0: f0ee 8d3d a13b 3a3e 5cd5 7dbd 1c4c 17bd
000002c0: 01cb 01bd 3ac3 2b3e 21f3 973c ddfb 69be
000002d0: f0f4 c3be 499e 643d 8528 743d f853 74be
000002e0: e62c 103e 3235 88bc 9d9c 263d 6372 3b3e
000002f0: c2e7 d53d 5ba3 e7bc 549a b43e 552d c6bd
00000300: 096e 89be 8e94 53bb d351 f23d e283 123e
00000310: decc 5bbd f63c 983d b62a 43be 3a4a 1e3e
00000320: ced3 09bd 32a9 813d 9c21 4d3d 4d56 073e
00000330: 7f06 93be 658b cdbb 79e2 843d fcb8 5c3e
00000340: 2d8d 853d b1c9 17be 8f15 d4bc aafa 3d3d
00000350: f5ca babd 43fb 91be 595f 973d 59ef c53d
00000360: c033 313e 300e 813e 5055 88ba 637f 473d
00000370: 6cef 593d 827b 213e 7cd6 58bc 5685 e83c
00000380: aba9 2abd 9f0b 68bd fd1e 843d a3f1 41bc
00000390: 4030 e8bc 417d 05be c053 0d3e ceb5 373d
000003a0: 400e c4bc 2269 1b3d 34af edbc c625 9dbb
000003b0: 0b59 ee3d b636 f43c 545d a6bb 6aca c83d
000003c0: 95cc 53bd 41e8 143e b687 ca3b 70eb e8bc
000003d0: b02b b73d b01d 673e 4326 2fbd 4f53 b73b
000003e0: ed7b 9a3e 27b5 6c3d 8523 333e 27e5 0e3e
000003f0: 5959 f9bd 4417 9bbd 09ae 4f3d 3ad4 343e

mixlayers.2.op.3.weight f4 [16]
0.35771653 0.34077576 0.19718224 0.24591166 0.3365625 0.23283929 0.348564 0.29221746
0.36467215 0.32462466 0.29534638 0.3237502 0.32101983 0.32531074 0.23323765 0.30137056
00000000: 9f26 b73e 297a ae3e 24ea 493e 44d0 7b3e
00000010: ec51 ac3e 6c6d 6e3e fb76 b23e 879d 953e
00000020: 4fb6 ba3e 3435 a63e a437 973e 96c2 a53e
00000030: b65c a43e 218f a63e dad5 6e3e 3e4d 9a3e

mixlayers.2.op.3.bias f4 [16]
0.118680276 0.07328549 0.20993271 0.081155874 0.014542568 0.07173525 -0.062386487 0.13709034
-0.14542586 0.03062474 0.030804226 -0.06656104 -0.03858483 -0.20481654 0.057490278 0.030348392
00000000: a50e f33d b416 963d 9af8 563e 0d35 a63d
00000010: f343 6e3c eee9 923d f988 7fbd 6961 0c3e
00000020: 84ea 14be bce0 fa3c 2559 fc3c 2851 88bd
00000030: 200b 1ebd 6dbb 51be ed7a 6b3d 319d f83c

mixlayers.2.op.3.running_mean f4 [16]
-0.086085685 -0.0372798 -0.016551252 0.013656184 -0.022714842 -0.0044893315 -0.032537535 -0.019286586
-0.005403423 -0.008616765 -0.0016535658 -0.03695282 0.025755953 -0.035155702 -0.0025841233 -0.056936305
00000000: b14d b0bd b4b2 18bd 7e96 87bc 30be 5f3c
00000010: 7a14 babc 3e1b 93bb 1446 05bd e7fe 9dbc
00000020: 330f b1bb 552d 0dbc 76bc d8ba d75b 17bd
00000030: 26fe d23c 6dff 0fbd 655a 29bb 0b36 69bd

mixlayers.2.op.3.running_var f4 [16]
0.005043874 0.0076265554 0.0025031439 0.0012236529 0.000780447 0.0025666377 0.0040497533 0.0045472733
0.0033862083 0.001725242 0.00081881875 0.007273703 0.006904536 0.0041940245 0.001061383 0.0049198167
00000000: 1547 a53b 2fe8 f93b c90b 243b fa62 a03a
00000010: e996 4c3a 0935 283b cbb3 843b 4b01 953b
00000020: 26eb 5d3b 8421 e23a ffa5 563a 3e58 ee3b
00000030: 723f e23b 076e 893b 1b1e 8b3a 6a36 a13b

mixlayers.3.op.1.weight f4 [16, 1, 3, 3]
0.0772955 -0.005692599 -0.08566549 -0.0658025 -0.17938948 -0.06468668 -0.21353266 -0.3016994
-0.037130762 -0.072934456 -0.0954917 -0.03993445 0.064339355 0.26655778 0.1422783 0.16573307
0.27123535 0.20100069 -0.28547174 -0.027484633 0.13829601 -0.018236848 0.16165417 0.09929266
0.20103702 0.23272507 -0.18635961 0.014444822 -0.06740634 0.13011678 -0.10022113 -0.022843096
0.14755167 -0.15877303 -0.101796746 0.03747371 0.09421739 0.062752075 0.11032201 0.057167448
0.07497349 0.077713825 -0.23666263 -0.1569388 -0.035464972 0.024706833 -0.06525109 -0.035193805
0.10490043 0.10791264 0.19566505 0.104945436 0.0683671 0.20453806 0.008990321 0.07267998
0.094493955 0.18432993 0.22558592 0.09299126 0.20520116 0.14117911 0.029113848 0.041469768
-0.18263096 -0.15834163 -0.0124992775 -0.19010398 -0.14480962 -0.0039635715 -0.11134362 -0.06359421
-0.09602228 -0.20041122 -0.11677542 -0.12106271 -0.18995073 -0.13101153 -0.044420753 -0.108878
-0.11157384 0.0373902 -0.21263683 -0.19000694 -0.079938374 -0.13438593 -0.09554652 -0.049211685
-0.0032865375 0.011433488 -0.14969783 -0.027009595 0.02442128 -0.16087772 -0.032853402 0.08681825
-0.17017029 0.014320108 0.07568681 0.017061733 0.16207255 0.14220779 0.1488545 0.20476276
0.24469158 0.1063452 0.16093162 0.11604391 -0.083125755 -0.20953651 -0.09650672 -0.12840669
-0.19619662 -0.16513795 -0.052218366 -0.098980725 -0.011891651 0.022805315 -0.057358183 -0.21924688
-0.028958127 -0.19074729 -0.28336293 -0.0050259023 -0.10794931 -0.050082214 0.12201245 0.097975165
0.10933527 0.118906416 -0.012976943 -0.07078979 0.08793333 0.0016660397 -0.10153345 -8.594532e-05
0.19994663 0.23756713 -0.024285274 0.1772976 0.18572846 -0.19745688 -0.098037876 -0.00047381056
00000000: 1a4d 9e3d fb88 babb 6371 afbd 76c3 86bd
00000010: e0b1 37be 737a 84bd 4ea8 5abe 5878 9abe
00000020: 6d16 18bd a95e 95bd 2791 c3bd 4e92 23bd
00000030: 5ac4 833d 437a 883e 67b1 113e eeb5 293e
00000040: 5cdf 8a3e 20d3 4d3e 5a29 92be 7427 e1bc
00000050: 789d 0d3e 7165 95bc ac88 253e f359 cb3d
00000060: a6dc 4d3e 7b4f 6e3e 0ed5 3ebe faa9 6c3c
00000070: 560c 8abd 553d 053e bc40 cdbd 7221 bbbc
00000080: c917 173e 6695 22be d07a d0bd 087e 193d
00000090: 0cf5 c03d 2984 803d 82f0 e13d 6a28 6a3d
000000a0: b38b 993d 6d28 9f3d b057 72be 91b4 20be
000000b0: b843 11bd fc65 ca3c 5da2 85bd 6127 10bd
000000c0: 09d6 d63d 4d01 dd3d 6b5c 483e a2ed d63d
000000d0: 0d04 8c3d 6d72 513e 244c 133c 3ed9 943d
000000e0: 0c86 c13d fcc0 3c3e ffff 663e 3472 be3d
000000f0: 4120 523e 4291 103e 2a80 ee3c 34dc 293d
00000100: 9c03 3bbe 4f24 22be c5c9 4cbc 9eaa 42be
00000110: f948 14be d9e0 81bb 2008 e4bd ae3d 82bd
00000120: 54a7 c4bd 9938 4dbe f427 efbd baef f7bd
00000130: 7282 42be e327 06be 89f2 35bd 6efb debd
00000140: d380 e4bd 7726 193d 78bd 59be 2e91 42be
00000150: bbb6 a3bd 779c 09be e5ad c3bd 3192 49bd
00000160: f362 57bb 8653 3b3c 634a 19be 3a43 ddbc
00000170: 230f c83c 21bd 24be 4a91 06bd c4cd b13d
00000180: 1f41 2ebe e39e 6a3c b001 9b3d 0cc5 8b3c
00000190: 59f6 253e eb9e 113e 506d 183e 54ad 513e
000001a0: 6e90 7a3e 83cb d93d 42cb 243e 6ea8 ed3d
000001b0: d63d aabd bd90 56be 51a5 c5bd 0b7d 03be
000001c0: c4e7 48be ec19 29be ede2 55bd 68b6 cabd
000001d0: 33d5 42bc 36d2 ba3c 6af0 6abd 4182 60be
000001e0: 9839 edbc 4253 43be f214 91be 53b0 a4bb
000001f0: 8714 ddbd 0223 4dbd aae1 f93d 34a7 c83d
00000200: 2ceb df3d 3585 f33d 3e9d 54bc 3dfa 90bd
00000210: 6416 b43d 045f da3a c5f0 cfbd 8b3d b4b8
00000220: cfbe 4c3e cc44 733e e9f1 c6bc 818d 353e
00000230: 9a2f 3e3e 2332 4abe 15c8 c8bd c769 f8b9

mixlayers.3.op.2.weight f4 [32, 16, 1, 1]
-0.1320123 0.28996685 -0.06845273 0.014638315 -0.0663805 -0.10723827 0.0042983526 0.06218668
-0.15364695 -0.03340919 0.10940238 -0.07166469 0.007873869 -0.13100179 0.10181862 0.10871985
0.10944418 0.061405875 -0.017237958 0.00663748 -0.059360653 0.05661805 0.15313186 0.03162197
-0.046363868 -0.09187471 0.032872587 0.20707603 0.2858992 -0.13423614 -0.030481223 -0.016882557
0.025812868 0.12475246 0.05824194 -0.004087635 -0.064178996 0.034929097 0.01696052 -0.09523522
-0.034934316 -0.017886369 0.025874883 0.19951059 0.064667895 -0.22507371 0.048980486 -0.122000374
0.04456928 -0.04535134 0.06217383 0.013190018 0.04803109 -0.0033306251 0.07058604 0.023854543
0.021266203 0.083196074 -0.059242815 -0.09810774 0.15223894 0.058497593 0.025085544 -0.02511775
0.15756364 -0.061982322 0.035920486 -0.00903994 0.01118173 0.104783155 0.03937966 -0.028217286
0.05011025 0.01772861 0.050703038 -0.07910089 0.21889305 0.023603112 -0.09952848 -0.08614526
0.11333291 0.17818314 0.000365811 0.06569999 -0.12924603 0.12247609 -0.0036664947 -0.0054462315
0.2545205 0.050518118 0.090379454 0.09995301 -0.043894194 -0.08373832 -0.05970174 0.18111384
0.032998685 -0.053278968 -0.06729827 0.026411667 -0.0150317475 0.22016768 -0.05411378 0.2103464
0.046687104 0.20606703 0.0064522335 0.13749883 -0.07277562 0.023476489 0.022021417 0.042008456
0.048619457 0.05081509 -0.047438383 -0.07634046 -0.047294557 0.009965748 -0.03723108 0.11219274
-0.012172528 0.012485891 0.07767672 -0.030483345 -0.22192854 -0.029678326 0.036667526 0.20885476
0.17454572 -0.13858424 0.035435274 0.059837908 0.0703303 0.12730803 -0.05771148 -0.008792925
-0.00060652156 -0.03400354 0.066768005 0.050576273 0.2812276 0.13608028 -0.1508562 -0.07989191
-0.04851581 0.016340414 -0.06231241 0.008830776 0.050602034 0.030412624 -0.18207172 -0.046334863
0.0030856289 -0.05737586 -0.06348108 -0.08441956 0.10716797 0.11018942 -0.04921521 -0.08263022
-0.004126338 -0.04470039 -0.022379372 0.09080907 -0.044387437 -0.20614295 -0.055272687 0.07611825
0.2315254 -0.019211166 0.09060539 0.04248968 0.16271172 0.10077214 0.00029028676 0.16706713
-0.10858351 0.118702926 -0.067231365 0.08343563 0.03959615 -0.18445472 -0.030511545 0.13504383
-0.08860954 -0.04394064 0.036495797 -0.07539221 0.06243996 0.0429329 0.028631859 0.13456152
0.0053860717 -0.0398229 -0.03570173 0.009954408 -0.043826245 -0.065395415 0.13028397 0.042091973
0.01856113 0.03835487 -0.0011051793 0.03682518 -0.026415667 -0.0481675 -0.035656027 0.0006691472
0.08691745 0.048232306 -0.06286622 0.0017433971 0.032774366 0.028672889 0.09044289 -0.05363219
0.22245206 0.011814802 0.03451411 0.23664346 0.1225447 -0.071136706 0.03505221 0.08431745
0.12067239 0.29216647 -0.108867206 0.07363837 -0.093576126 0.10619352 -0.083084166 -0.06033558
0.029088952 0.038552474 0.0871349 -0.03428447 -0.035124194 -0.14982249 -0.0759251 -0.21855307
0.11523031 0.034126844 0.09536265 0.061463226 -0.104544826 0.08337394 -0.06955163 0.13240102
0.034139343 0.033345196 -0.07109182 0.33534122 0.08179669 -0.04534029 0.1115835 0.09131963
00000000: 3b2e 07be 8976 943e f230 8cbd 8bd5 6f3c
00000010: 80f2 87bd bd9f dbbd 32d9 8c3b 76b7 7e3d
00000020: a055 1dbe 13d8 08bd 5b0e e03d f0c4 92bd
00000030: 6601 013c 5525 06be 4886 d03d 83a8 de3d
00000040: 4524 e03d ba84 7b3d 9e36 8dbc 387f d93b
00000050: 2824 73bd 54e8 673d 99ce 1c3e 0a86 013d
00000060: 0ae8 3dbd cf28 bcbd 68a5 063d bd0b 543e
00000070: 6161 923e 3375 09be c2b3 f9bc 4a4d 8abc
00000080: 8275 d33c 387e ff3d 1a8f 6e3d 91f1 85bb
00000090: 4770 83bd d011 0f3d caf0 8a3c af0a c3bd
000000a0: 4917 0fbd 6f86 92bc 90f7 d33c 814c 4c3e
000000b0: 9a70 843d b979 66be c39f 483d 55db f9bd
000000c0: 478e 363d 54c2 39bd fca9 7e3d f21a 583c
000000d0: 40bc 443d 9e46 5abb 6a8f 903d 9a6a c33c
000000e0: 7636 ae3c b462 aa3d 98a8 72bd b6ec c8bd
000000f0: 86e4 1b3e 2c9b 6f3d 3380 cd3c bdc3 cdbc
00000100: 5d58 213e 2de1 7dbd 5c21 133d 421c 14bc
00000110: 9333 373c 8d98 d63d 914c 213d f027 e7bc
00000120: 6840 4d3d 973b 913c fdad 4f3d a6ff a1bd
00000130: 8025 603e 505b c13c 96d5 cbbd ed6c b0bd
00000140: 161b e83d a475 363e 52ca bf39 b78d 863d
00000150: 1259 04be bfd4 fa3d 9349 70bb 4d76 b2bb
00000160: 8350 823e 16ec 4e3d dd18 b93d 2ab4 cc3d
00000170: 66ca 33bd ff7e abbd d089 74bd e875 393e
00000180: a129 073d 0c3b 5abd add3 89bd 485d d83c
00000190: b847 76bc a373 613e 69a6 5dbd 0c65 573e
000001a0: fa3a 3f3d 3c03 533e 426d d33b 7ecc 0c3e
000001b0: 620b 95bd c451 c03c 4266 b43c 0f11 2c3d
000001c0: 3225 473d 7c23 503d c04e 42bd 6358 9cbd
000001d0: f0b7 41bd 6047 233c 9e7f 18bd 4fc5 e53d
000001e0: 486f 47bc 9f91 4c3c f914 9f3d 35b8 f9bc
000001f0: 3c41 63be f61f f3bc b030 163d 06de 553e
00000200: 1dbc 323e 07e9 0dbe 9424 113d 9818 753d
00000210: 5509 903d 095d 023e df62 6cbd 3310 10bc
00000220: f9fe 1eba 4c47 0bbd aabd 883d 1129 4f3d
00000230: 10fd 8f3e a158 0b3e 0c7a 1abe 5f9e a3bd
00000240: 84b8 46bd 55dc 853c 4c3b 7fbd f6ae 103c
00000250: 1444 4f3d e523 f93c 0271 3abe a0c9 3dbd
00000260: 4338 4a3b f302 6bbd 5e02 82bd 2ae4 acbd
00000270: e17a db3d feaa e13d e395 49bd 083a a9bd
00000280: 3b36 87bb c217 37bd f254 b7bc 1bfa b93d
00000290: 9acf 35bd 2317 53be 9d65 62bd e3e3 9b3d
000002a0: ff14 6d3e bc60 9dbc 528f b93d a909 2e3d
000002b0: e79d 263e a061 ce3d a131 9839 a513 2b3e
000002c0: 0861 debd 851a f33d 99b0 89bd 4de0 aa3d
000002d0: 932f 223d b3e1 3cbe 59f3 f9bc ee48 0a3e
000002e0: eb78 b5bd 1afb 33bd 9e7c 153d 3b67 9abd
000002f0: 0bc1 7f3d 69da 2f3d 5c8d ea3c 7fca 093e
00000300: a57d b03b 561d 23bd fa3b 12bd d017 233c
00000310: 2683 33bd 08ee 85bd 2969 053e a268 2c3d
00000320: 830d 983c ff19 1d3d aadb 90ba 00d6 163d
00000330: ab65 d8bc 494b 45bd 0e0c 12bd b569 2f3a
00000340: c701 b23d 3d8f 453d 01c0 80bd b382 e43a
00000350: 6a3e 063d 68e3 ea3c 1f3a b93d 6dad 5bbd
00000360: 79ca 633e df92 413c ab5e 0d3d aa52 723e
00000370: b7f8 fa3d 1fb0 91bd e892 0f3d a1ae ac3d
00000380: 1623 f73d d896 953e c5f5 debd b7cf 963d
00000390: d7a4 bfbd fd7b d93d 0828 aabd 7122 77bd
000003a0: f44b ee3c 33e9 1d3d c873 b23d df6d 0cbd
000003b0: 63de 0fbd 116b 19be 9e7e 9bbd 60cc 5fbe
000003c0: defd eb3d 97c8 0b3d 7e4d c33d ddc0 7b3d
000003d0: 991b d6bd f5bf aa3d 1671 8ebd 2294 073e
000003e0: b2d5 0b3d f994 083d 9798 91bd d8b1 ab3e
000003f0: 0685 a73d bdb6 39bd e485 e43d c905 bb3d

mixlayers.3.op.3.weight f4 [32]
0.2791482 0.2884296 0.23913 0.33263227 0.32478246 0.27304915 0.26498938 0.19239219
0.30218387 0.32253364 0.28155157 0.2884585 0.22101209 0.18969715 0.2808003 0.23540416
0.29239213 0.28619653 0.22713137 0.26076826 0.28356996 0.2634633 0.17859058 0.22181298
0.25912833 0.25222787 0.2886601 0.26195782 0.27399772 0.30015507 0.24981895 0.27866566
00000000: 83ec 8e3e 0bad 933e 7fde 743e c74e aa3e
00000010: e349 a63e 19cd 8b3e b0ac 873e 7502 453e
00000020: d8b7 9a3e 2123 a53e 8727 903e d5b0 933e
00000030: fe50 623e f83f 423e 0fc5 8f3e ca0d 713e
00000040: 6cb4 953e 5a88 923e 2095 683e 6b83 853e
00000050: 1530 913e a9e4 863e 73e0 363e f122 633e
00000060: 78ac 843e 0324 813e 42cb 933e 561f 863e
00000070: 6e49 8c3e edad 993e 8ad0 7f3e 44ad 8e3e

mixlayers.3.op.3.bias f4 [32]
0.0025170092 0.0025173598 0.05079206 0.093182534 0.072104014 0.042384464 0.018941404 0.065229625
0.13173588 0.050043114 0.12279806 0.20133808 0.017985914 0.2600627 -0.04038366 0.08673951
0.034310676 0.12918995 0.08398269 -0.0042327507 -0.030493356 -0.007317165 0.20032644 0.069223374
-0.014657466 0.107893534 0.06278444 0.10881989 -0.019961806 0.15713942 -0.007397472 0.16040249
00000000: 68f4 243b 4afa 243b 560b 503d 7cd6 be3d
00000010: 45ab 933d 559b 2d3d 012b 9b3c 1c97 853d
00000020: c5e5 063e 02fa 4c3d 8d7d fb3d 922b 4e3e
00000030: 3257 933c f026 853e 5669 25bd 7ca4 b13d
00000040: 5a89 0c3d 5f4a 043e 1eff ab3d e3b2 8abb
00000050: 34cd f9bc d4c4 efbb 6022 4d3e fcc4 8d3d
00000060: de25 70bc 49f7 dc3d 2195 803d f6dc de3d
00000070: f186 a3bc 28e9 203e 7e66 f2bb 8d40 243e

mixlayers.3.op.3.running_mean f4 [32]
0.05740362 0.005427299 0.05859704 -0.04339512 -0.06309849 0.014682589 -0.038703125 0.0026613628
-0.077656984 -0.018240992 -0.06453277 -0.007288856 -0.009736754 0.0075708786 0.006310183 0.0029233827
0.060703587 -4.4498065e-05 -0.050663378 -0.085039526 -0.045726538 0.038921688 -0.010525026 -0.0016451032
-0.01168561 0.019130133 0.001648355 0.013928456 0.0665112 -0.032057393 0.11757828 -0.029144637
00000000: 0f20 6b3d 7cd7 b13b 7303 703d 15bf 31bd
00000010: c839 81bd 3e8f 703c 2b87 1ebd 426a 2e3b
00000020: a00a 9fbd 226e 95bc c229 84bd 5bd7 eebb
00000030: e886 1fbc 2215 f83b a7c5 ce3b 3996 3f3b
00000040: 53a4 783d 6fa3 3ab8 6784 4fbd 3429 aebd
00000050: c04b 3bbd 596c 1f3d 2971 2cbc 81a0 d7ba
00000060: 0075 3fbc ccb6 9c3c 9e0d d83a 2e34 643c
00000070: 0637 883d 9d4e 03bd e2cc f03d bcc0 eebc

mixlayers.3.op.3.running_var f4 [32]
0.003602487 0.004397497 0.004325582 0.0018253712 0.002834684 0.006826406 0.0036489978 0.004380971
0.0037297597 0.0022809077 0.003888929 0.003467583 0.0002655861 0.003492256 0.005647927 0.008696439
0.003229639 0.0054601054 0.0045076073 0.00398147 0.0050916844 0.0034133445 0.0033076776 0.0033589825
0.0019615004 0.008385966 0.0032227451 0.0012990584 0.0015771874 0.00925858 0.0070488793 0.0052395132
00000000: b417 6c3b e118 903b 9dbd 8d3b 4b41 ef3a
00000010: 1bc6 393b 0bb0 df3b 0624 6f3b 408e 8f3b
00000020: fc6e 743b 487b 153b 67dd 7e3b 6440 633b
00000030: 5d3e 8b39 55de 643b 3f12 b93b 827b 0e3c
00000040: 5aa8 533b afea b23b 8db4 933b fe76 823b
00000050: 25d8 a63b 6bb2 5f3b 9fc5 583b 6022 5c3b
00000060: 848c 003b 4a65 093c b134 533b 2b45 aa3a
00000070: a1b9 ce3a 4db1 173c 49fa e63b 39b0 ab3b

mixlayers.4.op.1.weight f4 [32, 1, 3, 3]
-0.13815033 -0.15538113 0.11966458 -0.10184951 -0.13465162 -0.03561256 0.08482177 0.27364722
0.088755585 -0.15766007 -0.038361777 0.032404024 0.1286849 -0.15866731 -0.26072362 0.15852048
-0.04430654 -0.094116785 0.09430253 0.26242837 -0.069573656 0.11241148 -0.04929952 3.9976316e-05
0.0152255725 0.21542074 0.019610355 -0.18744245 -0.04210954 0.14103585 0.0041120225 0.1438148
0.08134645 -0.058503363 0.021488233 -0.19953658 0.03384943 -0.06760184 -0.024429414 -0.023492265
-0.21109225 -0.18676902 0.1724108 0.1116294 0.035708725 0.12729196 0.19420642 -0.07793205
-0.038290963 -0.27060026 -0.2329869 -0.025416423 -0.17745061 0.031253614 -0.048241276 0.038715035
-0.28449854 0.098953016 -0.0050952705 -0.13894196 0.17931838 0.14693677 0.19684643 0.19879524
0.13179891 -0.007119675 -0.039841514 0.024824698 -0.17694665 -0.13694382 -0.06689922 -0.2159336
-0.12508245 -0.1027208 -0.21439938 -0.10573048 -0.1289102 -0.08582958 0.03165109 0.19181894
0.053002242 0.060059994 0.21538486 0.09645698 0.015192181 0.038363207 -0.13420065 -0.06925839
-0.18004476 -0.1146891 0.008427622 0.07573604 0.053412456 -0.122565806 0.012351473 0.010415346
-0.2889802 -0.17708576 -0.072581865 0.04110634 -0.17757462 0.19515096 0.06471225 -0.2013741
-0.14712258 0.091884196 0.21586528 -0.1376999 0.00899355 -0.10180377 -0.05740753 -0.040736407
0.09486271 0.076964356 -0.04684864 -0.030178707 0.00079608697 0.085091375 -0.036478043 -0.21542747
-0.14727686 -0.0019781573 -0.081211105 0.21117698 0.23531935 0.07326122 -0.009777781 0.018653572
0.20883986 0.03830663 0.3251959 0.108156316 -0.06574864 0.008961044 -0.04071188 -0.033551455
0.23308608 -0.05783834 0.22312954 0.2298607 -0.19790767 -0.054562986 0.08409225 -0.24324186
0.017526101 0.00838354 -0.14886408 0.17017439 0.046416182 0.01833599 0.023601538 -0.3024244
-0.11216764 -0.00279017 0.15552495 -0.034395806 0.192253 -0.3397975 -0.18656565 -0.046459455
-0.2023791 0.091547325 -0.09029001 -0.21839109 -0.1593428 -0.08128738 0.01773666 0.024875768
-0.07192416 0.24869196 0.19115682 -0.0054209474 0.045828573 0.20200393 -0.18903305 0.09821474
-0.077978365 -0.14950138 -0.17201838 -0.25799644 0.005570501 0.06267629 0.014733453 -0.09670404
-0.3190464 -0.1086834 -0.14060873 -0.124130696 0.15370624 -0.03785886 0.030982306 0.18994926
0.12274314 -0.1972615 -0.21682958 -0.009122242 -0.16730529 0.021639898 0.009230546 -0.14993335
0.012974295 -0.16639104 -0.14971368 -0.08759366 0.2313618 0.13948323 -0.15556172 0.100518204
0.26891732 0.09565179 0.08680782 -0.055609047 -0.057765882 -0.0019138015 -0.27778545 0.05888959
-0.118921556 0.1311904 -0.019687371 0.11800494 0.33689544 -0.046399277 -0.007702457 0.0145791415
-5.5745445e-06 0.33045688 -0.0032922043 -0.20733127 0.21589786 0.010702507 -0.0045162155 -0.3530796
0.2567186 0.13897216 -0.023227813 -0.25215766 -0.0020346066 0.087510474 0.04745245 -0.10083697
0.20564343 -0.066170864 0.10523006 -0.11693697 0.012250568 0.01097884 -0.035737976 0.12861569
-0.07117316 -0.10346699 0.098596886 -0.14247525 0.07306928 -0.009410264 -0.038740244 0.052114565
00000000: 4877 0dbe 3b1c 1fbe b412 f53d 7a96 d0bd
00000010: 1de2 09be 7ade 11bd 09b7 ad3d 7d1b 8c3e
00000020: 7dc5 b53d a471 21be 3d21 1dbd 15ba 043d
00000030: f9c5 033e af79 22be 917d 85be 3153 223e
00000040: c67a 35bd 4dc0 c0bd af21 c13d 035d 863e
00000050: a27c 8ebd fd37 e63d 4bee 49bd 3eac 2738
00000060: ae74 793c 4197 5c3e e5a5 a03c eaf0 3fbe
00000070: 0e7b 2cbd b46b 103e 25be 863b 3044 133e
00000080: f898 a63d 39a1 6fbd 1708 b03c 5153 4cbe
00000090: b3a5 0a3d d572 8abd 3220 c8bc da72 c0bc
000000a0: 9128 58be 6140 3fbe 758c 303e f49d e43d
000000b0: 5043 123d d358 023e 0cde 463e d79a 9fbd
000000c0: fcd6 1cbd 1e8c 8abe 1e94 6ebe 1a36 d0bc
000000d0: 9db5 35be ca03 003d a598 45bd a893 1e3d
000000e0: cba9 91be e1a7 ca3d 3af6 a6bb cd46 0ebe
000000f0: 3d9f 373e 9876 163e 1c92 493e fb90 4b3e
00000100: 4bf6 063e 2a4c e9bb db30 23bd 2a5d cb3c
00000110: 8131 35be 003b 0cbe 7502 89bd b31d 5dbe
00000120: 9d15 00be 485f d2bd 838b 5bbe 3989 d8bd
00000130: 0901 04be 6bc7 afbd 93a4 013d 2f6c 443e
00000140: e118 593d 7801 763d d98d 5c3e 3d8b c53d
00000150: a0e8 783c bd22 1d3d e56b 09be 58d7 8dbd
00000160: a75d 38be 1ee2 eabd 0214 0a3c 7f1b 9b3d
00000170: 05c7 5a3d c803 fbbd d55d 4a3c 21a5 2a3c
00000180: 36f5 93be f855 35be cda5 94bd 1f5f 283d
00000190: 1fd6 35be a7d5 473e db87 843d 0335 4ebe
000001a0: 4da7 16be c82d bc3d ca0b 5d3e 3401 0dbe
000001b0: af59 133c 7f7e d0bd 2824 6bbd 38db 26bd
000001c0: 6147 c23d 7d9f 9d3d 5ce4 3fbd 5639 f7bc
000001d0: 7eb0 503a 6344 ae3d 006a 15bd 0599 5cbe
000001e0: bfcf 16be f9a3 01bb 0252 a6bd c73e 583e
000001f0: 8ef7 703e fa09 963d fc32 20bc 60cf 983c
00000200: 1eda 553e 6ae7 1c3d 1480 a63e 0f81 dd3d
00000210: 39a7 86bd 58d1 123c 80c1 26bd 406d 09bd
00000220: 1eae 6e3e e5e7 6cbd 127c 643e 9a60 6b3e
00000230: 4fa8 4abe 707d 5fbd 8f38 ac3d 6514 79be
00000240: e692 8f3c 1e5b 093c d36f 18be 3242 2e3e
00000250: e51e 3e3d 5c35 963c 0358 c13c 5fd7 9abe
00000260: 26b8 e5bd 49db 36bb ef41 1f3e 9ee2 0cbd
00000270: f8dd 443e f0f9 adbe 110b 3fbe 454c 3ebd
00000280: 773c 4fbe 2a7d bb3d f8e9 b8bd eaa1 5fbe
00000290: c22a 23be ff79 a6bd 794c 913c 44c8 cb3c
000002a0: f94c 93bd 1ba9 7e3e 9dbe 433e 34a2 b1bb
000002b0: beb6 3b3d 1eda 4e3e e191 41be cf24 c93d
000002c0: 1fb3 9fbd e416 19be 9625 30be 1c18 84be
000002d0: c088 b63b 6d5c 803d 9564 713c c50c c6bd
000002e0: 0d5a a3be 6795 debd bcfb 0fbe 3c38 febd
000002f0: 2b65 1d3e e411 1bbd 9bce fd3c 0f82 423e
00000300: c160 fb3d ebfe 49be 9308 5ebe 7575 15bc
00000310: 1452 2bbe 2846 b13c b73b 173c 2188 19be
00000320: 2392 543c 6a62 2abe 8b4e 19be 4e64 b3bd
00000330: 1cea 6c3e b1d4 0e3e 924b 1fbe 7ddc cd3d
00000340: 88af 893e 16e5 c33d 4cc8 b13d 50c6 63bd
00000350: eb9b 6cbd 86d8 faba e539 8ebe 3636 713d
00000360: 258d f3bd c756 063e 6947 a1bc 93ac f13d
00000370: 8f7d ac3e 2b0d 3ebd e464 fcbb 5add 6e3c
00000380: f90c bbb6 a531 a93e 06c2 57bb a64e 54be
00000390: 5414 5d3e 9159 2f3c c3fc 93bb d9c6 b4be
000003a0: 9f70 833e b84e 0e3e 4148 bebc cf1a 81be
000003b0: 0957 05bb b138 b33d 805d 423d 9d83 cebd
000003c0: 3194 523e 9784 87bd dc82 d73d a67c efbd
000003d0: 9bb6 483c 98e0 333c fc61 12bd d5b3 033e
000003e0: 3cc3 91bd 80e6 d3bd 2aed c93d 08e5 11be
000003f0: 59a5 953d 822d 1abc 17ae 1ebd 1576 553d
