Rubric-Kmnist_cutout-20240327-102817/weights.pt (torch, 281376 bytes, 145 tensors)

stem.0.weight f4 [4, 1, 3, 3]
00000000: 8f3b 58be feab 2d3e 7e3a bd3d 6403 38bf
00000010: 8b14 ab3d 2535 083e 3bad 3f3e 5158 b53e
00000020: 00d5 44be 1c80 313e 3831 c4be dba9 413c
00000030: 1d08 17bf 07a5 4ebf 67d4 82be c67a 5f3a
00000040: 0b25 6fbe d087 763d 7109 03be dfde 9e3e
00000050: 615c f8bc 71a8 af3e 4d16 fe3e 457e 1fbf
00000060: 2ca3 823d 79bd 013f 6b61 aabe d5f1 a83e
00000070: 5d46 3b3f 69a5 9f3c c72e a63e ca3f 02bc
00000080: e41b 69bc 93fd afbe e3af b5be d153 b73e
-0.2111647 0.16960141 0.09239672 -0.71880174 0.08353528 0.13301523 0.18718426 0.35418943
-0.19221878 0.17334026 -0.383188 0.011820282 -0.58996755 -0.8072056 -0.25552675 0.00085250696
-0.23353975 0.060188115 -0.1279657 0.31029412 -0.030317487 0.34308198 0.4962639 -0.62302047
0.06378779 0.5067974 -0.3327745 0.32997003 0.7315424 0.019488053 0.32457563 -0.007949779
-0.014227841 -0.3437315 -0.35485753 0.35806134

stem.1.weight f4 [4]
00000000: 67d3 fc3e 6309 5e3f cc27 193f 472a 1b3f
0.49380037 0.86733073 0.5982635 0.60611385

stem.1.bias f4 [4]
00000000: 42b4 053f bf15 873e 06f6 0e3e 0e00 a23e
0.52228177 0.26383778 0.13961038 0.31640667

stem.1.running_mean f4 [4]
00000000: 870b 41bb 795e 3b3c 4a2b 5abc 4842 6d3b
-0.0029456334 0.011436098 -0.013315985 0.0036202837

stem.1.running_var f4 [4]
00000000: 900b 683e cbbd 1d40 27d0 2a3f 1183 5d3f
0.2266066 2.464709 0.66723865 0.86528116

mixlayers.0.op.1.weight f4 [4, 1, 3, 3]
00000000: 71c5 85bd 80ec 4d3e b6f2 cd3e 529d a23e
00000010: 97b5 cbbe f5ae 2ebe 94ba ae3e 35b1 0abf
00000020: 6e48 b03d 6b8e 783d 9c86 fcbb f2d6 843e
00000030: 8e94 a2be ad78 27bf d599 42bd 1edc dfbd
00000040: 2841 28bf 3f87 2a3d a7b7 543e 414a 80be
00000050: c94c 4d3e 5d9b a73d b1b3 2fbf fcb7 ddbe
00000060: 5d3f 5fbd 2c06 9abe 9fc4 ce3d 48cf 993e
00000070: 9ed5 e7be 0ef4 e93d 8199 17bf eb89 afbe
00000080: 458d 783d f51f fb3e dee4 213f b4be 9cbe
-0.065317996 0.20109749 0.40224236 0.3176065 -0.3978698 -0.17058928 0.34126723 -0.54176646
0.08607565 0.060682695 -0.0077064764 0.2594524 -0.31753963 -0.6541851 -0.047509987 -0.10930656
-0.6572442 0.041632887 0.20773183 -0.2505665 0.20048822 0.0818393 -0.6863356 -0.4330443
-0.054503787 -0.30082834 0.10096096 0.30040956 -0.45280164 0.11423503 -0.59218603 -0.3428491
0.0606816 0.4904782 0.6323985 -0.30614245

mixlayers.0.op.2.weight f4 [16, 4, 1, 1]
00000000: 0b70 94bd 754f b6bd 7364 45be 1b09 a73e
00000010: 0b5e 7f3e d73c e0bd 1156 8c3e 5c35 48bc
00000020: f24e 3a3c 1f08 0cbe f16f 9d3d e03e 30be
00000030: 1975 dfbe 4f0e 36be 4740 eebc e958 92be
00000040: 77b0 a1be b8bd b23e 60a1 4bbe f7aa db3e
00000050: 6bfb a5be b5a1 afbe 03af a53e 4b6e dcbd
00000060: 6e93 21be 442d 67be 8fc0 d23e 8830 bfbe
00000070: ad08 223e 97d3 af3d 0f5e 813e eff6 ccbe
00000080: 002a cebd 4790 023e ca36 cebe b786 2bbe
00000090: 74bd 06be d64c 73be c12a 993e 5af2 9d3c
000000a0: 8746 ef3d e7a1 c8bd 199a 1a3e af77 373f
000000b0: 7b5c 173f 15d5 1f3e bf78 503e 3ead 413e
000000c0: e858 a3bd 9156 aebd ff25 c23e 94da cbbd
000000d0: bf0d 0e3e 4ae9 613f 884c 0a3c 3edb fd3a
000000e0: c085 293e 82ce dcbc 0037 3b3e a041 76be
000000f0: 3b9d 9abd b977 0ebd 7212 fc3e 7be3 c53d
-0.07247933 -0.08901874 -0.192766 0.32624134 0.24938218 -0.10949104 0.27409413 -0.012219753
0.011371361 -0.13674973 0.07687367 -0.17211485 -0.43644026 -0.17778896 -0.029083384 -0.28583458
-0.31579944 0.3491037 -0.19885778 0.42903873 -0.3241838 -0.3430306 0.32360086 -0.10763224
-0.15778896 -0.22575861 0.41162536 -0.37341714 0.15823622 0.085852794 0.25267074 -0.40032145
-0.100666046 0.1275035 -0.40276176 -0.16750608 -0.13158208 -0.2375978 0.2991543 0.019280601
0.11683374 -0.097965054 0.15097846 0.71667 0.5912549 0.15608628 0.20358561 0.18913743
-0.07975942 -0.08512605 0.37919614 -0.099538 0.13872431 0.88246596 0.008441098 0.0019367707
0.16554928 -0.02695394 0.182827 -0.24048471 -0.075495206 -0.034782145 0.49232823 0.09662529

mixlayers.0.op.3.weight f4 [16]
00000000: 6f76 cb3e 37b5 0e3f ab9b e03e 8a4c 093f
00000010: e1db ce3e b49f 323f 826a c33e 5188 0d3f
00000020: 7a4d bf3e 18bb 203f c833 e53e 292c f43e
00000030: 7efe 253f 5421 023f e934 053f 9547 1a3f
0.39738795 0.5574526 0.43868765 0.53632414 0.4040213 0.6977494 0.38167197 0.5528613
0.37363797 0.6278548 0.44766068 0.47689942 0.6484145 0.50832105 0.5203386 0.60265476

mixlayers.0.op.3.bias f4 [16]
00000000: cb1b e23d d0a9 0b3d d2fd 7dbc 0acb febd
00000010: 78b9 9c3c 6bec 353d fba7 063f 3dde bbbc
00000020: 714d b03b 5ff5 193b 2736 b13e c689 733d
00000030: adbe 543d e9fe 873d d1c5 1d3d baab 8f3c
0.11040457 0.034097493 -0.01550241 -0.124410704 0.019131407 0.04441492 0.5260007 -0.02293312
0.0053803255 0.00234922 0.34611627 0.059457563 0.051939655 0.06640417 0.03851873 0.01753794

mixlayers.0.op.3.running_mean f4 [16]
00000000: d22e ca3d a822 ae3c 7e97 af3d 2c5a ef3d
00000010: 43c7 74be f108 0d3e a352 563d bb2a d4bd
00000020: 9c3c ab3c b7df 9d3d 5889 b13b 72a5 09be
00000030: 84a4 3ebd 5f58 21bf 5240 12bc 4017 fcbd
0.098722115 0.02125676 0.08573817 0.11687121 -0.23904137 0.13772942 0.052324902 -0.10359713
0.020902924 0.07708686 0.005417984 -0.13442019 -0.046543613 -0.6302547 -0.008926468 -0.12309122

mixlayers.0.op.3.running_var f4 [16]
00000000: 172b f63c 1ed3 0d3d 971f 9e3c aa99 7d3d
00000010: 70cb d13d 6424 203e 1cda 3a3e 6d9a 3a3d
00000020: c694 8c3d 3983 a43d e376 be3d 29f1 473d
00000030: ee69 9f3d 9271 563e f928 c03c 28e2 b53d
0.030049844 0.034625165 0.019302173 0.061914124 0.10243881 0.15638882 0.18247265 0.04555743
0.06864314 0.08032841 0.093000196 0.048813973 0.07783876 0.20941761 0.023457037 0.088810265

mixlayers.1.op.1.weight f4 [16, 1, 3, 3]
00000000: ad48 f93b f68d a1bc 727f 643d 1d12 4e3d
00000010: fb88 13be c8d6 3b3d 6c06 a93e bd8c 7bbc
00000020: b197 8f3e 2045 e1bd f7c4 b53a 8b5a 0dbe
00000030: 144e 453d 33ed 543e 15ce 2dbe 0f24 41be
00000040: 6fc5 453e e9b3 29be a0e1 9e3b f70c 4ebb
00000050: 2b05 17be 2e43 093d 890b b13d d3ee c93c
00000060: 96f5 793c 4d54 eb3a 49f6 1ebd 122a 7cbd
00000070: 0911 543e bd46 aa3e 7e3b 95bd 7e27 7a3e
00000080: 198d 193e 3387 44bc ff8e 1e3e 1e75 233e
00000090: 55e8 a93e 08ec 81be d877 f7be a031 15bd
000000a0: b535 07be 5b7c 32be d6dd 08be 777e 8d3e
000000b0: 66a7 6d3e 4521 74bb 7ba8 963e 5e34 973e
000000c0: baed 13be f7d8 b93e 06bb 9a3e 81f2 2e3c
000000d0: 2b66 d5bd 2d3f a8be 470d 9d3d 7c2d 4abe
000000e0: 5611 d03d cfa6 b8bc 5b82 82be a1d1 aebe
000000f0: 60fa 263e dc6f a1be d04a 9abe d0da 05bd
00000100: 02fe 933e cba7 bb3e c159 bcbc 6016 69be
00000110: c31c f0be 0805 b43d d975 a23c eea0 73bd
00000120: e4ec 9f3c ecba b0bd d6a0 0dbe 3d3b 753d
00000130: f921 493e 7b6e cf3d 4337 debd 4611 e83e
00000140: 0181 083e 6ba6 25bd 84f3 803d 1a0f b33d
00000150: fdbd 16be 28b4 a1be c507 bfbe e9f2 da3d
00000160: 44b7 82be 4503 9d3c ffc3 f83c b969 ebbe
00000170: 71b0 c8bd 6ce6 303e 8b69 d6bc 26b9 263e
00000180: 10f1 5d3e e31b cebe 791e dcbe e87b 84bd
00000190: 9008 4a3d 722e d83c 2e93 053e b665 c93e
000001a0: 219a bcbe 2447 26bc f581 353e 749c 71bc
000001b0: 9da4 9e3e a194 e939 3505 dfbd b184 6d3e
000001c0: 20a4 833d 4262 a8be 7392 42be fcfe 20be
000001d0: 3f39 17be ee94 8a3d ada8 c93e cfff ca3e
000001e0: 879a 79bd 1c09 ba3d 075b eb3e fa8f 5bbe
000001f0: b944 8ebd 2f06 7bbd bdec 8f3c ad17 adbd
00000200: c61e 31be a4dd 5a3e 9fa4 843e d958 d73c
00000210: fd46 333e 0906 8c3c 6a31 8d3b 47c4 34be
00000220: 4cf5 82be dc5b 43bc f105 55be 0392 80bd
00000230: 2ee1 243d 82ce d13d 1306 113c 63b0 bb3e
0.0076075406 -0.019721013 0.055785604 0.050310243 -0.14407723 0.04585913 0.33012712 -0.015353379
0.2804542 -0.10999513 0.0013867904 -0.1380407 0.048170164 0.2079361 -0.16973145 -0.18861412
0.19313596 -0.16572537 0.004848674 -0.0031440833 -0.14748065 0.033511333 0.08644778 0.024650013
0.015256306 0.0017954201 -0.038809095 -0.06156356 0.20709623 0.33257094 -0.07286738 0.24429128
0.1499523 -0.011995125 0.15484236 0.15962645 0.33185068 -0.2537539 -0.4833362 -0.03642428
-0.13204081 -0.1743025 -0.13365874 0.27635548 0.23208389 -0.0037251275 0.29425415 0.2953214
-0.14446154 0.36298344 0.30220813 0.010677935 -0.104198776 -0.328607 0.07668548 -0.19743913
0.101595566 -0.022540478 -0.25490078 -0.3414431 0.16306448 -0.31530654 -0.30135202 -0.03267938
0.2890473 0.36651453 -0.022992017 -0.22762442 -0.46896943 0.08790022 0.019831585 -0.059479646
0.019522138 -0.086294025 -0.13830885 0.059870947 0.19641866 0.10128494 -0.10850384 0.4532568
0.13330461 -0.04044191 0.06296447 0.08743115 -0.14720912 -0.3158276 -0.37310615 0.10690863
-0.25530446 0.019166598 0.030366896 -0.45979097 -0.097992785 0.17275399 -0.026173374 0.16281566
0.2167399 -0.4025565 -0.42992 -0.06468946 0.049324572 0.026389334 0.13044426 0.39335412
-0.3683634 -0.010148797 0.17725356 -0.014746774 0.30984965 0.0004455196 -0.10889665 0.23195149
0.06427789 -0.32887465 -0.19001178 -0.15722269 -0.14767931 0.06766687 0.39386502 0.3964829
-0.060938384 0.09083769 0.45967886 -0.21441641 -0.069467016 -0.061285194 0.01756894 -0.084517814
-0.17296895 0.21373612 0.25906846 0.026287483 0.17507549 0.017092722 0.004308869 -0.17652999
-0.25577772 -0.011923756 -0.20803048 -0.062778495 0.04025381 0.10244466 0.008851546 0.3665801

mixlayers.1.op.2.weight f4 [16, 16, 1, 1]
00000000: 6763 8bbe c3c6 223e ba33 853c 5bfa f5bd
00000010: cadf 9a3d c744 14be d02f e5bd 30b9 42bd
00000020: 5212 06be ac74 693d c9e8 8b3e c6ca 003e
00000030: 34d2 b33d 7758 a5be ec1d e23d df3e 7cbd
00000040: e461 1cbe 3816 38be 9827 91bd e144 863d
00000050: ba90 b63d 9115 813e c5c2 62bd 0288 b93d
00000060: 086a ecbd 0d9c 07be 421e 7cbd ab47 b2be
00000070: 5a8b b63c 76a9 3bbe 9698 7a3d 8a90 1a3c
00000080: d83a 5bbc db1c 2abe bd3f 16bc 078f e0bd
00000090: d719 2dbe 5fbf 51be 68b1 c43e 4fb9 df3e
000000a0: 104f 543e d88b c93d 8834 153e 0e0a 5abe
000000b0: 173d 78bd acde 8c3d 40b4 b2bd d773 433d
000000c0: 7490 4cbd 802b 0abe f266 fbbd a05e 0abe
000000d0: 7f02 aa3d fcf1 4d3e 6278 f83d b55b 373e
000000e0: 4268 c33c a2bf 163d 7270 74bd 348c 573d
000000f0: 9fc9 4cbd c3e6 86be e698 14be edc0 4dbd
00000100: ac7b 613d 4b18 9ebd 6278 b2bc 919a c93d
00000110: 742b 343e d4cd c73c e2a9 f3bd e774 6cbb
00000120: b6a3 1abd 6c67 1ebe a31f 3abb cf3f d1bb
00000130: b42d 563d aa47 f73d b3a0 20bd 2754 cbbd
00000140: ebd0 d9bd 3732 343d c038 37bc b806 603d
00000150: f544 973d 81c8 1e3d 7c45 30be 5b38 bebe
00000160: e5ad d3bd 3dc6 e63d 6759 c7be 2b0a 22be
00000170: 62a8 27bd fdc5 e43d 31cd 243e 33d4 0ebe
00000180: ba1b bc3c bfb1 293d 1511 8a3d aae5 363d
00000190: 14ee dfbc 8db9 b5bd 3147 3abe 5771 cf3d
000001a0: 90a6 42be 9544 c2bb 8d9d fc3e 6382 0dbe
000001b0: db67 fc3d 3ec7 0abd 73f4 0ebc 2d1e 043d
000001c0: c828 46be ee52 dabc 344d 553d d7f0 febd
000001d0: 6392 1bbe 9e63 63bd 997c 3b3d 12d3 47bd
000001e0: f84e c13d ffe9 00be 347b d33e 9542 cfbd
000001f0: d07f 963e da12 253e 1ac9 3a3d a669 c7bc
00000200: 19f1 28be 423d b9bd 5349 953d 048c 0c3e
00000210: ced7 033e bbf3 823d eff3 07be d215 903d
00000220: eaf5 a53c 7a86 e0bc d8d2 003e 2f99 7e3e
00000230: aa0a d83d defc 9bbd 5931 58bd f9e4 15bd
00000240: f57a 623d efd6 f23c 5a98 26bd 28d1 98bd
00000250: f2ec 76be 6b94 3b3d 8b6c 723e dc78 913e
00000260: 5260 543e 72e0 e43d 3ff3 9abd 9a71 313e
00000270: 63f8 25bc 7246 0fbe dcf7 353d fd16 203d
00000280: 223b e83b dd33 f5bc d769 183e c43a aebe
00000290: 87a5 1e3e 60ae fdbc 1973 343e bfbb 9fbe
000002a0: 597d 8c3d e522 2d3d e6b8 d2bd 63c0 023e
000002b0: e83b 8abe e96d 9ebd 035f 013e 8a8c 813e
000002c0: d9cd 1cbd 270c 29be dc04 47bb a1c1 dbbc
000002d0: ddb5 8abd 9151 b9be 0b17 91be 8953 d4b9
000002e0: 9f16 3fbe 6efa 72bd 6646 5fbd fcc5 033e
000002f0: 8695 083e 2c4a 8c3e 3a2e 283e 6915 d43d
00000300: 61df 06be f6b8 1cbe 6651 9abc 2ef8 a03d
00000310: 2c12 533c a7f1 6bbe fd76 dd3e 35ae b0bd
00000320: 0b78 223e 1328 ab3e 4ba6 503e f832 a4be
00000330: 7035 ac3c ed92 e83d 98a3 0e3e 4a16 093e
00000340: 8e98 49be 8608 8e3d 1962 a93b 7e3a 25be
00000350: 6bcd 22bd c5b3 a8be 55ff 253e ec15 d03b
00000360: f62c c2bd 471a dd3e 433a 2a3d a67a ffbd
00000370: a638 213e cbbb db3e 14a7 88bd c1bc 133e
00000380: 2b89 fabd 7397 9dbe bd2b d2bd f2a1 54bd
00000390: fb94 003e 5ef6 0cbe 3579 cdbc a4da 96b9
000003a0: 45e8 b7be 8330 c33c 12de b93c 2fcc 47be
000003b0: 5101 3e3e c571 84be 4bc3 85be 5f4d f33d
000003c0: ea0c 98bd fcbc d53b c5ee 323c c2e8 a93e
000003d0: 36ae f53e 703b 443e 0e3d 633e 42e6 973d
000003e0: 4fa9 94bd 5239 833e c372 e93c 11db a6bd
000003f0: ce09 c63e 8967 46bd 9a38 a3bd 2ce7 b9be
-0.27224275 0.15896134 0.016260017 -0.12010642 0.075622156 -0.14479361 -0.1119076 -0.04753989
-0.13092926 0.056996033 0.27326038 0.12577352 0.087803274 -0.32294056 0.110408634 -0.061583396
-0.15271717 -0.17977226 -0.0708763 0.06556106 0.08914323 0.25211766 -0.055361528 0.090591446
-0.11543661 -0.13243122 -0.061552294 -0.34820303 0.022283245 -0.18326363 0.061180674 0.009433875
-0.013380729 -0.1661257 -0.00917047 -0.1096478 -0.16904388 -0.20483159 0.384166 0.43696067
0.20733285 0.09841126 0.1457082 -0.21292898 -0.060605135 0.06878409 -0.08725786 0.047717895
-0.04994245 -0.13493156 -0.12275495 -0.13512659 0.08301257 0.20111841 0.12132336 0.17906077
0.023853425 0.03680385 -0.05967755 0.052623942 -0.04999697 -0.26347932 -0.14511451 -0.050232816
0.055049583 -0.07719477 -0.021785919 0.09843934 0.17594701 0.024390139 -0.11897637 -0.0036080421
-0.037753783 -0.1546914 -0.0028400205 -0.0063857804 0.05228968 0.12074216 -0.039215755 -0.0992816
-0.10635551 0.0439932 -0.011182964 0.054693907 0.073861994 0.038765434 -0.17214006 -0.3715237
-0.10335902 0.1126828 -0.38935396 -0.15824191 -0.040932067 0.11170576 0.160939 -0.13948135
0.02296244 0.041429278 0.067415394 0.04465262 -0.027335204 -0.08873282 -0.1819122 0.1012904
-0.19008851 -0.005928586 0.49338952 -0.1381927 0.12324496 -0.03388142 -0.008725273 0.03225534
-0.19351494 -0.026650872 0.05207558 -0.1244828 -0.15192561 -0.055514924 0.045773122 -0.048785277
0.0943889 -0.12589262 0.41304934 -0.101201214 0.29394388 0.16120473 0.04560194 -0.02434237
-0.16498221 -0.09044887 0.07289376 0.13725287 0.12875292 0.06394144 -0.13276647 0.07035412
0.020258863 -0.027407873 0.1258043 0.24863122 0.10548909 -0.0761659 -0.052781437 -0.03659532
0.055293042 0.029643504 -0.040672638 -0.074617684 -0.24113825 0.04579584 0.23674218 0.2841252
0.20739868 0.11175622 -0.07565927 0.17328492 -0.010130021 -0.13991717 0.04442583 0.039084423
0.0070871273 -0.029931957 0.14884125 -0.3402921 0.15492831 -0.030966938 0.17622031 -0.31197926
0.06859846 0.042269606 -0.10289173 0.12768702 -0.2699883 -0.077358074 0.126339 0.25302535
-0.03828225 -0.16508542 -0.0030367887 -0.026825728 -0.06772969 -0.36195043 -0.28337893 -0.0004049803
-0.18660973 -0.05932086 -0.054510497 0.12868494 0.13338289 0.2740034 0.16423884 0.10355646
-0.1317115 -0.15304932 -0.018837642 0.078598365 0.0128827505 -0.23041402 0.43254843 -0.08626977
0.15866105 0.33429012 0.20375936 -0.32070136 0.021021575 0.11356149 0.13929594 0.13387409
-0.19687101 0.069352195 0.005169165 -0.16135594 -0.039746683 -0.32949653 0.16210683 0.0063502695
-0.09481232 0.4318411 0.04155947 -0.12474565 0.15744266 0.42916712 -0.066724926 0.14427473
-0.12233194 -0.3077961 -0.10262249 -0.051912256 0.12556832 -0.13765857 -0.02508221 -0.0002877313
-0.35919395 0.023826843 0.0226889 -0.19511484 0.1855519 -0.2586805 -0.2612556 0.11879992
-0.07424338 0.006522773 0.010921185 0.33185393 0.47984475 0.19163299 0.2219126 0.07416965
-0.072588556 0.2562967 0.028497105 -0.08147252 0.38679355 -0.048438583 -0.0796978 -0.36309183

mixlayers.1.op.3.weight f4 [16]
00000000: 9ee5 173f 444c 143f a2c1 df3e b7d6 0b3f
00000010: 7f63 f33e df4e f73e 0cf9 fe3e d0b8 ff3e
00000020: 6fcd 013f fad2 e63e df34 113f 0c0b ec3e
00000030: 3248 dd3e 0c17 103f 5300 1d3f 742e f03e
0.59334743 0.5792887 0.43702418 0.54624504 0.47536847 0.4830236 0.49799383 0.49945688
0.5070409 0.45082837 0.567213 0.46102178 0.43219143 0.56285167 0.6132862 0.4691044

mixlayers.1.op.3.bias f4 [16]
00000000: f8f7 133e c49a 883c 833b a3bd f5b7 d23b
00000010: 0695 d6bc d098 4fbe b16d 44bb c8c0 8cbd
00000020: e5a4 f0bc 5c1a f4bd 6b4f 74bd a095 6d3e
00000030: 695a 2e3e 0b33 c0bd de04 ad3d 4bd9 873e
0.14450061 0.01667536 -0.07970335 0.006430621 -0.026194107 -0.20273137 -0.0029972608 -0.068727076
-0.029375503 -0.1191909 -0.05964605 0.23201609 0.17026676 -0.09384736 0.08448194 0.2653297

mixlayers.1.op.3.running_mean f4 [16]
00000000: 10e2 4cbe 4493 5f3d 18a9 a6be 4fb8 dbbd
00000010: 7196 123e 745c 7e3e e249 e9bd 4501 1bbe
00000020: 4aac 213d ce84 03be 252d ebbd 77cb 483e
00000030: 2f64 d1be 6158 71be b611 3abe 3b80 4abe
-0.20008111 0.054583803 -0.32550883 -0.107285134 0.14315201 0.24839956 -0.11391045 -0.15137203
0.03947095 -0.1284363 -0.1148322 0.19608866 -0.40896747 -0.2356887 -0.18170819 -0.19775479

mixlayers.1.op.3.running_var f4 [16]
00000000: 93e8 aa3c d5ae 263d f561 4e3d 47d8 c93c
00000010: 9c20 673b 4791 a53c 4f54 9d3c 1a27 f43c
00000020: 7379 153c 3f3d 853c e892 693c cd03 af3c
00000030: 4c7b 813d 5bed c23d 7359 c93c b272 013d
0.020862853 0.040694077 0.050386388 0.024639262 0.003526724 0.020210875 0.01920524 0.029803801
0.009123194 0.016264556 0.014256217 0.021364117 0.06322345 0.09517928 0.024578786 0.031603523

mixlayers.2.op.1.weight f4 [16, 1, 3, 3]
00000000: feff 223d c4b3 553c 06ea aebe 53a3 19be
00000010: 090d ed3d fa35 2b3e 6be1 8b3e cfa7 b63d
00000020: 98b0 9cbe 17c1 e83d 0db2 713e d130 77be
00000030: 1522 743e ed6c 9b3e 8d3d 8dbd 073f 05bd
00000040: 2ceb 293e 7c54 bfbe 79e0 613e d3c8 463d
00000050: 14e0 453e e874 143e 763f c9be a285 d4be
00000060: 2586 443d 2c29 a4ba e66e 91be 7e18 373d
00000070: 7b8c 073e c735 ba3c a1dc a93c 0906 9e3e
00000080: a6d4 593e 1bf0 beba 5914 7d3e 82ca 6ebd
00000090: cb50 a83d 29ef 873c 9a13 99bd d368 a13a
000000a0: ef56 6f3d 0508 a93d 4c2f 8f3d b57d 843e
000000b0: bac6 e5bd ddfc d23d 40d3 77bd 1ef6 433e
000000c0: de57 3dbe 2603 753e 1521 1e3e 3281 573e
000000d0: 6016 8f3e d19a 1d3e 69c1 8cbd a0b0 28be
000000e0: 97be 34be 83d1 0d3c f394 a8bc 6e89 413e
000000f0: 5f82 853e bacc 223d b7b0 aabe d107 1b3e
00000100: a08a fb3d f3ba 46bc e8cf ca3e a771 0fbd
00000110: 7ddd a1be c108 81bc 849b d13d 3f37 f5bd
00000120: d962 8cbb d0c1 ba3b 82ee efbd 641a 96be
00000130: 3ffe edbd 12a6 be3d 9841 963c 8fe3 0ebe
00000140: f3a2 863d e4f1 76be 1050 c1bb 288e 063e
00000150: 3167 9d3c c99b d93d a40b 8e3e ebb6 c03d
00000160: 9852 0b3d bf4f 993e 1677 e23c 5eca 0bbe
00000170: 74a1 9c3e f32e 033e 2840 b5bd 28e2 3a3e
00000180: 4523 d6bd 50bf 93be afd7 a23e bffd 48be
00000190: daae ef3c 261d c23e b4f3 5fba d1d4 00bd
000001a0: 37ce a2bd c435 a5ba 15a2 adbe dbfd 2bbe
000001b0: 9ca8 9abe 89b8 af3e d708 373d 54b5 6bbe
000001c0: 435a 4f3e a7b0 9c3e 65a8 16be 1d4f c8bd
000001d0: 0f9f 04be 83ec 9ebe 433b 04be e3b8 97be
000001e0: 07a9 623e f2fb ce3e b434 6a3e a7a6 d4bc
000001f0: 013b b83e 4b06 5d3e a4ae c03e cf1b 6fbe
00000200: 00a7 ca3e 9061 0fbd abf8 abbc 38f1 0e3e
00000210: 0c89 c73d 6e8d 6ebe ec5e f93d 2d0a 10be
00000220: f473 50be fe94 36be 0b40 64be af2b 9fbd
00000230: c8fd c33e c600 483d 89fc f63e b742 2b3d
0.039794914 0.013043348 -0.3416292 -0.1500371 0.11574752 0.16719809 0.27320418 0.08918726
-0.3060348 0.11364954 0.23603077 -0.24139716 0.23841126 0.3035654 -0.068965055 -0.03253081
0.16593617 -0.37369144 0.22058286 0.048531365 0.1932376 0.14497721 -0.3930623 -0.41508204
0.047979493 -0.0012524477 -0.2840492 0.044701092 0.13237183 0.022730721 0.020735087 0.3086398
0.21272525 -0.0014567407 0.24714793 -0.058298595 0.08218535 0.016593533 -0.07474442 0.0012314565
0.058432516 0.08253483 0.06991443 0.25877157 -0.11219545 0.10302136 -0.060504198 0.19136855
-0.1849055 0.23926982 0.15442307 0.21045378 0.27946758 0.15391089 -0.068728276 -0.16473627
-0.1765083 0.0086559085 -0.020578837 0.18900082 0.26076028 0.039746024 -0.33337948 0.151397
0.122823 -0.012129533 0.39611745 -0.035020497 -0.31614295 -0.015751245 0.102347404 -0.11973428
-0.0042842445 0.005699374 -0.11715414 -0.2931701 -0.11620759 0.09309019 0.018341824 -0.13953994
0.06574049 -0.24115711 -0.005899437 0.13140166 0.019214245 0.10625417 0.27743256 0.09409889
0.034014314 0.29943654 0.027644675 -0.13651416 0.3059193 0.12810878 -0.088501275 0.18250334
-0.10455946 -0.28856897 0.3180518 -0.19628046 0.02925818 0.37912863 -0.00085430895 -0.031452958
-0.079494886 -0.0012604524 -0.3391272 -0.16796057 -0.30206764 0.34320477 0.044686165 -0.2301839
0.20249276 0.30603525 -0.14712675 -0.09780715 -0.12951301 -0.3103982 -0.12913232 -0.29633245
0.22134791 0.40426594 0.22871667 -0.025958372 0.35982516 0.21584432 0.3763324 -0.23350452
0.39580536 -0.035005152 -0.020992598 0.13959205 0.097429365 -0.23296139 0.12176308 -0.14066382
-0.20356733 -0.17830274 -0.22290055 -0.07772004 0.38279557 0.048828863 0.48239544 0.04181167

mixlayers.2.op.2.weight f4 [16, 16, 1, 1]
00000000: e4b1 023d 21de a6be 2c07 1b3e 8e3f 01bb
00000010: b1d6 2fbe 4eae e439 e612 203e c818 ba3d
00000020: b5fe 2b3b 7781 62be 36ab 4bbe 12c3 c93d
00000030: a8f4 f43d 8b09 92bd b3c1 913d 6092 51bc
00000040: b975 2d3e 5c59 bebd d9a6 48be 71bd d23c
00000050: a106 18bd 28c6 dcbc 83ab 093e 127f bcbc
00000060: 53fb 2a3e 5105 053d 9980 23be 6613 063e
00000070: 0ea6 85be 913d 983e 1fa7 343d 6204 1cbe
00000080: 04ea 803e 2150 493e 30a5 98be 8bf0 93be
00000090: 1cca 3e3c 3854 b63d 8545 7dbd fa78 5cbe
000000a0: cd16 78be e78b 10bc ff74 7e3e 78a9 40be
000000b0: 2f7f c03e adbd 3e3d e367 0c3e 58d1 703c
000000c0: cad2 e73b 219e b9bd 7d38 42be 8c49 1cbe
000000d0: 6f9e f6bd 24bc 16be df53 8fbe cedb a23d
000000e0: 9b43 233e b813 ac3e bf56 f73d 25aa 633e
000000f0: 0024 243e 2902 bc3c d681 6fbd 4c41 f73d
00000100: 63f1 0abe d4ce 63be 759d 363e 2f19 26be
00000110: fa99 633c b1b5 4f3e 9ab7 2fbe 38b0 3e3e
00000120: 228b af3a f138 a5bd ad7c 89bd 385e 033e
00000130: 82ae f83d db8f 0bbb 950c cabd e3a1 533e
00000140: 3d48 8b3e 08da 9abb 9601 49bd 3687 4f3a
00000150: 9bd0 b1bc 8d79 edbe 1c78 433e 64d1 68be
00000160: c7e3 003e 510d 32bd c6c0 4dbe 6132 643c
00000170: 2465 df3c abcf 9abd b5a0 893d dc9b 01bf
00000180: 5915 6dbc 29b0 bfbd fb20 b23d 22ea 8abd
00000190: cfea 0ebd 9a3a 95bc 4693 dd3d 2cb3 a0bd
000001a0: aed8 f43c 1b5e 2ebd 6408 923d a76e 893e
000001b0: 14e8 943d db66 8cbe be23 d8bc b99d 81bd
000001c0: a039 183e 9fd3 2c3e b424 323e 5a00 963d
000001d0: b441 12be 8f2e 46bd 3175 77be 8d10 b2be
000001e0: ef67 08be 7d62 9dbd b1be 77bd 4d81 953d
000001f0: dd6b adbd d09a 87be e5ab 00bf 97fa 413e
00000200: 69d0 94bd 3d16 16be d46a cc3d 981d 6abe
00000210: 97c8 25bc 3f89 063e 0c5e c1bc 814d a43d
00000220: f6c6 61bc 5fb8 72bd af59 8bbe d1fe 863e
00000230: 854c 92bd b5fd 12be d39e 813d d630 ddbd
00000240: 638c 81be a578 7bbe 7126 183e fe02 9e3d
00000250: 84be 40bd fb2f 98bc f588 923c 2091 87bb
00000260: 4b46 55bc 5a26 1cbd 966d abbd 4d09 723e
00000270: 8453 56bc bc57 eabb 83fd fb3c 6983 5cbe
00000280: 0490 55bc f3f5 643e 8c8e fcbd 121d f9bd
00000290: 8a00 3cbe 0bac 933d ee78 93bc 7970 6fbe
000002a0: 68e8 e13d 1d89 8a3d 3c38 1d3e 3477 3cbc
000002b0: 578a 8d3e 7935 0e3d da53 5dbd 59f9 5cbe
000002c0: 3794 b23c 7d81 583e 8d87 adbc 2bdb 143e
000002d0: 01c8 043e 3899 20be 2d01 173e d955 4bbd
000002e0: e30c 21bd 063a 013e 8150 a1bd 5900 8f3d
000002f0: b23d d03c ff59 91be 8209 8ebe 554f 113e
00000300: 87f5 763d d3bd dc3d 26c0 65be b9a2 233d
00000310: 8d29 f33d 3753 5f3e 7977 f83d 0c83 96bd
00000320: dbf5 fc3d 17b8 823e 6bb8 8abd 4e0e 48be
00000330: 0040 b3bd a3ca 173e 50dc 4abd aa69 8abe
00000340: d94a f6bc fc2b 45be b5d3 4a3d 0366 f2bd
00000350: 2448 b63d 7e3b 273e 678b a13d a743 ec3d
00000360: 08a2 403d 404a 8abe 335b 90bb 1e5b 3abe
00000370: d818 783e 65e6 443e d789 e9bd 9c03 803e
00000380: a33c 8f3d 2441 f5bc c002 90be 44e2 45be
00000390: ed17 86bd 2f28 5d3e d799 8c3c 4cf0 9e3d
000003a0: 4691 8dbd 1a29 8f3d 0d44 8d3d f2c0 423d
000003b0: 9d21 9a3e 3601 d53c f0b3 8bbc 9b8d 1cbd
000003c0: 99c7 893e 3aac fdbc 9c99 c33d d3dd 5d3e
000003d0: 608a c9bd 8f08 e2bd 19fd ddbd 2357 31bd
000003e0: 020c 34bd 3c92 563e 1d4e 8fbd 3597 423e
000003f0: 4143 93bd a2f1 cdbe b261 d1bd 206b d03c
0.03190793 -0.32591346 0.15139455 -0.001972172 -0.17171742 0.00043617416 0.15632209 0.09086758
0.0026244347 -0.221197 -0.1988953 0.0985166 0.11960727 -0.071307264 0.07117023 -0.012791246
0.16939439 -0.09294388 -0.19594897 0.025725098 -0.037115697 -0.026949957 0.13444333 -0.02300981
0.16697435 0.032475773 -0.15967025 0.13093337 -0.26103252 0.2973447 0.04410469 -0.15236047
0.2517854 0.19659473 -0.29813528 -0.28894457 0.011644866 0.08902782 -0.061833877 -0.21530524
-0.24227448 -0.008822418 0.24849318 -0.18814647 0.37597033 0.046567608 0.13711505 0.014698349
0.0070746886 -0.09063364 -0.18966861 -0.15262431 -0.120419376 -0.14720207 -0.27993676 0.07952081
0.15943758 0.33608794 0.120770924 0.22232874 0.16029358 0.022950249 -0.05847343 0.12073001
-0.13568644 -0.22246867 0.17833503 -0.16220544 0.013891691 0.20284154 -0.17159882 0.1862191
0.0013392905 -0.08067501 -0.06713233 0.1282891 0.1214266 -0.0021295461 -0.09865681 0.20667224
0.2720355 -0.0047256984 -0.049073778 0.00079165713 -0.021705916 -0.46381798 0.19088787 -0.22736126
0.1258689 -0.04346973 -0.20093068 0.013928027 0.027269907 -0.07559141 0.067201056 -0.5062845
-0.014470422 -0.09359772 0.08697697 -0.067829385 -0.0348919 -0.01821642 0.10819106 -0.07846674
0.029888477 -0.042570215 0.07130507 0.26842234 0.07270828 -0.27422222 -0.02638423 -0.06328911
0.14865732 0.16877602 0.17396814 0.07324286 -0.14282876 -0.048384245 -0.24165799 -0.34778252
-0.13320898 -0.07684801 -0.060484592 0.07300053 -0.08467839 -0.264853 -0.5026229 0.18943249
-0.072663136 -0.1465692 0.09981313 -0.22862852 -0.010118625 0.13138293 -0.023604415 0.08022595
-0.013780346 -0.05925786 -0.2721686 0.26366284 -0.07143501 -0.14354594 0.063291214 -0.1080033
-0.2530242 -0.24557741 0.14858414 0.077154145 -0.04705669 -0.018577566 0.017887572 -0.0041371733
-0.013017247 -0.038122512 -0.08370511 0.2363636 -0.013081435 -0.007151572 0.030760532 -0.21534504
-0.013034824 0.22359447 -0.12331876 -0.12163748 -0.1835958 0.07210549 -0.018002 -0.23382749
0.11030656 0.067644335 0.15353483 -0.01150303 0.27644607 0.034718964 -0.054035045 -0.21579494
0.02179919 0.21143146 -0.0211828 0.14536731 0.1296692 -0.15683448 0.14746542 -0.049642418
-0.03931893 0.1261979 -0.07876683 0.06982488 0.025420044 -0.28388974 -0.2774163 0.14190419
0.060292747 0.107783936 -0.2243658 0.039950106 0.118731596 0.21809088 0.121321626 -0.07349214
0.12351581 0.25531074 -0.06773456 -0.19536707 -0.087524414 0.14823394 -0.049526513 -0.2703374
-0.030064987 -0.1925506 0.049518306 -0.118358634 0.089004785 0.16331288 0.07887917 0.11536341
0.047029525 -0.27009773 -0.004405403 -0.18198821 0.24228227 0.19228514 -0.11403244 0.25002754
0.069939874 -0.029938288 -0.28127098 -0.19324595 -0.06547532 0.2159736 0.0171632 0.07760677
-0.06912474 0.069902614 0.06897745 0.04754729 0.3010377 0.026001554 -0.017053574 -0.038220983
0.26910093 -0.030965913 0.09550783 0.2166665 -0.09840846 -0.11036789 -0.1083929 -0.04329599
-0.043956764 0.20954221 -0.06997321 0.19002993 -0.07190562 -0.40223414 -0.10223712 0.025441706

mixlayers.2.op.3.weight f4 [16]
00000000: 8d8d f83e 9e38 f53e 8046 e43e a7b1 c63e
00000010: 7146 ee3e 770b 0f3f 15b5 153f 6f48 1c3f
00000020: a78c 0b3f 2d37 0f3f 174a 1a3f 8117 173f
00000030: 7375 ed3e 79df e03e c35f d63e 1e71 143f
0.48545495 0.47894758 0.44585037 0.38807413 0.46538118 0.5587687 0.58479434 0.61048025
0.54511493 0.55943567 0.602693 0.5902024 0.4637867 0.43920496 0.41869935 0.57985103

mixlayers.2.op.3.bias f4 [16]
00000000: 567e 963d fbb8 d53d f74c 4e3e c9ba 0fbd
00000010: 47e7 adbd d19c 853e 3e7f 15bb bd4d 46be
00000020: 974b 8b3c fd10 233d 8682 243e 29c8 213d
00000030: e447 a5bd 502b 723d 75e4 de3d 3500 02bd
0.073483154 0.10435673 0.20146547 -0.03509024 -0.08491378 0.26096204 -0.0022811438 -0.19365592
0.017003817 0.039811123 0.16065416 0.03949753 -0.08070353 0.059123337 0.108834185 -0.03173848

mixlayers.2.op.3.running_mean f4 [16]
00000000: 519b c0bd 99d5 a5b9 74a8 6d3d 2bfc 18bd
00000010: e66e 69bd 4378 efbd d7ea fabd 5931 eebd
00000020: 78cd eebd c7a5 75bd f0b8 b0bc 8373 1ebd
00000030: a1e8 9a3d faca 4c39 3de8 34bb a5ff 87bd
-0.09404624 -0.00031630395 0.058021978 -0.03734986 -0.056990527 -0.1169286 -0.122518234 -0.11630506
-0.11660284 -0.05997255 -0.02157256 -0.03868438 0.07563902 0.0001953057 -0.0027604245 -0.06640557

mixlayers.2.op.3.running_var f4 [16]
00000000: 0f7a 583c e82f 943c 2d1a 293d f76e 883c
00000010: b5e7 a43c 9cbf 253d a556 453c 274d 1f3d
00000020: 7803 843c b1ae 3a3c 7d40 bc3c 701a af3c
00000030: e93b 0f3d 7a00 963c 691b 993c 072a df3c
0.013212695 0.01808925 0.04128473 0.016654475 0.020130018 0.040465936 0.012044583 0.038891938
0.016114935 0.011394189 0.02297997 0.021374911 0.034969244 0.018310774 0.018689828 0.02724172

mixlayers.3.op.1.weight f4 [16, 1, 3, 3]
00000000: 6f16 20be 0ac2 793e f5e1 0c3d bf54 a4bd
00000010: 3bcd 713e 0407 c73d 8d3a 7abd 5fa6 f13d
00000020: 8081 053e 7851 2ebe c505 7bbe fd5f febd
00000030: d47b 643e ea02 183e a343 b8bc c4f7 4bbd
00000040: 1d80 5e3e da4e bf3e bb86 e2be 37ff a23e
00000050: 68cf 253e be8c b7be 93c4 993e 7a41 8e3e
00000060: d80a c63c b33f a7bd 476e f9bc 2518 4d3d
00000070: ed94 fc3d 94ef 903e 636a 403d 34ac b83e
00000080: 4543 84bc f6e0 89bd b37f 913c 6b4e 333c
00000090: 882f 28be ede3 3fbe bed1 04be b072 3b3c
000000a0: df7c 32be 8938 6dbe a122 02bd 0aa7 dabc
000000b0: 82e8 563e 3f4b ca3e 2098 1b3d f99b 26be
000000c0: 5697 e5be d4d4 bebe 7ccc c63c 3254 92be
000000d0: 4a48 833e 9c57 073d 1023 22be 77a0 01bd
000000e0: 517b 1dbe 66a2 a33d f5c1 a13c 60b3 9bbe
000000f0: 646f aa3e 5021 b83d e1c4 ecbd c9c2 97bd
00000100: e642 9ebe 2e94 24be 540f 373e e18b b1be
00000110: 2d4e 9bbe 1e74 fd3d 7cfb 5b39 d988 5dbe
00000120: 4fac 20bd 15bd 81be 75cd 43bd 2e79 aebe
00000130: 2c12 4c3e e6ed 6c3e e36b b43d d135 493e
00000140: 07e6 19be a028 3ebc fb22 3bbe 49a8 19be
00000150: 37d8 bebc 7441 1fbe 68f3 3cbe d090 843e
00000160: 4bf8 7b3e 8fb5 0dbd 7d2f 67bc 3c46 8cbe
00000170: 13f6 d73e 78ef 13be e23a a63e c033 c2bb
00000180: 8d4a 68be cb4b 663e bcd1 abbe e624 c1bd
00000190: 8e9b 8e3d 6276 b93d 86ac b93d e5d8 813e
000001a0: db46 9e3b 09bd 533e e9a6 963e 5b71 763e
000001b0: 80c5 91be 661e 69be 17cd c6be 8113 193e
000001c0: 4596 bf3c 700a 3c3e eb36 443c 8c5c 5e3b
000001d0: 13c3 4f3e 3b77 943d 091a 04be 931e a0bd
000001e0: 8741 a53e d078 163e 33e9 82be f1f4 d63d
000001f0: 26f0 0c3e d39a 29be d31e 33be 5b6a 0f3b
00000200: 61ac 383e c178 e6bd 0db2 c8be dc6c 25bd
00000210: a943 ed3d f7fd 45bd 0dc3 0e3e 5395 4f3e
00000220: 37e3 8e3e 4413 97bd 07e4 d4bb a167 3f3e
00000230: da85 fc3c aa7c 6e3d fcfe 5c3e 4521 7d3e
-0.15633558 0.24390426 0.034395177 -0.080239765 0.23613445 0.09718135 -0.061090995 0.11799311
0.13037682 -0.17023265 -0.2451392 -0.12420652 0.22312862 0.14844862 -0.02249319 -0.049796835
0.21728559 0.37364846 -0.44243416 0.31835338 0.161924 -0.35849565 0.30032787 0.2778433
0.024175093 -0.081664465 -0.030448092 0.050071854 0.12333093 0.28307784 0.04697646 0.3606888
-0.016145358 -0.06732361 0.017761087 0.010943989 -0.16424382 -0.1873929 -0.12970635 0.011440918
-0.17430447 -0.23166098 -0.031771306 -0.026690979 0.20987132 0.39510533 0.037986875 -0.16270436
-0.44842023 -0.3727175 0.024267428 -0.2857986 0.2564109 0.033042535 -0.15833688 -0.03164717
-0.15379073 0.079899594 0.019745806 -0.3041029 0.3328811 0.08990729 -0.11560989 -0.07410199
-0.30910414 -0.16072151 0.17876941 -0.34677032 -0.3033308 0.12375663 0.00020979153 -0.21634234
-0.039226826 -0.2533957 -0.04780336 -0.34076828 0.19928807 0.23137626 0.0880964 0.19649436
-0.15029155 -0.011606365 -0.18275063 -0.15005602 -0.023296459 -0.15552312 -0.18452227 0.25891733
0.24606435 -0.034596976 -0.014110443 -0.27397335 0.42179927 -0.14446819 0.324668 -0.0059265792
-0.22684689 0.2248985 -0.33558452 -0.09430866 0.069632635 0.09055783 0.09066109 0.2536079
0.004830224 0.2067758 0.29424217 0.24066679 -0.28470993 -0.22765502 -0.38828346 0.14948846
0.023387084 0.18363357 0.011975984 0.0033929674 0.20289259 0.07249304 -0.12900557 -0.078183316
0.32276556 0.14694524 -0.25568542 0.104959376 0.13763484 -0.16562967 -0.17492227 0.002188346
0.18034507 -0.11253501 -0.39198342 -0.04038702 0.11585171 -0.048337903 0.13941593 0.20271806
0.27907726 -0.073767215 -0.0064969095 0.18691875 0.030825544 0.058224358 0.21581644 0.24719723

mixlayers.3.op.2.weight f4 [16, 16, 1, 1]
00000000: f324 03bb 5d17 8dbd 0dca ec3c 919a bd3d
00000010: 2db2 0bbe b1f0 bbbe b256 48be 973b 3d3e
00000020: a9a7 e73d 7a30 553e d604 4a3d 8444 27be
00000030: 03cc 333d 6217 4cbc 48ce c0bd cdc7 43be
00000040: 9cbf 25bd 4781 403d d6c2 3abd 412a dc3d
00000050: 2dd1 413d e1de 90be 4a1f 953d 4ce5 73bd
00000060: 49e6 76bd af4b 1d3b 0efd aabd 1326 09bc
00000070: 172a 2a3e 2dfa babc 28e2 1c3d b7af 793d
00000080: 794d dcbd d89f 9e3e 0ddf fabd 0ce5 ce3c
00000090: 8c4e 8dbe f377 653e 2f7d a4bd 1b88 67be
000000a0: 740a c8bd 0501 543e b6e2 45be 78b0 19be
000000b0: c7d8 973e 5c17 e93d 7c51 173e 4050 2d3e
000000c0: b3ca 9ebd df72 a13d a043 9d3d 9fed f73c
000000d0: fa47 8ebd 472d 50be f493 15be 42ea bcbc
000000e0: 7b58 173e 3096 f33d 280a 773c 66af 113c
000000f0: 4eff a43d 7b56 efbd f9f9 b93d 8f02 653e
00000100: 533c 6f3e 51bc 6abe c920 72be 4bb9 983d
00000110: d96a 8cbc 7b56 57bd 8d37 ee3d 0216 493e
00000120: 433a 1f3e b957 cd3d 97c8 333e 59ae 853b
00000130: 770d 3e3b b867 353d 7f52 80be b071 03be
00000140: 24fe 1d3e 26a0 1ebd 56f5 ca3d c4cc 4cbb
00000150: c36a 5bbe d8fa 253e d18f e2bc 299b 38bd
00000160: 08f7 5cbd e8c1 32bd ad9a 813d ad33 44bd
00000170: 9ce1 0bbe d8ef 0c3e c85e debd a7a9 0f3e
00000180: eb2f fb3d acde 393d 90b2 8fbe 94b6 733e
00000190: d0a1 383e 5cfd 223e f64e afbd 6bd6 0f3e
000001a0: 2050 f33d 1e00 1f3e d787 4cbd 1aed 00be
000001b0: 6111 193e f604 08be 15e6 8dbe 4873 e4bd
000001c0: 0974 413d 2310 90bd aa72 85be edc8 cfbd
000001d0: a3f0 b0bd 79b7 823d 1990 ae3a a1b5 57bc
000001e0: eecf 80be 5621 5cbe f698 14bd 2008 253e
000001f0: 226c 6c3d 6c70 053d 2896 873c 7a5d bcbd
00000200: 6188 6a3e 71ce cfbb 1bd0 82be f888 74bd
00000210: bb4e 9fbe 94bd 05be 4ed0 5cbd dcc9 49bd
00000220: 4433 b23e ed02 5e3e a8c8 82be 1736 26be
00000230: 85b6 8abd cdcc 51bd d225 143e 5fdd d53d
00000240: 91eb efbc 81e7 b1be a362 a1bd c35c 5e3e
00000250: 0338 49bd c052 ce3e 936e 833e 9804 883e
00000260: e455 243d f437 8b3d 8b06 3c3e 74ac f03d
00000270: 9dbb c8be a53a 163e f798 233c bc93 953d
00000280: 8a58 8ebd 69b9 21bd 80a5 883e ed94 1dbe
00000290: 3c40 d83d a662 14bb b493 6b3e 2fa3 21be
000002a0: 9ff1 d4bd c07e 823e 576f e6bd 3e33 313c
000002b0: 5b29 f8bc 4959 86be 32e0 243e ed51 993d
000002c0: 793f 4b3e cd9d 7b3e cf56 9ebe 4df7 30be
000002d0: 917b b23d d81b 373e cced dbbd f49f 0d3e
000002e0: 9f27 12be 2fe9 d0bd eeee 61bd 1f99 34be
000002f0: 32d1 243e 3c5c bf3e ea7d c53c d96b e23d
00000300: 1ee2 493e 3586 203d b495 7c3d ecac 543e
00000310: cb1c 413d 55a3 a33c 0729 cebd 56a9 dc3e
00000320: d7ba 1d3d 68bf 1dbe d5c7 f7bc b167 ecbe
00000330: 04c5 143d a3e5 69be d0f7 bfbd ecb3 a2be
00000340: a2d1 a2bd c208 743e e3cc d73e 9108 fb3d
00000350: b4dc febb fa18 673e 489c 8d3d e43c 623e
00000360: 3baa 2b3e 86d8 56bd 5525 163e 04b6 75be
00000370: fa7b a93d b32d 2a3d 5b42 b23d c08e 50be
00000380: df3b b4bc b352 1cbe 9062 c73d 926b 693e
00000390: 3cfd bbbd 5571 e63e 9d9c 103e da7c 043c
000003a0: abe9 af3d 86e9 373c a50e 0a3d 1890 2f3d
000003b0: 234d 67be 67f4 003e 130f 42be 7bb1 d8bd
000003c0: 7136 26be e6d2 d9bb c4cf 1c3e 33fc bb3c
000003d0: 3794 21be 3ded 0cbd e5c7 11be 0bfa a4bc
000003e0: b035 4abe 93a8 ddbc 12e7 f43e b7b1 24bd
000003f0: 605a bbbd 76d1 fabb 76cd dc3d 62dd 0ebe
-0.0020011037 -0.06889222 0.02890494 0.09257997 -0.13642187 -0.3670707 -0.19564322 0.18479763
0.113112755 0.20819274 0.04932102 -0.1633473 0.043895733 -0.012456747 -0.09414345 -0.19119187
-0.040465936 0.04699829 -0.045595966 0.10750247 0.047318626 -0.28295043 0.072813585 -0.059544846
-0.06027821 0.002400141 -0.083490476 -0.008370894 0.16617619 -0.022824371 0.038301617 0.06095859
-0.10756964 0.30981326 -0.12249575 0.025255702 -0.2759899 0.22409038 -0.080316894 -0.22610514
-0.09767619 0.20703514 -0.19324765 -0.15008724 0.29657575 0.113814086 0.14777178 0.16925144
-0.077535056 0.07883238 0.07678914 0.030264674 -0.06947322 -0.20329772 -0.14607221 -0.023060922
0.14779846 0.1189388 0.015078105 0.008891916 0.08056508 -0.11686417 0.090808816 0.22364257
0.23362856 -0.229234 -0.23645319 0.07457217 -0.017140793 -0.05257271 0.11631689 0.19637302
0.15549569 0.100264974 0.17556988 0.0040796218 0.0028999725 0.044288367 -0.2506294 -0.12836337
0.15428978 -0.03872695 0.09910075 -0.003124998 -0.21427445 0.1620897 -0.027656468 -0.045069847
-0.053946525 -0.043641955 0.0632833 -0.047900844 -0.13660282 0.13763368 -0.10857922 0.14029561
0.12264999 0.045378372 -0.2806592 0.23800117 0.18030477 0.15916961 -0.085599825 0.14046638
0.11880517 0.15527388 -0.049934234 -0.12590447 0.14948036 -0.13283142 -0.277146 -0.11154801
0.0472298 -0.07034328 -0.26064044 -0.101457454 -0.08639648 0.06382651 0.0013318091 -0.013165862
-0.25158638 -0.21497092 -0.036278687 0.1611638 0.05772031 0.032577917 0.016551092 -0.09197517
0.22903587 -0.0063417484 -0.25549397 -0.059700936 -0.31114754 -0.130606 -0.053909592 -0.049264774
0.34804738 0.21680804 -0.25543714 -0.16231571 -0.06773094 -0.051220704 0.14467552 0.10442614
-0.029287132 -0.34746936 -0.078801416 0.21715073 -0.049125683 0.40297508 0.256703 0.26566005
0.040120974 0.067977816 0.18361871 0.11751643 -0.39205638 0.14670809 0.0099852 0.07303569
-0.06950481 -0.03948346 0.26688766 -0.15388842 0.10559127 -0.0022641807 0.23005563 -0.15784906
-0.10397648 0.25487328 -0.11251705 0.01081544 -0.030293157 -0.26239994 0.16101149 0.07486329
0.19848432 0.24571915 -0.30925605 -0.17281838 0.08714975 0.17881715 -0.107387155 0.13830549
-0.14272927 -0.10200726 -0.0551595 -0.17636536 0.16095427 0.37375057 0.024107892 0.110557266
0.19715163 0.03919049 0.061666206 0.2076909 0.0471466 0.019975344 -0.10066419 0.43097943
0.038508262 -0.15405047 -0.030246655 -0.4617286 0.0363207 -0.22841506 -0.09373438 -0.31777894
-0.079501405 0.23831466 0.42148504 0.12257493 -0.0077777747 0.22568122 0.06914574 0.2209354
0.16764157 -0.052452587 0.14662679 -0.23995215 0.082756 0.04154749 0.087040626 -0.20366955
-0.022001205 -0.15265922 0.09735596 0.22794941 -0.0917916 0.4500834 0.14122243 0.008086408
0.085894905 0.01122511 0.033705372 0.042862028 -0.22588019 0.12593232 -0.18951063 -0.10580727
-0.16231705 -0.0066474555 0.15313631 0.022947406 -0.15779196 -0.034405936 -0.1423641 -0.020138761
-0.19747043 -0.027057922 0.47832543 -0.040208545 -0.09148097 -0.007654364 0.10781376 -0.13951638

mixlayers.3.op.3.weight f4 [16]
00000000: 7d63 f63e 6647 e33e 582c 103f 6e91 053f
00000010: d81d 1b3f e4aa 003f 0243 f53e c2aa 053f
00000020: 6712 eb3e d278 013f 2712 0d3f 0d2d 053f
00000030: d582 083f 0ff7 fa3e c18e cb3e ee52 043f
0.4812278 0.4439041 0.56317663 0.52175033 0.6059241 0.5026076 0.47902685 0.5221368
0.45912477 0.5057498 0.55105823 0.5202187 0.53324634 0.49016616 0.3975735 0.5168904

mixlayers.3.op.3.bias f4 [16]
00000000: 535c cebd 4181 b1bd fafa a2be b288 cd3d
00000010: 69de 3a3e 6e2e c5bc e028 1b3d 41e7 6c3e
00000020: 09d7 4abc 7148 93be faad f4bd 9f90 d23c
00000030: 5f50 db3b 7e58 2fbd 6ecf 54bd 138b 8dbe
-0.10076203 -0.08667231 -0.31832105 0.10035838 0.18248905 -0.024069991 0.03788078 0.23135091
-0.01238037 -0.28766206 -0.11947246 0.025703726 0.0066929306 -0.042809002 -0.051955633 -0.27645168

mixlayers.3.op.3.running_mean f4 [16]
00000000: c1a7 f9bc b736 8b3d e86b 25ba 0e5c c03d
00000010: 42e2 1dbd 9500 613d d5bc d1bd 2fdf 153c
00000020: 9b72 d93c f559 97bd 4b65 3dbc f738 83bd
00000030: e869 69be 5054 2abe 8abf 80bd 63f7 d5bc
-0.0304755 0.067975454 -0.000631033 0.09392558 -0.038545854 0.054932196 -0.10241095 0.009147449
0.026543906 -0.07390205 -0.011559795 -0.064073496 -0.22794306 -0.16633725 -0.06286533 -0.02611894

mixlayers.3.op.3.running_var f4 [16]
00000000: b768 053d f0a2 3d3c b6c9 443d 19f5 753c
00000010: 6792 f93c ff34 3d3c 3fde ec3c 46aa 933c
00000020: f8b6 003d 390f 803d c9df eb3c d478 393d
00000030: 099f 973d ad24 1d3d a438 283d 9f73 d13c
0.032570567 0.011574492 0.04804393 0.015012049 0.030465318 0.01154828 0.028914569 0.018025529
0.031424493 0.062529035 0.028793233 0.045281246 0.074033804 0.038365055 0.04106964 0.025567828

mixlayers.4.op.1.weight f4 [16, 1, 3, 3]
00000000: 1db5 083d 0626 e43d 1097 953d ba84 ad3e
00000010: 78bc 163d 41d4 3a3d a514 ab3d 3f09 7e3e
00000020: 13ec 1c3c f56b 093d 1b66 103d a8f4 b33d
00000030: ab19 bfbc a1aa 29bd 1839 4e3e 317e b83d
00000040: 5f67 323e 8cfc ef3b 2546 a83d 41ac eabd
00000050: 167e a2bc bcf3 983e 5796 c83e 40e8 39be
00000060: 9f5e 2d3e 78c8 bd3e f7c1 6a3d c520 533c
00000070: 6abb f3bb b738 6d3e e3e6 963d 7829 713e
00000080: 0eeb 503d a36f 813e e614 e5bd ca33 5abe
00000090: 7beb 07be 8825 ea3d 6fa2 953e 8377 2ebd
000000a0: 7233 81be 3f42 b53e 05e2 bb3e 0dec 9bbe
000000b0: add2 50be f109 883e 708d 91bd add0 34be
000000c0: 77c1 4c3e b5fb 24be d7d6 98bc 7265 14bd
000000d0: 071b 04be 4b9d 66bd 0bf7 7d3c 9117 6a3d
000000e0: f9bc 393e 47f2 adbd 3199 87be 8f63 f43c
000000f0: 12ff 45bd f3e0 9fbe af1a 26be 614b c5be
00000100: a7bb 3ebd fcba 1a3e 4755 b63c 80ec 2e3e
00000110: 54ec 4d3e 9e8b 2a3e e38b 70be 39af d7bd
00000120: 1691 1e3e 8516 2f3e 0da5 8fbd 835e a53e
00000130: 15bf 11be d0e9 82be 7774 5b3d 9ece 4dbe
00000140: 1feb 57be ed87 33be a8db 113d f246 da3d
00000150: 86a0 8fbe 9d60 55be b340 6abe 14dd c5bd
00000160: 8543 8dbe 40b7 68be fbea 11be 7f13 9f3e
00000170: 6fc6 723e d337 8bbd 5df9 653e 45b4 1f3e
00000180: e76a 2d3e 7714 7e3c 3841 c13d 517a 813e
00000190: 3b0f d63d 71d4 9dbe 428b de3d e134 813e
000001a0: 8232 373e d4ea 9dbe 2042 1cbd 7def 383d
000001b0: eb1b 4c3d 24eb 253e c178 ccbe 85fa ce3e
000001c0: 6038 573e ee7c 8bbd 355f 8b3e 6b82 543e
000001d0: 2e8f 49be b41b 283e 0c1b b83e ffa4 0abd
000001e0: bfe9 2b3e 63a6 e23d b53a 6dbe d8ae 843e
000001f0: 41fe 05be ccd3 26be 7fde d0bd ae4e 183e
00000200: f490 c2bc 6a0f 593e 73ba d73d 6541 bd3d
00000210: 5589 8c3e 23a7 113e c12a 41bd 03b5 103d
00000220: e97f 6fbd 2473 1ebc f269 9dbe 73e6 82be
00000230: 6eba 83bd 073b a4be 4a5a 16bd 61e8 2ebe
0.033375848 0.11140065 0.073042035 0.33890325 0.03680083 0.045612577 0.08353547 0.24808215
0.009577769 0.03355022 0.035253625 0.08786899 -0.02332767 -0.04142249 0.20138967 0.09008444
0.17422245 0.007323807 0.08216504 -0.11458636 -0.019835513 0.29873455 0.391772 -0.18155003
0.16930626 0.37067008 0.057313886 0.012886231 -0.007438113 0.23166166 0.07368257 0.23550975
0.051005416 0.25280485 -0.11185627 -0.21308818 -0.13273422 0.1143294 0.2922549 -0.042594444
-0.25234562 0.35402104 0.36695877 -0.3045353 -0.20392866 0.26570085 -0.07107055 -0.17657728
0.19995676 -0.16111644 -0.018657131 -0.03622956 -0.12900935 -0.05630235 0.015500794 0.05715138
0.18138494 -0.08493476 -0.26484063 0.02983263 -0.048338957 -0.3122631 -0.16221116 -0.38534072
-0.046565678 0.15110391 0.02225746 0.17082405 0.20109683 0.16654822 -0.23490863 -0.10531468
0.15485033 0.17098434 -0.07013903 0.3229867 -0.14233048 -0.2556901 0.053577866 -0.2009835
-0.21085785 -0.1753232 0.03560987 0.10658063 -0.28052157 -0.20837636 -0.22876243 -0.09661308
-0.27590576 -0.22726154 -0.14249794 0.31069562 0.23708509 -0.06797757 0.22458406 0.15596111
0.16935311 0.015507809 0.094362676 0.25288633 0.10452124 -0.30826142 0.10866405 0.25235656
0.17890361 -0.30843222 -0.038149 0.04515027 0.049831312 0.1620298 -0.39935878 0.40425506
0.21017599 -0.06810938 0.27221075 0.20752876 -0.19683525 0.16416818 0.35958135 -0.03384876
0.16788386 0.11066892 -0.23166926 0.25914645 -0.13085271 -0.16291732 -0.10198688 0.14873764
-0.02375076 0.21197286 0.10533609 0.09240989 0.27448526 0.14223914 -0.047159914 0.035328876
-0.058471594 -0.009671006 -0.30744892 -0.25566444 -0.06432043 -0.32076284 -0.0367072 -0.17080833

mixlayers.4.op.2.weight f4 [16, 16, 1, 1]
00000000: 88e7 ffbd 6579 0b3e 83b0 7c3e 7f1c fd3a
00000010: 3ab7 063e 4c36 b8bb a63f b1bd 43c8 793d
00000020: de7a 2b3d b00e a3bc c646 ee3d b776 a33d
00000030: 796e a8bd a6fd 133d 0ad4 c5bd 32cd d93d
00000040: a518 6a3d 3740 1abd 73d3 d8bd 7eaa f43d
00000050: d5f6 fe3d fd9a e3bd 1eed 85bd c2b6 d7bd
00000060: 95b6 35be 9b9b 6ebe 9557 79bc fb22 84bd
00000070: 9dc2 b5bd d723 693d b531 7f3d aeed 50bd
00000080: 5f68 603e ba30 353e b24b ca3d 1f13 7e3e
00000090: 5b13 153d f1ef c83c beb6 8fbd ff00 f0bc
000000a0: f677 693d 2bec 1c3d b5f6 58bd da56 603d
000000b0: af26 02bd d8c7 133e 9ae0 9fbd f6ad dfbd
000000c0: 2ff0 d43d d184 d13d 64b7 603e a1e7 ca3d
000000d0: 9f6e f6bc f35b cbbd 960f 8a3d 83db e43c
000000e0: 9ef9 3fbe 7811 1c3d 42c0 253e 0830 933b
000000f0: 0919 b9bd d413 8d3d 0ec5 f83d 4c28 833d
00000100: b625 9a3e 1e16 98bb 8323 6cbe ff64 59be
00000110: bebd 0bbd 0cf9 1b3e 3ae6 adbe 0b5d 98bd
00000120: c967 90ba 308a c13d f7b4 54be 0fc9 1cbe
00000130: ccda 563e aa30 583e d418 923d 2bd3 9abe
00000140: 7d49 043e c137 f6bc 9bfe 19bb 51ad b9bd
00000150: 63f2 733b 9629 2dbe 500b 8b3c 7c11 19bd
00000160: eae5 aabe 5de4 20bd e48d b5bd 2634 c1bd
00000170: e243 be3d 3c9c fc3d 898c 10bd c4f1 23bc
00000180: 3768 cf3c 63c1 09bd c826 85bb d9fb 88be
00000190: ef40 ff3c 162e 25be 6689 fcbb 2283 12bc
000001a0: fc44 77be 3d95 0c3e f744 e4bc e79b fbbb
000001b0: eee2 6e3d 99a8 53bd 3b06 d1bc 8423 70bd
000001c0: 9037 6ebe bb22 2fbd c1fe 00be ae16 ae3d
000001d0: ba26 853d e847 023d 08b8 1dbc 490e 0dbe
000001e0: 6a98 573e f648 9a3e d5f4 9e3e 5879 27be
000001f0: 39c2 b9be 0a6a 11be 907b 99bd cff2 173c
00000200: 30e7 67bd 2027 353d 3bbb 8a3e fb9e 1dbd
00000210: c995 42bc a352 003e 9a19 0d3d d99c cdbd
00000220: 94c7 993c bdcb 653e 36af d93c a1ff dfbc
00000230: b660 b5be df3e d4be cfe4 e4bd 3c1d 06be
00000240: c624 a5bd ba97 943d dfeb e1bd a147 e3bd
00000250: 183b 8a3e 034d 5cbe 6d61 ea3d 9b39 3fbe
00000260: c20f acbd 7d59 48be 3274 68be 3b7b 9b3d
00000270: 80e5 aebc c174 843d 9562 8a3e 7ba1 4a3e
00000280: 67c0 59bd 1d0d 07be cdf5 9cbd cbee fd3d
00000290: 4015 a53d b233 fe3d c995 663d d58e 0abc
000002a0: dddd 85be fd6e 0fbc faed 4e3e a217 1c3e
000002b0: f1e4 eabd ad7d 5e3e 4366 333e 15a2 99be
000002c0: 51d8 79bd 6875 0e3e db1b 1cbd f4f6 09be
000002d0: 4c3e c13c 15fd be3d 1bef 74bd bd0e 073b
000002e0: 6ee7 bbbd 0bbd c83d 483d d43c a932 633c
000002f0: 28ca 353e cd33 8e3d 4bd9 e7bd 17e0 b83d
00000300: 9d80 efbd 57b8 3c3d a6cf c3be b5c4 d93c
00000310: 276b 13bf 50be 1b3e 06a9 45be 2892 23bd
00000320: 25a5 44bd 82b0 e9be f4ee 4e3d 1210 603e
00000330: bddb 3e3d 74fd fa3c aba4 853e 28ac c73d
00000340: 814d 33be e239 39be f17b 7cbe 16f3 5a3c
00000350: 5854 a63a 3554 eebd 82bb 8ebe b64d 0ebd
00000360: b92f 3abd 09b5 4c3e 7756 523e c1b8 f23e
00000370: a79f c23e 7a6c de3d c9a7 023d cbba 2b3e
00000380: 23c4 f03d ccdc 6d3d c1c6 3cbd 0411 dc3c
00000390: a76d f9bd ee7d 83bd c256 19be db8a 17be
000003a0: 3dda a6be 95f3 e4bc 14b2 7dbd 961e 2abd
000003b0: a0dd 233d 181e 4d3e 69e6 453e 5fe2 b2be
000003c0: 2426 933d 0255 023e 6b43 42bc e05b 85be
000003d0: a084 42be 4b92 d3bd 6b4a b53b bec4 cd3e
000003e0: e565 573e 0452 5dbb 721a 063e 4399 20be
000003f0: 7512 cabd 3d07 f3bd 40aa 3c3e 0468 f3bc
-0.12495333 0.13620527 0.24676709 0.0019310861 0.13155833 -0.005621707 -0.08654718 0.060982
0.041865222 -0.019904464 0.11634593 0.079816274 -0.08224196 0.03613057 -0.09659584 0.10634841
0.05715241 -0.037658896 -0.10587206 0.11946581 0.12449423 -0.11113546 -0.06539367 -0.10532905
-0.17745431 -0.23301546 -0.015218635 -0.064519845 -0.0887501 0.056918945 0.062303264 -0.05100792
0.21914814 0.17694369 0.09877719 0.24811982 0.036395412 0.024528475 -0.07017277 -0.02929735
0.05699917 0.038311165 -0.052969653 0.054770328 -0.031775173 0.14431703 -0.07806511 -0.10921852
0.10397374 0.10230411 0.21944958 0.09907461 -0.030082045 -0.09929647 0.06741254 0.027936703
-0.18747565 0.038102597 0.16186622 0.0044918098 -0.09037978 0.068885475 0.1214696 0.064041704
0.30106896 -0.0046413084 -0.23060422 -0.21229933 -0.0341165 0.15231723 -0.3396471 -0.074396215
-0.0011017259 0.09450185 -0.20772158 -0.15311073 0.20981902 0.21112314 0.07133642 -0.30239233
0.12918659 -0.030055882 -0.0023497704 -0.090662606 0.0037223331 -0.16910395 0.016973168 -0.03737019
-0.33378536 -0.039280284 -0.08864954 -0.09433775 0.09290291 0.12334487 -0.035290275 -0.010006372
0.025318248 -0.033631694 -0.004063461 -0.26754645 0.031158892 -0.16130862 -0.007706809 -0.008942397
-0.24147409 0.13728805 -0.027864916 -0.007678497 0.058321886 -0.05167446 -0.025515666 -0.05862762
-0.23263383 -0.04275773 -0.12597181 0.085004196 0.06501527 0.031806856 -0.009626396 -0.1377498
0.21054235 0.3013379 0.31046167 -0.16354883 -0.36280993 -0.14200607 -0.07494271 0.009274199
-0.056616962 0.044226766 0.2709597 -0.038481694 -0.011876532 0.12531523 0.034448244 -0.10039682
0.018771924 0.22441001 0.026572805 -0.027343573 -0.35425347 -0.41454217 -0.11176454 -0.1309709
-0.080636546 0.07255502 -0.11031317 -0.110976465 0.2699821 -0.21513753 0.11444364 -0.18674318
-0.08401443 -0.19565387 -0.22700575 0.07591864 -0.021349669 0.064675815 0.27028337 0.19788162
-0.053162005 -0.13188596 -0.0766407 0.12399062 0.08060694 0.12412204 0.05629519 -0.008456905
-0.2614583 -0.008754489 0.20207968 0.1524339 -0.11469448 0.21727629 0.17519478 -0.3000647
-0.06099731 0.13911974 -0.038112503 -0.13473111 0.023589276 0.09325615 -0.05979834 0.002060815
-0.09175001 0.09801682 0.025908127 0.013867059 0.17752898 0.06943474 -0.11320742 0.09027117
-0.11694453 0.046074238 -0.3824436 0.026583055 -0.57585377 0.15209317 -0.19302759 -0.039934307
-0.048009057 -0.45642477 0.050520852 0.2188113 0.046596278 0.030638434 0.26102194 0.09749633
-0.17510034 -0.18088487 -0.24656655 0.01336362 0.0012689931 -0.11637155 -0.27877432 -0.03474208
-0.045455668 0.19990934 0.20540796 0.4740658 0.3801243 0.10860534 0.031898294 0.16770475
0.1175616 0.058071896 -0.046087984 0.026863582 -0.12179118 -0.064205036 -0.14974502 -0.14799063
-0.32588378 -0.02794818 -0.061937407 -0.041533075 0.04000628 0.20031011 0.19326176 -0.34938332
0.07185009 0.1272774 -0.011856894 -0.26046658 -0.18995905 -0.103306375 0.005532553 0.40189165
0.21034963 -0.003377081 0.13096026 -0.15683465 -0.09866802 -0.11866615 0.1842432 -0.029712684

mixlayers.4.op.3.weight f4 [16]
00000000: 3e72 023f 133f d43e c619 043f 48ca fb3e
00000010: d174 083f 0efe 053f e8da ff3e bae4 0f3f
00000020: 1d61 f33e e7be 083f c664 083f baae fa3e
00000030: e4e8 113f 409b 0c3f 3e2f 013f f8ed 103f
0.5095557 0.41454372 0.5160183 0.49177766 0.5330325 0.5234078 0.499717 0.56208384
0.4753503 0.53416294 0.5327877 0.4896143 0.5699599 0.5492439 0.5046271 0.5661311

mixlayers.4.op.3.bias f4 [16]
00000000: 59e6 1a3d 669d 8e3d b930 ccbd 40fa 723b
00000010: 00df bb3d 9ed1 1a3d 252f da3d 3ef1 2a3e
00000020: 0e42 2e3e f275 33bd 62b6 b1bd f43e c039
00000030: d97f d7bd cc08 0abe 8fa8 9f3c 87a4 77bc
0.037817333 0.06963615 -0.099702306 0.003707543 0.09173393 0.037797563 0.10653523 0.16693589
0.17017385 -0.043813653 -0.08677365 0.00036667997 -0.10522432 -0.13479918 0.019489555 -0.01511491

mixlayers.4.op.3.running_mean f4 [16]
00000000: ee55 d43c 7fc7 5e3d d7b7 b83d 53e0 863d
00000010: 9ef5 723d e67a c43c a95d fdbc 8f60 debd
00000020: 436e c8bd ba64 75bc 8988 a03d 6e19 cbbb
00000030: c66d 0a3d a56c 853d 8c13 da3d e6df 03bd
0.02591988 0.054389473 0.0901944 0.06585755 0.05931627 0.023984384 -0.03092845 -0.10858261
-0.09786656 -0.014977628 0.07838542 -0.0061981 0.033796094 0.06514863 0.106482595 -0.032195948
