Train-KMNIST_train_dropout_no_crop-20240404-095207/weights.pt (torch, 183696 bytes, 97 tensors)

stem.0.weight f4 [4, 1, 3, 3]
0	0xbdc0edb2	-0.09420337
1	0xbe77188f	-0.24130462
2	0xbe71e75a	-0.2362341
3	0xbe1c14c8	-0.15242302
4	0xbe31f09b	-0.1737694
5	0x3e041695	0.1289924
6	0x3e71bff7	0.23608385
7	0x3d9fbe8d	0.078000166
8	0x3c804ff4	0.015663125
9	0xbdac5bd0	-0.08415949
10	0x3e186eef	0.14886068
11	0x3dd04cd8	0.10170907
12	0x3e3ef8c4	0.18649584
13	0x3ecdb78b	0.40179095
14	0x3e4b973e	0.19881913
15	0xbcbc91dd	-0.023018772
16	0xbe41d4d4	-0.18928844
17	0x3c45a321	0.012062819
18	0x3e0f6a66	0.14005432
19	0x3daff7bd	0.08592174
20	0xbdeb162a	-0.11478837
21	0x3ecdf6cd	0.40227357
22	0xbeb2ba2e	-0.3490767
23	0xbe64a75c	-0.22329468
24	0x3e0e1f80	0.13879204
25	0xbd39b042	-0.04533411
26	0x3d6fd29b	0.05855046
27	0x3aae93e3	0.001331922
28	0xbd8aef50	-0.067839265
29	0x3cb5aea6	0.022178005
30	0xbe66f91a	-0.22555962
31	0xbe9d1ea9	-0.30687454
32	0xbe498767	-0.19680558
33	0xbc987511	-0.01861051
34	0xbddfcedd	-0.10928128
35	0x3d8e6a31	0.06953848

stem.1.weight f4 [4]
0	0x3ea60265	0.32423702
1	0x3e3db36b	0.18525474
2	0x3e891cce	0.2677979
3	0x3ed3f43d	0.41397277

stem.1.bias f4 [4]
0	0x3d1205bd	0.035650004
1	0x3e1b83be	0.15186974
2	0x3e91a8e3	0.28449163
3	0x3dc2ca19	0.09511203

stem.1.running_mean f4 [4]
0	0xbb873cf3	-0.0041271388
1	0x3bcfa04f	0.006336249
2	0x3c0eb2b9	0.008709603
3	0xbbf4a0a5	-0.0074654394

stem.1.running_var f4 [4]
0	0x3e93a047	0.2883322
1	0x3f03f4a2	0.51545155
2	0x3e66f31c	0.22553676
3	0x3f0ec51b	0.5576951

mixlayers.0.op.1.weight f4 [4, 1, 3, 3]
0	0xbd824aa5	-0.063618936
1	0x3e98d6b5	0.29851308
2	0x3e36cd9f	0.17851876
3	0x3d63ce10	0.05561644
4	0x3db4d181	0.08829022
5	0x3d61efff	0.05516052
6	0xbda4ed31	-0.08053053
7	0xbc583938	-0.013197236
8	0x3db4915d	0.08816788
9	0x3ddf8281	0.109135635
10	0x3e96588a	0.29364425
11	0x3e5ae068	0.21374667
12	0x3e648244	0.22315317
13	0x3e0319fb	0.1280288
14	0x3d6c1988	0.057641536
15	0xbe816180	-0.252697
16	0xbec8d9f2	-0.3922878
17	0xbc7a073b	-0.015260513
18	0x3d9446e6	0.07240085
19	0xbe9c3e1a	-0.3051613
20	0x3e8fc6da	0.280814
21	0xbe095131	-0.13409878
22	0xbeb138aa	-0.34613544
23	0x3e8cf1ec	0.27528322
24	0x3d3ae8d2	0.04563219
25	0x3e804bd4	0.25057852
26	0xbc607f13	-0.013702172
27	0xbe6b3610	-0.22969842
28	0x3e367bac	0.17820615
29	0x3d53dc78	0.051723927
30	0xbe35eff1	-0.17767312
31	0x3e90e5e6	0.283004
32	0x3ea26f64	0.3172561
33	0xbe746675	-0.2386721
34	0xbcaaa8cb	-0.02083244
35	0xbd378a72	-0.044809766

mixlayers.0.op.2.weight f4 [16, 4, 1, 1]
0	0x3ac18fc7	0.001476758
1	0x3d80cb52	0.0628878
2	0x3e2b2032	0.167115
3	0x3e255901	0.16147234
4	0xbdc716da	-0.097211555
5	0xbd8a6b02	-0.06758691
6	0xbe59d966	-0.21274337
7	0x3d441d7f	0.047879692
8	0x3dad9aff	0.08476829
9	0xbdf913f8	-0.12162012
10	0xbd8f6317	-0.07001322
11	0xbdb31c25	-0.087456025
12	0xbd9116fc	-0.07084462
13	0x3d2859e6	0.04110136
14	0xbe29988a	-0.16562095
15	0x3e13e62a	0.1444327
16	0xbaff8ffe	-0.0019497869
17	0x3da9b634	0.082867056
18	0xbe8590bb	-0.26086983
19	0xbc7d973c	-0.015477952
20	0xbe63a06a	-0.22229162
21	0xbc43e4f2	-0.01195644
22	0x3e8ce493	0.27518138
23	0xbe60fe59	-0.21972026
24	0x3d628d4e	0.05531054
25	0xbd067f2c	-0.032836124
26	0xbc2bee06	-0.010493761
27	0x3e8598b8	0.26093078
28	0x3ba90cc9	0.005158995
29	0x3d91e141	0.07123042
30	0xbe044cdf	-0.12919949
31	0xbdd9cf5e	-0.10635255
32	0xbd004682	-0.03131724
33	0x3e7a3ed9	0.24438037
34	0xbd72a2a9	-0.059237156
35	0xbdedf016	-0.116180584
36	0x3d8cfc9c	0.06884119
37	0xbd98351f	-0.07432007
38	0xbd1d60a6	-0.03842225
39	0xbce1aab8	-0.027547225
40	0x3e85dae6	0.2614357
41	0xbdc8b4ce	-0.09800111
42	0x3df2bd10	0.11852467
43	0xbdc368aa	-0.095414475
44	0x3c40794c	0.011747669
45	0xbe0f0eab	-0.13970439
46	0xbe7db818	-0.24777257
47	0x3e5e68aa	0.21719614
48	0xbdc0706b	-0.09396442
49	0x3e8c6801	0.274231
50	0x3cbcff44	0.023070939
51	0x3de15f14	0.11004463
52	0xbdbf732c	-0.09348139
53	0xbd9a78b0	-0.075425506
54	0xbd77d215	-0.060503084
55	0x3d1f9488	0.03896001
56	0x3d074613	0.033025812
57	0xbdd87d22	-0.10570742
58	0xbb3fedf3	-0.0029286116
59	0x3e4e569c	0.20150226
60	0xbdf30167	-0.11865502
61	0x3e38de86	0.18053636
62	0x3a4754e0	0.0007603895
63	0x3e0a82b5	0.13526423

mixlayers.0.op.3.weight f4 [16]
0	0x3e855ce2	0.26047426
1	0x3e95a1f7	0.29225132
2	0x3e5fba43	0.21848397
3	0x3e896ee3	0.26842412
4	0x3e919ad1	0.28438428
5	0x3e84eedf	0.25963494
6	0x3e9b34c8	0.30313706
7	0x3e6fd2f4	0.23420316
8	0x3e502e7b	0.20330231
9	0x3e43aecb	0.19109647
10	0x3e7d4c1a	0.24736062
11	0x3e8522f1	0.2600322
12	0x3e4a8b9c	0.19779819
13	0x3e49c76b	0.19704978
14	0x3e886c41	0.2664509
15	0x3e502215	0.20325501

mixlayers.0.op.3.bias f4 [16]
0	0x3d718777	0.05896708
1	0xbd9d8903	-0.076921485
2	0x3ca222cb	0.019791981
3	0x3c16e471	0.009209738
4	0x3da6c9ea	0.08143981
5	0xbcc07ce6	-0.023497056
6	0xbdaa9a63	-0.08330228
7	0x3d783856	0.0606006
8	0x3d9745b9	0.073863454
9	0x3c395e68	0.011314012
10	0x3dc501a8	0.096194565
11	0x3e122add	0.14274164
12	0x3e302622	0.17202047
13	0xbb1cefe8	-0.0023946706
14	0xbd7f9696	-0.06239947
15	0x3df17003	0.11788943

mixlayers.0.op.3.running_mean f4 [16]
0	0x3c6150d3	0.01375218
1	0xbc8530aa	-0.016258556
2	0xbb8f5a77	-0.004374798
3	0xbb610918	-0.0034337696
4	0xbb5d4060	-0.0033760294
5	0xbca076f9	-0.01958798
6	0x3c3e7480	0.011624455
7	0xbb3e4b4c	-0.002903658
8	0x3ba62d19	0.005071294
9	0xb95391cf	-0.00020176846
10	0x3c8af575	0.016962746
11	0xbbc62fac	-0.0060481634
12	0x3c3acfe3	0.011402103
13	0xbc4c1789	-0.012456783
14	0x3b7f37de	0.0038943212
15	0x3b90ec2b	0.0044226847

mixlayers.0.op.3.running_var f4 [16]
0	0x3a163095	0.0005729285
1	0x3a6be65c	0.0008998865
2	0x39fb394f	0.0004791715
3	0x3a2c5f67	0.00065754954
4	0x3a90c1dc	0.0011044103
5	0x3b20410c	0.0024452833
6	0x3a1ad193	0.0005905863
7	0x39ae5e96	0.00033258338
8	0x3a9b0507	0.001182706
9	0x3953cda8	0.00020199141
10	0x3a4e2210	0.0007863352
11	0x3b1a74d1	0.0023568163
12	0x3abd3de8	0.0014438005
13	0x3916d830	0.00014385651
14	0x3a1f784a	0.0006083293
15	0x3a46639a	0.00075679424

mixlayers.1.op.1.weight f4 [16, 1, 3, 3]
0	0x3ddad6a5	0.106854714
1	0xbe171fce	-0.14758226
2	0x3e06ca56	0.13163123
3	0xbde9c16b	-0.11413845
4	0xbd0bc9da	-0.034128048
5	0xbdf67947	-0.120348506
6	0xbcb236b5	-0.021754602
7	0xbd62cb49	-0.05536965
8	0xbd9e39ee	-0.07725893
9	0x3db61e71	0.08892525
10	0x3e3f93ad	0.18708678
11	0x3cc18647	0.023623599
12	0x3c8f0f68	0.017463401
13	0x3d805805	0.062667884
14	0xbcf269ee	-0.029591527
15	0xbe3680f8	-0.17822635
16	0xbdf0146a	-0.11722644
17	0xbe1f105d	-0.15533586
18	0xbcf973ca	-0.03045072
19	0xbcc10607	-0.023562444
20	0xbc8783c2	-0.01654232
21	0xbdf5a09e	-0.11993526
22	0xbcb0e843	-0.021595126
23	0x3e31f9de	0.17380473
24	0x3d0bb53b	0.03410838
25	0x3dac2bc0	0.08406782
26	0x3cc4b785	0.02401329
27	0x3d918651	0.07105697
28	0xbcce810a	-0.025208015
29	0x3cc26ad4	0.02373258
30	0xbd119917	-0.03554639
31	0xbde92663	-0.11384275
32	0x3dc20ec6	0.09475474
33	0xbe4b2cb0	-0.19841266
34	0x3d2592a6	0.040423058
35	0x3e560610	0.2090075
36	0x3dfa195c	0.12211868
37	0x3da9133d	0.082556225
38	0xbd4e20e8	-0.05032435
39	0x3e55a782	0.2086468
40	0xbe32eba1	-0.17472698
41	0x3d953a63	0.07286527
42	0xbe00102e	-0.12506172
43	0xbd3ef591	-0.04662091
44	0x3e811a55	0.25215402
45	0x3d840c64	0.06447676
46	0xbcd66207	-0.02616979
47	0xbe139152	-0.14410904
48	0x3a4dcb7f	0.00078504527
49	0xbe7c3e41	-0.24633123
50	0xbe680fc8	-0.2266227
51	0xbe623b5e	-0.2209296
52	0xbd619702	-0.055075653
53	0x3d51daa8	0.051233917
54	0xbd49a783	-0.049232017
55	0xbe0e0254	-0.13868076
56	0xbe23ef95	-0.16009362
57	0x3e19c7b9	0.15017594
58	0x3d4b9032	0.049698062
59	0xbe032f5c	-0.12811035
60	0x3dbb3abf	0.09142064
61	0x3d7f6127	0.06234851
62	0xbd99e963	-0.07515218
63	0x3d8230ab	0.06356939
64	0xbdaebcb2	-0.085320845
65	0xbd2ccd61	-0.042188052
66	0xbc6876ea	-0.014188508
67	0xbd7be946	-0.061501764
68	0xbd38f0d0	-0.04515153
69	0x3e2bf99b	0.16794436
70	0x3e261cf5	0.16221984
71	0xbd4b0e6c	-0.0495743
72	0x3d89edd4	0.06734815
73	0x3b4c748c	0.0031197397
74	0xbdc40f85	-0.095732726
75	0x3d172142	0.03689695
76	0xbda91a87	-0.08257013
77	0xbdf2303c	-0.11825606
78	0x3db2b4f8	0.08725923
79	0xbda95a26	-0.082691476
80	0xbe61bf9d	-0.22045751
81	0xbd1b37f7	-0.03789517
82	0xbcce1a03	-0.025158888
83	0x3b85abd2	0.0040793205
84	0xbd401542	-0.046895273
85	0x3d09c571	0.03363556
86	0x3d90322c	0.070408195
87	0x3d665597	0.05623397
88	0x3d58766a	0.052847303
89	0x3d2add22	0.041714795
90	0x3dd0376c	0.10166821
91	0x3e0fcc1c	0.14042705
92	0x3daf7dcc	0.08568916
93	0xbe467f20	-0.19384432
94	0xbe553e09	-0.20824446
95	0xbded2822	-0.1157992
96	0x3e1646d2	0.14675453
97	0x3e9ddd7f	0.3083305
98	0x3cf21941	0.029553058
99	0xbd10515c	-0.03523384
100	0x3abfd65e	0.001463603
101	0x3e3d09ba	0.18460742
102	0xbdf7b297	-0.1209461
103	0xbe38e11c	-0.18054622
104	0xbc872260	-0.016495883
105	0xbdc3625d	-0.09540246
106	0xbe89cfe3	-0.26916417
107	0xbdf661a6	-0.12030344
108	0x3d8b124d	0.067906
109	0x3e1061ad	0.1409976
110	0x3da5a3d5	0.08087889
111	0x3caefe77	0.021361573
112	0x3cd17a52	0.025571022
113	0x3ca3f026	0.020011973
114	0xbe5694c8	-0.20955193
115	0xbe9bd397	-0.30434868
116	0xbd9d4a62	-0.07680203
117	0xbcb12eb5	-0.021628717
118	0xbd8e2cfa	-0.06942172
119	0xbd57693d	-0.052590597
120	0xbd8080d2	-0.062745705
121	0xbbc62904	-0.00604737
122	0x3d3399dd	0.043847907
123	0x3c21cacb	0.00987501
124	0x3d80c438	0.06287426
125	0x3c5b3e8a	0.01338161
126	0x3cd0c67d	0.025485272
127	0x3e1bd955	0.15219624
128	0x3dbbd4c9	0.09171445
129	0x3cee0487	0.029054893
130	0x3c94972a	0.018138487
131	0x3dbef426	0.09323911
132	0xbe04dbe6	-0.1297451
133	0xbdcc7e62	-0.09985043
134	0x3d2a54df	0.041584846
135	0x3e43eafd	0.1913261
136	0x3e19b854	0.15011722
137	0x3c82f447	0.015985621
138	0x3e04f182	0.12982753
139	0x3b394cfd	0.0028274648
140	0xbd8d0440	-0.06885576
141	0xbd23dae1	-0.04000366
142	0xbdae2278	-0.08502668
143	0xbd02477e	-0.03180646

mixlayers.1.op.2.weight f4 [16, 16, 1, 1]
0	0x3ce7fad5	0.028317848
1	0x3d87933f	0.06619882
2	0x3d803f72	0.06262101
3	0xbd788aae	-0.06067913
4	0xbdac12a2	-0.084019914
5	0x3ebf4a5d	0.37361422
6	0x3cda0e41	0.026618125
7	0xbd8e961b	-0.06962224
8	0xbca92c9f	-0.02065116
9	0x3d8ae225	0.06781415
10	0x3e550906	0.20804223
11	0x3d88b961	0.06675983
12	0x3e28302b	0.16424625
13	0xbd3c7c79	-0.046017144
14	0xbd23639f	-0.039889928
15	0x3e4431b5	0.19159587
16	0x3d997b0f	0.07494175
17	0x3c856202	0.016282085
18	0x3dea45dc	0.11439106
19	0x3c2900e5	0.010315155
20	0x3d2fbf07	0.042906787
21	0xbd3c203e	-0.045929186
22	0xbe3b278b	-0.18276803
23	0x3da008c3	0.07814171
24	0x3dbbf4ea	0.09177573
25	0x3d6c8e02	0.057752617
26	0xbdda1311	-0.10648168
27	0x3e3b67a4	0.18301255
28	0xbe283a03	-0.1642838
29	0x3c770921	0.01507786
30	0x3e2c91e9	0.16852535
31	0x3c59c38e	0.013291253
32	0xbd283ee7	-0.041075613
33	0x3c87d054	0.01657883
34	0x3d8d4620	0.06898141
35	0xbccf3a50	-0.02529636
36	0xbdf307fb	-0.118667565
37	0x3d7e2740	0.06204915
38	0x3d878c34	0.066185385
39	0x3d60e536	0.054906093
40	0xbd08d8a1	-0.03340972
41	0x3d46bb13	0.04851825
42	0x3e171dbc	0.14757437
43	0xbd391972	-0.045190282
44	0x3e32a8e6	0.17447242
45	0x3aee7cc2	0.001819514
46	0xbcf61833	-0.030040836
47	0x3d06a177	0.03286883
48	0x3d870552	0.06592812
49	0x3d89533c	0.06705329
50	0x3bc8ef25	0.006132024
51	0x3c922a82	0.017842535
52	0x3cc2ce9d	0.023780162
53	0xbd9145e6	-0.0709341
54	0xbd822f59	-0.06356687
55	0xbda52f6c	-0.08065686
56	0xbd886c89	-0.066613264
57	0x3c1e8a20	0.009676486
58	0x3ba2399d	0.0049507157
59	0x3d688732	0.056769557
60	0xbdf7a7d2	-0.12092556
61	0xbd129e21	-0.035795335
62	0xbae02245	-0.0017100057
63	0xbcfb708a	-0.030693311
64	0x3dfacaa5	0.122456826
65	0x3d83c330	0.064337134
66	0xbdbc30da	-0.09189005
67	0x3db4b552	0.088236466
68	0x3e7d46eb	0.24734084
69	0xbcb25ebf	-0.021773694
70	0x3d58ba03	0.05291177
71	0xbcd9d515	-0.026590863
72	0x3d128ca1	0.035778645
73	0xbd2c5769	-0.04207555
74	0x3c37828a	0.0112005565
75	0x3ca35d69	0.019942002
76	0x3c0d980a	0.008642206
77	0xbd0ab459	-0.0338634
78	0xbd8b3c19	-0.06798572
79	0xbbfba6ad	-0.0076797814
80	0xbe1526b6	-0.14565548
81	0xbdbd463b	-0.09241911
82	0x3d020ff7	0.031753507
83	0xbe0bc80b	-0.13650529
84	0xbc8f9cfc	-0.01753091
85	0xbda77cce	-0.081781015
86	0x3d8a0c1e	0.067405924
87	0xbcd614b4	-0.026132919
88	0xbdc4fb8f	-0.096182935
89	0x3d11409b	0.035462003
90	0x3d50f776	0.051017247
91	0x3e3cda7f	0.18442725
92	0xbd90c896	-0.07069509
93	0x3cd4cd2e	0.025976744
94	0xbd199130	-0.037491977
95	0x3e0e0cca	0.13872066
96	0x3da81c7d	0.08208559
97	0x3d7c26d0	0.061560452
98	0x3dc38f22	0.09548785
99	0xbe0a631e	-0.13514373
100	0xbe18b7aa	-0.14913812
101	0x3e4df957	0.20114647
102	0x3d419c5c	0.047268257
103	0x3e0c18aa	0.13681284
104	0x3db395f6	0.08768837
105	0x3d5f8d85	0.054578323
106	0x3c2a0e8b	0.010379444
107	0x3cb4ee4c	0.022086285
108	0xbd6428ef	-0.0557031
109	0x3b4075cd	0.002936709
110	0x3b6ea90c	0.0036416678
111	0xbdd5ef28	-0.10446006
112	0xbb9d6c6c	-0.0048041847
113	0x3ccdf152	0.025139485
114	0xbd12e050	-0.035858452
115	0x3e666f3a	0.22503367
116	0x3de26738	0.11054844
117	0xbd31d755	-0.043418247
118	0xbd94fbd1	-0.07274593
119	0xbce10afe	-0.027471062
120	0xbe2d1aa1	-0.1690469
121	0xbd0e01a3	-0.03466953
122	0xbe43d18d	-0.19122906
123	0x3e5a0692	0.21291569
124	0xbe2b3d5e	-0.16722628
125	0x3d47a434	0.04874058
126	0x3cbcb299	0.02303438
127	0xbdc8f882	-0.09813024
128	0x3d085366	0.03328266
129	0xbd063023	-0.03276075
130	0xbd4e93f1	-0.050434057
131	0x3d06445d	0.03278004
132	0x3bdbee33	0.006711745
133	0xbda697ed	-0.08134446
134	0xbe63fd36	-0.22264561
135	0x3e0c78d4	0.13717967
136	0x3e5374a4	0.20649964
137	0xbceb9cca	-0.028761286
138	0x3cd02c84	0.025411852
139	0x3da15aee	0.078786716
140	0x3dfebf58	0.1243884
141	0xbc248d25	-0.010043417
142	0x3e157324	0.14594704
143	0xbb91fd2e	-0.00445523
144	0xbd9ccc2a	-0.07656129
145	0xbc059244	-0.008152548
146	0x3dca9811	0.098922856
147	0xbc948ebc	-0.018134467
148	0x3bc3bb3c	0.005973248
149	0x3ca4f036	0.020134073
150	0xbd9f6be9	-0.07784254
151	0xbda51390	-0.08060372
152	0xbd9a23e0	-0.07526374
153	0xbbd8a096	-0.00661094
154	0x3c8b66e8	0.017016843
155	0x3db34515	0.08753411
156	0xbddeba9c	-0.10875437
157	0xbb425fdc	-0.0029659187
158	0xbb71df35	-0.0036906723
159	0xbca51537	-0.020151718
160	0x3dc2eb5c	0.095175475
161	0x3e763aee	0.24045917
162	0xba588691	-0.0008259798
163	0x3c429215	0.011875649
164	0xbd4c336d	-0.04985373
165	0x3bc9db40	0.00616017
166	0xbd0a795f	-0.033807155
167	0x3cf92f9c	0.03041821
168	0xbdd06d06	-0.101770446
169	0xbce789ae	-0.028263893
170	0xbdbf7972	-0.09349336
171	0x3e562700	0.20913315
172	0xbe082639	-0.13295831
173	0xbdd5b81d	-0.104355074
174	0x3d3c79c0	0.046014547
175	0xbd8945e2	-0.06702782
176	0x3c2fbabf	0.010725676
177	0x3d73bc59	0.059505794
178	0xbd8ddb5d	-0.06926606
179	0x3e047ace	0.12937471
180	0x3dd70783	0.104994796
181	0xbe4278bd	-0.1899137
182	0xbd987bf0	-0.07445514
183	0xbd6f1cb8	-0.058376998
184	0x3d519f4b	0.051177304
185	0xbd01b428	-0.03166595
186	0x3d859c8f	0.06524002
187	0x3d2e98a8	0.042626053
188	0x3bb38150	0.0054780617
189	0x3d09f7fb	0.03368376
190	0xbd28dcde	-0.04122626
191	0xbe16def5	-0.14733489
192	0x3d8355f6	0.0641288
193	0x3c5d6ae6	0.013514256
194	0xbca22863	-0.019794649
195	0xbd82ae30	-0.0638088
196	0x3d0afce8	0.033932596
197	0x3c582e8e	0.013194693
198	0x3cf0eb59	0.029409098
199	0x3da63958	0.08116406
200	0x3d6eb4df	0.05827796
201	0x3d347ead	0.04406612
202	0xbd3a03be	-0.045413725
203	0xbe1f5f84	-0.1556378
204	0x3be827e0	0.0070848316
205	0xbd251c56	-0.040310226
206	0xbaff7fb5	-0.0019493016
207	0x3d7bdddf	0.06149089
208	0x3e1a6418	0.15077245
209	0xbd90b053	-0.07064881
210	0xbcfe5fbb	-0.031051507
211	0xbc4cc3ee	-0.012497885
212	0x3dd0f071	0.102021106
213	0x3de0e475	0.10981075
214	0xbd061f9a	-0.03274498
215	0xbaf4c3e7	-0.0018674106
216	0xbe22d05d	-0.15899797
217	0x3c785610	0.015157238
218	0xbde39ca4	-0.11113861
219	0x3db92537	0.09040301
220	0xbc633ede	-0.013869969
221	0xbc85ce48	-0.016333714
222	0xbc997851	-0.01873413
223	0xbcc7aff1	-0.024375888
224	0xbd8d6cc3	-0.0690551
225	0xbe32e287	-0.17469226
226	0x3d522f79	0.051314805
227	0x3e02a1b5	0.12756999
228	0x3de42358	0.11139554
229	0xbd0f8c42	-0.03504587
230	0xbc3293af	-0.010899468
231	0x3d09bc0d	0.033626605
232	0xbd1ac345	-0.03778388
233	0x3d23b17b	0.03996418
234	0x3ace313b	0.0015731225
235	0x3d7d404b	0.061828893
236	0xbd85f30c	-0.06540498
237	0x3d6eeee0	0.058333278
238	0x3cb21b76	0.02174161
239	0x3d943269	0.072361775
240	0x3cbcb916	0.023037475
241	0xbdbbeb6f	-0.09175765
242	0xbda4c488	-0.08045298
243	0x3c81687d	0.015796894
244	0xbc0ec0dd	-0.008712974
245	0x3dbea8fc	0.09309575
246	0xbddf4fbf	-0.10903882
247	0x3da8647d	0.082222916
248	0x3d3f9ab4	0.046778396
249	0x3aa03783	0.0012223575
250	0x3cf05767	0.029338552
251	0xbdb414e5	-0.08793048
252	0xbd262d55	-0.040570576
253	0x39822faf	0.0002483106
254	0x3e42a22a	0.19007173
255	0xbd1c68b6	-0.038185798

mixlayers.1.op.3.weight f4 [16]
0	0x3ea13865	0.31488338
1	0x3e5c46b8	0.21511352
2	0x3e8552bf	0.26039693
3	0x3e46bd63	0.19408183
4	0x3e7a4499	0.2444023
5	0x3e398cfa	0.18120185
6	0x3e8f8f7d	0.2803916
7	0x3e5765f5	0.21034987
8	0x3e80ce84	0.2515756
9	0x3e54767a	0.2074832
10	0x3e621135	0.22076876
11	0x3e5425a1	0.2071748
12	0x3e7505ad	0.23927946
13	0x3e81bd3e	0.25339693
14	0x3e805a79	0.25069025
15	0x3e61d1dc	0.22052711

mixlayers.1.op.3.bias f4 [16]
0	0x3d80fb34	0.06297913
1	0x3e1dfc8e	0.15428373
2	0x3dc9a489	0.09845836
3	0x3d88fea7	0.06689196
4	0xbcee2c21	-0.029073777
5	0x3db834b4	0.08994427
6	0x3da4f0e9	0.080537625
7	0x3e1edb10	0.15513253
8	0xbdea74eb	-0.114480816
9	0x3d05fdd9	0.03271279
10	0x3be871bf	0.0070936377
11	0x3bf77649	0.0075519425
12	0xbd69b696	-0.057058893
13	0xbd14de39	-0.03634474
14	0xbd8a4cf4	-0.06752959
15	0xbd377081	-0.044785026

mixlayers.1.op.3.running_mean f4 [16]
0	0xbcdcc8e5	-0.026951263
1	0xbc919160	-0.017769516
2	0x3a3c2ee0	0.0007178616
3	0x3b29a67a	0.0025886581
4	0xb8bedf26	-9.101471e-05
5	0x3ac9135a	0.001534085
6	0xbcdf8937	-0.027287109
7	0xbc8c90a8	-0.017158821
8	0xbc887bdb	-0.016660621
9	0xb9cede1c	-0.00039456866
10	0xbceccccb	-0.028906247
11	0x3b73579d	0.003713108
12	0x3c8240b6	0.015899997
13	0xbc96dc12	-0.018415485
14	0x3c33dfbd	0.010978636
15	0x3bc52365	0.0060161822

mixlayers.1.op.3.running_var f4 [16]
0	0x3b8463ca	0.004040216
1	0x3a9fd9c4	0.0012195637
2	0x3a8296e2	0.000996318
3	0x3a0b27a7	0.0005308338
4	0x3a14b25e	0.0005672331
5	0x3a6d5f51	0.0009055036
6	0x3ad38230	0.0016136821
7	0x3b5bfbf3	0.0033566921
8	0x3a245aa0	0.00062696077
9	0x39ae22f2	0.00033213902
10	0x3ab4a4f0	0.0013782065
11	0x3a9f3a70	0.0012148153
12	0x39ec0335	0.00045015817
13	0x39bedeae	0.00036405533
14	0x3a3fa18d	0.0007310145
15	0x39d926ec	0.00041418464

mixlayers.2.op.1.weight f4 [16, 1, 3, 3]
0	0x3e067a89	0.13132681
1	0x3cc195ab	0.023630938
2	0xbdb0a338	-0.086248815
3	0x3d8ea82e	0.069656715
4	0xbe3e9838	-0.18612754
5	0xbe875dbc	-0.264387
6	0xbe3b12b4	-0.18268853
7	0xbdff2fe4	-0.12460306
8	0x3d86cd48	0.06582123
9	0xbe508700	-0.20363998
10	0x3ddf21bd	0.10895107
11	0x3e878766	0.26470488
12	0xbdff1691	-0.12455476
13	0xbc90f5eb	-0.017695388
14	0x3d850b1c	0.064962596
15	0x3d2cf2f3	0.042223882
16	0xbdd6acc7	-0.104821734
17	0xbde4b3ca	-0.111671045
18	0x3d73da27	0.05953422
19	0x3e3b6023	0.18298392
20	0x3e2f66f1	0.17129113
21	0x3c8a5897	0.016887946
22	0x3d145d10	0.036221564
23	0x3cce4445	0.025179038
24	0xbdb9a45d	-0.09064553
25	0xbdf60bb1	-0.12013949
26	0x3d1f0372	0.038821645
27	0xbc7da5be	-0.015481411
28	0x3b207e11	0.0024489204
29	0x3dde041b	0.10840627
30	0xbda71dfc	-0.08160016
31	0x3beab2b6	0.0071624173
32	0xbd8470eb	-0.0646685
33	0x3bd666b6	0.006543006
34	0xbdc25d42	-0.09490444
35	0xbe1d9860	-0.15390158
36	0x3de9fd11	0.11425222
37	0xbd2d6a5e	-0.042337768
38	0x3c692576	0.014230123
39	0xbdc7fd39	-0.09765095
40	0xbd2295c3	-0.039693605
41	0xbd7af380	-0.061267376
42	0xbe419ebc	-0.18908209
43	0xbdc05e7c	-0.093930215
44	0xbc697c94	-0.014250893
45	0xbdd539f5	-0.10411445
46	0x3ded1bef	0.115775935
47	0x3e01e2ec	0.1268422
48	0xbe166e13	-0.14690427
49	0x3d5c6843	0.05381037
50	0x3de2945c	0.110634536
51	0xbe04e805	-0.12979133
52	0x3d2b07b2	0.041755386
53	0x3e1f399e	0.15549323
54	0x3c2eedee	0.010676844
55	0x3e41bc67	0.18919526
56	0x3e0ec9f3	0.13944225
57	0x3cf39d74	0.029738165
58	0x3dbb326e	0.09140478
59	0x3d6b57c0	0.05745673
60	0xbe2aea82	-0.1669102
61	0xbd8164f4	-0.063180834
62	0x3d70f417	0.058826532
63	0xbe12cf2e	-0.14336845
64	0xbe8987b1	-0.26861337
65	0xbc88d4d3	-0.016703045
66	0xbd71a1a2	-0.058992036
67	0x3e8eb04f	0.27868888
68	0x3e384be2	0.17997697
69	0x3deb6f44	0.114958316
70	0x3e6c8d29	0.23100723
71	0xbd6fd72f	-0.058554824
72	0xbd2144ef	-0.03937238
73	0x3de3d90c	0.11125383
74	0x3cb45b35	0.022016147
75	0xbd469f25	-0.048491616
76	0xbd993f3d	-0.07482765
77	0xbe756b0e	-0.2396662
78	0x3d127d5b	0.03576408
79	0xbd8e1a6b	-0.069386326
80	0xbe1fc131	-0.1560104
81	0xbdc3f2c5	-0.09567789
82	0xbd8178f1	-0.06321896
83	0x3c6feefb	0.01464438
84	0x3e19a760	0.15005255
85	0x3d39f53c	0.04539989
86	0xbc97abe7	-0.018514587
87	0x3dd12732	0.10212554
88	0x3db1437d	0.086554505
89	0xbb86c837	-0.004113223
90	0x3cd155b0	0.025553554
91	0x3b8968f8	0.0041934215
92	0xbd5cdbdc	-0.05392061
93	0x3e01819d	0.126471
94	0x3e3a6aa6	0.18204746
95	0x3d7952d9	0.060870025
96	0x3d2290bd	0.039688814
97	0x3df62ac4	0.12019876
98	0x3dcaef5f	0.09908938
99	0x3d89a9f1	0.06721867
100	0xbd7cf883	-0.061760437
101	0xbe4d9991	-0.20078112
102	0x3d478f55	0.048720676
103	0xbe19ce1c	-0.1502003
104	0xbce851dd	-0.028359348
105	0xbda36917	-0.07979029
106	0xbd95515b	-0.07290908
107	0x3d7c5364	0.061602965
108	0xbe019c80	-0.12657356
109	0xbd9564b5	-0.07294599
110	0xbd74e95c	-0.05979286
111	0xbe10f3c4	-0.14155489
112	0xbd898dd5	-0.067165054
113	0xbd2d8606	-0.042364143
114	0xbccff5e4	-0.025385804
115	0xbc063923	-0.008192333
116	0x3d6b4562	0.057439215
117	0xbcf9c299	-0.0304883
118	0xbdea798a	-0.11448963
119	0xbe168c4d	-0.14701958
120	0x3d942804	0.07234195
121	0x3b193faa	0.0023383894
122	0xbd8e7d7e	-0.069575295
123	0x3e1e08c2	0.15433028
124	0x3d86d258	0.06583089
125	0x3dc09c41	0.09404803
126	0x3e597fe7	0.21240197
127	0x3dba8103	0.09106638
128	0xbe323be7	-0.17405663
129	0xbd173f22	-0.036925443
130	0xbd9a7c2e	-0.07543217
131	0xbc0f3a4f	-0.008741929
132	0xbdbca7c5	-0.09211687
133	0xbddb482c	-0.10707125
134	0xbb2886a8	-0.0025715027
135	0xbc9f6e5f	-0.019461809
136	0xbddf0aec	-0.10890755
137	0xbd9fc695	-0.078015484
138	0x3d7e0afd	0.062022198
139	0x3daeb0db	0.08529826
140	0x3e246dda	0.1605753
141	0xbb0a1b92	-0.0021073562
142	0x3d2732dc	0.040819988
143	0x3e2a1de8	0.16612971

mixlayers.2.op.2.weight f4 [16, 16, 1, 1]
0	0x3d4fd250	0.05073768
1	0x3e7b1357	0.24519096
2	0xbd6d0e45	-0.057874937
3	0x3d0c2a03	0.034219753
4	0xbccfaf26	-0.025352072
5	0x3e1d8a49	0.15384783
6	0xbdc93717	-0.09824961
7	0xbd9c88cf	-0.07643282
8	0x3d3ebbf8	0.04656598
9	0xbd20a27e	-0.039217465
10	0xbde036cd	-0.109479524
11	0x3da5e600	0.0810051
12	0x3d223994	0.039605692
13	0x3d63ffd6	0.055663906
14	0xbc81581f	-0.01578909
15	0x3ca18217	0.019715352
16	0x3d155edb	0.036467414
17	0x3e1c2395	0.15247948
18	0xbdb53d78	-0.08849615
19	0x3e19f64b	0.1503536
20	0x3c874333	0.016511535
21	0x3d5f861b	0.054571252
22	0xbe110696	-0.14162669
23	0xbe3e5354	-0.18586475
24	0x3d33f15d	0.043931354
25	0xbdd13126	-0.102144524
26	0xbe141081	-0.1445942
27	0x3e1040c6	0.14087209
28	0xbce7deaf	-0.028304426
29	0xbe5d6fea	-0.21624723
30	0x3cacaed9	0.021079468
31	0xbddc6f60	-0.107634306
32	0xbcc2a6f5	-0.023761252
33	0xbd76a1d7	-0.060212936
34	0x3d9e611a	0.077333644
35	0x3bc7855e	0.0060888967
36	0x3d8e7908	0.06956679
37	0x3c138e3f	0.009006082
38	0xbd294df5	-0.04133411
39	0x3d762c22	0.060100682
40	0xbdbdf11b	-0.09274503
41	0x3d6a8026	0.057251118
42	0x3e0e68d5	0.13907178
43	0x3d901bc1	0.07036544
44	0xbc9303d6	-0.017946165
45	0x3db37b92	0.087638035
46	0xbcb29433	-0.021799183
47	0x3d62bb01	0.055354122
48	0xbd7e8ca9	-0.062145863
49	0xbbcdaed8	-0.0062769465
50	0x3e400ba1	0.18754436
51	0xbd87d1f6	-0.06631844
52	0x3ca13a8d	0.01968124
53	0xbd6fc30c	-0.05853562
54	0x3ddf4d0c	0.109033674
55	0x3ddfd579	0.109293886
56	0x3d933849	0.0718847
57	0x3df26926	0.11836462
58	0x3d89452e	0.06702648
59	0x3dbced22	0.09224917
60	0xbdc53154	-0.09628549
61	0xbcfa0fe1	-0.03052515
62	0x3ab0bd5c	0.0013484168
63	0x39ed5376	0.00045266346
64	0xbe77d991	-0.24204089
65	0xbd9116e7	-0.070844464
66	0xbc680373	-0.014160979
67	0xbbe19946	-0.0068847267
68	0xbd6ae08d	-0.057343055
69	0xbdc5155f	-0.09623217
70	0x3d16d84a	0.036827363
71	0xbda8c618	-0.082409084
72	0x3e682b93	0.22672872
73	0xbdec7d26	-0.11547308
74	0xbdc5b8f3	-0.09654417
75	0x3dc76257	0.09735554
76	0xbd13b43b	-0.036060553
77	0xbbd3f3a5	-0.0064682537
78	0x3d939fb0	0.07208192
79	0xbd980ad4	-0.0742394
80	0x3df6628f	0.12030517
81	0x3b847c6e	0.0040431535
82	0xbd10d4a8	-0.035359055
83	0xbd85bf14	-0.06530586
84	0x3cb4dc7e	0.022077795
85	0x3e1e957e	0.15486714
86	0xbd23f816	-0.040031515
87	0x3e29a2fd	0.16566081
88	0x3e77c704	0.24197012
89	0x3e0b2994	0.1359008
90	0x3da0a3ed	0.07843766
91	0xbd885499	-0.06656761
92	0x3cf09255	0.029366652
93	0x3ca9c9da	0.020726133
94	0xbd3d83e3	-0.046268355
95	0xbd6ff221	-0.05858052
96	0x3c8624a0	0.016374886
97	0xbe32f262	-0.17475274
98	0x3cd97b92	0.02654818
99	0x3c60a58d	0.013711345
100	0x3c788994	0.01516952
101	0xbe4b5d19	-0.19859733
102	0x3dc037c9	0.0938564
103	0xbbf501f3	-0.007477039
104	0xbb987c18	-0.004653465
105	0x3db18a2b	0.086689316
106	0x3caae29b	0.020860007
107	0xbc15881a	-0.009126687
108	0xbd373736	-0.044730388
109	0x3b736d46	0.003714399
110	0xbd069c4a	-0.032863893
111	0x3d225b5a	0.0396379
112	0x3dc648cb	0.09681853
113	0x3dd0ad0d	0.10189257
114	0x3e17b78e	0.14816114
115	0x3e1579c6	0.14597234
116	0xbe1fe222	-0.15613607
117	0x3cbf2fde	0.023338255
118	0x3e393d50	0.18089795
119	0x3e85b59c	0.2611512
120	0x3dc6a350	0.09699118
121	0xbd279dcf	-0.040921982
122	0xbd6e78d8	-0.058220714
123	0xbded8c51	-0.11599029
124	0x3e04f36b	0.12983482
125	0xbc489a5b	-0.012243832
126	0xbd10f5b3	-0.035390567
127	0xbde8a768	-0.11360055
128	0x3dcf22ab	0.10114034
129	0xbdb630e6	-0.088960454
130	0xbdbf0d84	-0.0932875
131	0x3d1049a0	0.035226464
132	0xbdcbc03f	-0.099487774
133	0xbe83b1ed	-0.25721684
134	0xbbe1e5b2	-0.006893837
135	0xbcb99db4	-0.022658207
136	0x3e0ba2a2	0.13636258
137	0xbc1e600e	-0.009666456
138	0xbd707586	-0.05870583
139	0x3db2384e	0.087021455
140	0xbdef675f	-0.11689638
141	0x3cac7548	0.021052018
142	0x3da733f2	0.08164205
143	0xbdcf9d28	-0.10137397
144	0xbc0b99c8	-0.008520551
145	0xbd73cb7a	-0.059520222
146	0x3dcef179	0.10104651
147	0x3da91132	0.08255233
148	0xbb80e930	-0.003934048
149	0xbb2fdb4a	-0.0026833587
150	0xbc390e58	-0.011294924
151	0x3d902d0f	0.07039844
152	0xbd12fd33	-0.035886
153	0xbd44b87a	-0.048027493
154	0x3d73e74d	0.059546757
155	0xbc350b45	-0.01105005
156	0x3c514b2d	0.012774271
157	0x3d7125af	0.05887383
158	0x3de44076	0.111451074
159	0x3cf8aa51	0.03035465
160	0x3e5f845c	0.21827835
161	0x3e1d0798	0.15334928
162	0xbd3b464c	-0.045721337
163	0xbd219284	-0.03944637
164	0xbdb9d11f	-0.0907309
165	0x3dc0d517	0.09415644
166	0xbe2494c0	-0.16072369
167	0x3e04f800	0.1298523
168	0x3c9f4fc4	0.019447215
169	0xbc8ce7b3	-0.017200327
170	0x3c15838e	0.009125603
171	0x3df0f4ee	0.11765467
172	0x3d60eb69	0.054912005
173	0x3bfcf53f	0.0077196653
174	0x3d3ad979	0.045617554
175	0xbd4010d9	-0.046891067
176	0x3dd079ce	0.101794824
177	0x3c2cfc4c	0.010558199
178	0xbc827572	-0.015925143
179	0xbda0d1f7	-0.078525476
180	0xbd63fd1e	-0.055661313
181	0x3c95f3bb	0.018304696
182	0xbdaf6d1d	-0.085657336
183	0x3cf7ae79	0.030234562
184	0x3ddd11f3	0.10794439
185	0xbd2f6954	-0.042825058
186	0x3e1ccc26	0.15312251
187	0xbdfad65a	-0.122479156
188	0xbda73db1	-0.081660636
189	0x3d9cfb7f	0.076651566
190	0x3e061c85	0.13096817
191	0xbd7e54d1	-0.062092606
192	0xbd1ebb93	-0.038753103
193	0xbdf544aa	-0.11975987
194	0x3daa1711	0.08305181
195	0xbda215e1	-0.07914329
196	0x3cec84ab	0.028871855
197	0x3d228d69	0.03968564
198	0xbd6741a5	-0.056459088
199	0x3e15cec7	0.1462966
200	0x3d7a2438	0.061069697
201	0x3c9dc603	0.019259458
202	0x3e6b2ff0	0.22967505
203	0x3d47aa3d	0.048746336
204	0xbd216d36	-0.039410792
205	0x3e206c4d	0.15666313
206	0x3dcc42b4	0.0997366
207	0x3d14de16	0.03634461
208	0xbd603e33	-0.054746818
209	0xbd01240f	-0.03152853
210	0xbe21d87d	-0.1580524
211	0x3d457c1c	0.048214063
212	0xbd748fbf	-0.0597074
213	0x3b3ae97a	0.002852051
214	0xbd954795	-0.07289044
215	0xbe8601ac	-0.2617315
216	0xbc45c65d	-0.012071219
217	0xbd1a5524	-0.037678853
218	0xbc33f664	-0.010984037
219	0xbd810cf5	-0.063012995
220	0x3d4df799	0.050284956
221	0x3d4f8c07	0.05067065
222	0xbd342ef4	-0.04399009
223	0xbdf0f03d	-0.11764572
224	0xbe7c1448	-0.24617112
225	0xbc63908d	-0.013889444
226	0xbcbb5f01	-0.02287245
227	0xbc1c012a	-0.009521762
228	0xbdfc5327	-0.123205476
229	0xbd1a7e86	-0.03771832
230	0x3e046e90	0.12932801
231	0xbd51ad25	-0.051190514
232	0xbc9a99fe	-0.018872257
233	0xbd040360	-0.03222978
234	0x3d74875d	0.059699405
235	0x3dbed5fc	0.09318158
236	0xbe1472e9	-0.1449696
237	0x3d7db8c4	0.061943784
238	0x3d4d88f6	0.050179444
239	0xbd66a91d	-0.056313623
240	0x3ddb7f27	0.10717612
241	0x3caedd04	0.021345623
242	0xbe01bc1f	-0.12669419
243	0x3c60a8f9	0.013712161
244	0xbe066e05	-0.13127907
245	0x3d176465	0.036960978
246	0xbdfa38aa	-0.12217839
247	0x3d8eb3d7	0.069678955
248	0xbd0bac55	-0.034099896
249	0xbc1a16d1	-0.009404854
250	0xbdb4b721	-0.088239916
251	0xbe03cae9	-0.12870373
252	0x3d919abd	0.07109592
253	0x3cb1e0ce	0.02171364
254	0xbe80b237	-0.25135967
255	0x3dfd7dce	0.12377511

mixlayers.2.op.3.weight f4 [16]
0	0x3e999ce9	0.30002525
1	0x3eaf5de6	0.34251326
2	0x3e71099e	0.23538825
3	0x3e9161d3	0.28394946
4	0x3e85e424	0.2615062
5	0x3e6bd8cc	0.2303192
6	0x3e7f56db	0.24935476
7	0x3e91ecf1	0.28501084
8	0x3e807ffc	0.25097644
9	0x3e70bf97	0.23510586
10	0x3e803bad	0.2504553
11	0x3e72b0e2	0.23700288
12	0x3e721599	0.23641051
13	0x3ea8bb2d	0.32955304
14	0x3e7dab13	0.24772291
15	0x3e85985e	0.2609281

mixlayers.2.op.3.bias f4 [16]
0	0xbda530e0	-0.08065963
1	0x3d67fa9a	0.056635477
2	0xbcf7af7c	-0.030235045
3	0x3b84f84c	0.0040579196
4	0x3de6c4aa	0.112679794
5	0x3d2ca93d	0.042153586
6	0xbd99e767	-0.075148396
7	0xbdaa4041	-0.08313037
8	0x3d805275	0.062657274
9	0xbb868af3	-0.0041059195
10	0x3dc03752	0.093855515
11	0xbbcf9aae	-0.006335578
12	0xbd0ba0a0	-0.03408873
13	0xbd63c622	-0.055608876
14	0x3e263403	0.16230778
15	0x3d236994	0.03989561

mixlayers.2.op.3.running_mean f4 [16]
0	0xbcd04caf	-0.02542719
1	0xbd33fb3c	-0.043940768
2	0x3c6989b1	0.01425402
3	0x3ceae846	0.02867521
4	0x3b7cbfc2	0.0038566445
5	0xb91994dd	-0.00014646673
6	0x3bd48588	0.0064856447
7	0x3c4f1728	0.012639798
8	0xbcd1dfe2	-0.025619451
9	0x3c085dd1	0.008323149
10	0xbcdd0045	-0.026977668
11	0xbae25be0	-0.0017269813
12	0x3cc119cd	0.023571873
13	0xbc9d8622	-0.019228999
14	0x3cfa28a5	0.030536959
15	0xbc3e9032	-0.0116310585

mixlayers.2.op.3.running_var f4 [16]
0	0x3a97cc81	0.0011581333
1	0x3b586e2d	0.0033024654
2	0x3a2f33fe	0.00066834677
3	0x3a67e0c3	0.0008845443
4	0x3b205797	0.002446627
5	0x3b04f7c5	0.0020289284
6	0x3a3a6753	0.00071107334
7	0x3aef4f28	0.0018257843
8	0x3a2b95c4	0.0006545449
9	0x39831b6e	0.00025006704
10	0x3a9a4910	0.0011771042
11	0x3a1cc6e2	0.00059805636
12	0x3ae02049	0.0017099465
13	0x3ac168c2	0.0014755952
14	0x3a8fb2fc	0.0010963376
15	0x3aea3c17	0.0017870691

mixlayers.3.op.1.weight f4 [16, 1, 3, 3]
0	0xbd91d6dd	-0.0712106
1	0xbd7a58c2	-0.061119802
2	0xbd21ca24	-0.039499417
3	0xbe378e05	-0.1792527
4	0xbe0b0429	-0.13575806
5	0xbd9f5e6f	-0.07781684
6	0xbe28e862	-0.16494897
7	0xbd052583	-0.032506477
8	0x3d3a3ece	0.04547005
9	0x3de32730	0.11091459
10	0x3e284b21	0.1643491
11	0xbd296eec	-0.04136555
12	0x3d838137	0.0642113
13	0x3e8d245e	0.27566808
14	0x3d864c6e	0.065575466
15	0xbcccf3bd	-0.025018567
16	0x3e0671ab	0.13129298
17	0x3e092a92	0.13395146
18	0xbddaa19a	-0.10675354
19	0xbd2dd40b	-0.042438548
20	0xbcddb4cd	-0.027063752
21	0xbe53589c	-0.2063927
22	0xbbd93ef1	-0.0066298177
23	0x3d639c93	0.055569243
24	0xbd6db5cf	-0.058034714
25	0xbd573d7b	-0.052548867
26	0xbcec16b7	-0.028819425
27	0xbd820f28	-0.06350547
28	0x3cba25e3	0.022723144
29	0x3e6b3fd7	0.22973572
30	0xbe2f073a	-0.170926
31	0xbd6abdf0	-0.057310045
32	0x3d8d540a	0.06900795
33	0xbe291d8c	-0.16515177
34	0xbda54a0e	-0.080707654
35	0x3dc05fa7	0.09393244
36	0x3d81d521	0.06339479
37	0x3e474f92	0.19463947
38	0x3e3e687c	0.18594545
39	0x3d944eb7	0.07241576
40	0x3e362baa	0.17790094
41	0x3df49de2	0.11944176
42	0xbd86164b	-0.06547221
43	0xbd3b2600	-0.045690536
44	0x3d11537f	0.03548002
45	0xbc9eaae1	-0.01936859
46	0x3d41439d	0.04718362
47	0xbd80a574	-0.06281558
48	0x3c34e9d7	0.01104208
49	0x3e404f74	0.18780309
50	0x3de9bf4a	0.114134386
51	0x3d8b0510	0.06788075
52	0x3e21ac55	0.15788396
53	0x3e17690e	0.14786169
54	0xbdd4aff0	-0.1038512
55	0xbdc4f858	-0.0961768
56	0xbdb26ec2	-0.087125316
57	0xbd16d230	-0.036821544
58	0xbd840854	-0.06446901
59	0xbe0a3b1d	-0.13499112
60	0x3d2fe09d	0.042938817
61	0xbdc30d7a	-0.09524055
62	0xbdcc2c1e	-0.09969352
63	0xbe1e469b	-0.15456621
64	0xbe1c7b73	-0.15281467
65	0xbe248f08	-0.16070187
66	0xbe36376a	-0.17794576
67	0xbdc97276	-0.09836285
68	0x3d40f84c	0.047111794
69	0xbd7a021d	-0.06103717
70	0xbd917f89	-0.071044035
71	0x3d285625	0.04109778
72	0xbd960194	-0.0732452
73	0xbbc521dc	-0.0060159992
74	0xbd12a205	-0.035799045
75	0xbe001d63	-0.1251121
76	0xbdd225c3	-0.10261109
77	0xbcd326b3	-0.02577529
78	0xbdd8411a	-0.10559292
79	0xbe0b8422	-0.13624623
80	0xbd711846	-0.05886104
81	0xbd243a80	-0.040094852
82	0xbe33be57	-0.17553078
83	0xbd1f219c	-0.03885041
84	0xbccc8197	-0.024964137
85	0xbcf8db82	-0.030378107
86	0xbac49827	-0.0014998958
87	0x3dfdf41c	0.12400076
88	0x3d8359fe	0.06413649
89	0x3d514204	0.051088348
90	0xbe20db99	-0.1570877
91	0xbb92ac74	-0.0044761244
92	0x3e2017e8	0.1563412
93	0xbdfe31e1	-0.124118574
94	0x3deb36c0	0.11485052
95	0x3e61fa58	0.22068155
96	0xbdfe02fb	-0.12402912
97	0x3d6d7fb5	0.05798312
98	0x3d3e9dfb	0.04653738
99	0xbd8caff7	-0.068695
100	0xbe468f19	-0.19390525
101	0xbe09cb54	-0.1345647
102	0xbde0fb06	-0.10985379
103	0xbb9c3b5d	-0.004767819
104	0x3c70f429	0.01470665
105	0x3c465bc6	0.012106841
106	0x3d016e31	0.031599227
107	0x3d890bc3	0.066916965
108	0x3ba443a4	0.005012946
109	0xbdfbea72	-0.12300576
110	0xbe3309a3	-0.17484145
111	0xbdbb67c3	-0.0915065
112	0xbe0781a7	-0.13233052
113	0xbdfb57e8	-0.12272626
114	0xbd8a45bd	-0.06751583
115	0xbd8c55c7	-0.06852298
116	0xbc89835d	-0.016786272
117	0xbd349779	-0.044089768
118	0xbd33081d	-0.04370891
119	0x3c80a512	0.015703712
120	0xbe1e59ef	-0.15463994
121	0xbe010eac	-0.12603253
122	0xbe37e2fd	-0.17957683
123	0xbe14c10e	-0.1452677
124	0xbe132123	-0.1436811
125	0x3bad4d91	0.0052887877
126	0x3d4ea83d	0.050453413
127	0x3ddf4334	0.1090149
128	0xbcf63a7f	-0.03005719
129	0x3e4eac75	0.20182975
130	0x3d761b74	0.060084775
131	0xbdb1fd42	-0.08690883
132	0x3e08a055	0.13342412
133	0x3d1588bc	0.036507353
134	0xbe864dfa	-0.26231366
135	0x3de50a99	0.11183662
136	0x3e68a5c5	0.22719486
137	0x3e405fd9	0.18786563
138	0xba9ffa21	-0.0012205282
139	0x3dcc80d4	0.099855095
140	0x3dbe9e6c	0.0930756
141	0xbdae26fe	-0.08503531
142	0x3c97cdc2	0.01853073
143	0x3c87bb3a	0.016568769

mixlayers.3.op.2.weight f4 [32, 16, 1, 1]
0	0xbe0dda83	-0.13852887
1	0x3e65d03c	0.22442716
2	0x3d37d472	0.044880338
3	0xbc123c7c	-0.008925553
4	0xbcad6c15	-0.021169702
5	0x3d8ad852	0.06779541
6	0x3bb847fc	0.0056238156
7	0x3d9e94d3	0.0774323
8	0x3cc61bfd	0.024183268
9	0x3c3569b0	0.011072561
10	0x3e147897	0.14499126
11	0xba3b0fb0	-0.00071358215
12	0x3c86a061	0.016433896
13	0xbca29a53	-0.019848978
14	0x3d0aa4f6	0.033848725
15	0x3dddb318	0.10825175
16	0x3d0244c6	0.03180387
17	0x3c71736f	0.014736994
18	0x3dc37a59	0.0954482
19	0x3d022e85	0.031782646
20	0x3c76ce39	0.015063816
21	0x3c6def10	0.014522329
22	0x3ca66c69	0.020315366
23	0x3dfd45c9	0.12366826
24	0xbc782a53	-0.01514681
25	0xbce7cb98	-0.028295323
26	0x3d3d1a5a	0.04616771
27	0x3dddc117	0.108278446
28	0x3db25e87	0.08709436
29	0xbcd2b143	-0.02571929
30	0x3d5f8a8f	0.0545755
31	0xbe2c4d69	-0.16826405
32	0x3cc15ca3	0.023603743
33	0xba9ffdc4	-0.0012206365
34	0x3dab48f1	0.08363522
35	0xbbdc3e58	-0.006721299
36	0xbde0d2fe	-0.109777436
37	0x3e0091dc	0.12555641
38	0x3d501dfb	0.05080984
39	0xbe270945	-0.1631213
40	0x3dd0e76c	0.1020039
41	0xbc86e1ab	-0.016465029
42	0x3d12470c	0.035712287
43	0x3d339a1d	0.043848146
44	0x3ddcae8b	0.10775479
45	0x3c98d71c	0.01865726
46	0x3d1b28f8	0.037880868
47	0x3d20245c	0.039097175
48	0x3d8eb9c6	0.06969027
49	0xbe13afc9	-0.14422525
50	0x3e041447	0.1289836
51	0x3de792c1	0.11307288
52	0x3d647ff6	0.055786096
53	0x3b5fa884	0.0034127543
54	0x3d3f36c0	0.046683073
55	0x3c957c01	0.018247606
56	0xbd7f19d9	-0.06228051
57	0x3c1b46d1	0.009477333
58	0x3cf3a8c0	0.029743552
59	0x3cbba3e0	0.02290529
60	0x3d69d1f9	0.05708501
61	0xbdeda216	-0.11603181
62	0x3de1b08c	0.11020002
63	0xbcca6283	-0.024705177
64	0x3d8edf88	0.06976229
65	0xbcf60359	-0.030030893
66	0x3c0c7921	0.008573801
67	0xbd68e6f6	-0.056860887
68	0xbbf5dca6	-0.00750311
69	0xbbb5436d	-0.0055317194
70	0xbd2b6e3a	-0.041853167
71	0xbe364454	-0.17799503
72	0xbd450885	-0.048103828
73	0xbd82099c	-0.06349489
74	0xbd40d6df	-0.047079917
75	0xbddf4b7c	-0.109030694
76	0x3d2c8321	0.04211724
77	0xbe031a63	-0.12803034
78	0xbd0c674f	-0.03427821
79	0x3d35186c	0.044212744
80	0x3debb39c	0.11508867
81	0xbe160b4f	-0.14652751
82	0x3d0bb073	0.034103822
83	0x3dbe7d4e	0.09301244
84	0x3b93f1db	0.0045149154
85	0x3e11832e	0.14210197
86	0x3d8263e2	0.063667074
87	0xbd300b0b	-0.04297928
88	0x3d87b1ec	0.06625733
89	0x3ddfa3b2	0.10919894
90	0x3dea0e80	0.11428547
91	0xbe2d1a74	-0.16904622
92	0xbd35ddcf	-0.044400986
93	0x3d8ed799	0.06974716
94	0x3dab9017	0.08377092
95	0x3da6d803	0.0814667
96	0xbda08ad8	-0.07838982
97	0x3ddf83bf	0.109138004
98	0xbc3f2d99	-0.011668586
99	0xbde9cc78	-0.114159524
100	0xbd822721	-0.063551195
101	0x3d948792	0.072524205
102	0x3d933c40	0.07189226
103	0x3d807eae	0.06274162
104	0x3d3769af	0.044778522
105	0x3deda569	0.11603815
106	0x3d98be50	0.07458174
107	0x3d90eaf4	0.07076064
108	0x3de0ec6e	0.109825954
109	0xbe01d5e0	-0.12679243
110	0x3d378846	0.044807695
111	0x3e285088	0.1643697
112	0x3da61355	0.08109156
113	0x3d97b0c2	0.07406761
114	0xbd530d72	-0.051526494
115	0xbdf30831	-0.11866797
116	0xbdbdcbe6	-0.09267406
117	0x3d24481f	0.040107843
118	0x3d6aeca6	0.05735459
119	0x3cb1ff90	0.021728307
120	0x3a61248f	0.00085885165
121	0x3cef5091	0.029213222
122	0x3e23b4ad	0.15986891
123	0x3ba78a0f	0.0051128934
124	0x3bc7837e	0.006088673
125	0xbd5f55d6	-0.05452522
126	0x3e0d610d	0.13806553
127	0x3dd740b7	0.1051039
128	0x3a257c5d	0.0006312782
129	0xbe204a12	-0.15653256
130	0x3c6e9960	0.014562935
131	0xbc87131d	-0.016488606
132	0x3d929067	0.07156449
133	0x3d061631	0.032736007
134	0xbd26d6f5	-0.040732343
135	0xbc9f92fe	-0.019479271
136	0xbd933492	-0.07187761
137	0x3ce48c22	0.027898852
138	0xbda0fef2	-0.07861127
139	0xbccd93a1	-0.025094809
140	0xbbe8eb91	-0.00710816
141	0x3dca5887	0.098801665
142	0xbdc71455	-0.09720675
143	0xbe053d3b	-0.13011639
144	0xbe2bf6f4	-0.16793424
145	0x3e1c3c2a	0.15257326
146	0xbd1c9733	-0.038230132
147	0x3db8549c	0.09000513
148	0xbde3bb9b	-0.11119767
149	0xbe029689	-0.12752737
150	0xbd92161f	-0.071331255
151	0xbe20ed74	-0.15715581
152	0x3e04fea5	0.12987764
153	0xbdc96201	-0.09833146
154	0x3da16c09	0.07881934
155	0xbde37fce	-0.11108361
156	0xbdae0054	-0.08496156
157	0xbd88c2a5	-0.066777505
158	0x3c915018	0.017738387
159	0xbcb4fc87	-0.02209307
160	0xbbd846d9	-0.0066002426
161	0x3daf5bc8	0.08562428
162	0x3d99a1b2	0.07501544
163	0x3d92576d	0.071455814
164	0x3d0f8f7f	0.035048958
165	0xbdcdb000	-0.10043335
166	0x3cacd254	0.021096386
167	0x3d864a85	0.06557182
168	0x3d8b0671	0.06788338
169	0xbdaaa455	-0.08332125
170	0x3dd97258	0.106175125
171	0x3d8c45a1	0.06849218
172	0x3db1bb90	0.08678353
173	0x3dc4a562	0.09601857
174	0x3dc63c1b	0.09679433
175	0xbd86568d	-0.06559477
176	0x3d084bf1	0.03327555
177	0x3d067e85	0.032835502
178	0x3e1d49f2	0.15360239
179	0x3d2ef03a	0.042709567
180	0xbdd5efb7	-0.104461126
181	0xbe0473b1	-0.12934758
182	0x3bf494b8	0.0074640177
183	0x3db2873e	0.08717202
184	0xbe0fc8af	-0.14041398
185	0xbbf7a8c4	-0.00755796
186	0x3e6d4682	0.23171428
187	0xbcdd01ea	-0.026978452
188	0x3dd985e7	0.10621243
189	0x3d8180d3	0.063233994
190	0xbb8cb638	-0.004294183
191	0x3d0292c4	0.031878248
192	0xbd0cfa43	-0.034418356
193	0x3d96659b	0.073435985
194	0xbc857bfd	-0.016294474
195	0x3d24680e	0.040138297
196	0xbc71d44d	-0.014760089
197	0xbd58cda5	-0.052930493
198	0x3dacf48c	0.08445081
199	0x3d9119aa	0.07084973
200	0x3d9924c8	0.074777186
201	0x3d08f2d6	0.03343471
202	0xbcdd3342	-0.02700198
203	0x3c8e1403	0.017343527
204	0x3c000e49	0.007815906
205	0xbc9e9dc3	-0.019362336
206	0xbd799991	-0.060937468
207	0xbe074ae3	-0.13212161
208	0xbda27e7d	-0.07934282
209	0xbcb04d95	-0.021521369
210	0xbdcb8bb5	-0.099387564
211	0x3b1b1e88	0.002366932
212	0x3dcdd555	0.100504555
213	0xbd9f944a	-0.07791956
214	0x3d143dc0	0.036191702
215	0x3e0aba2d	0.13547583
216	0xbce661d9	-0.02812283
217	0xbc8ac9e2	-0.016941968
218	0x3b4ea4ad	0.003153126
219	0xbd630859	-0.055427883
220	0x3d0b8cda	0.034069873
221	0xbe3b2af6	-0.18278107
222	0xbe28f65a	-0.16500226
223	0x3e3afc67	0.18260346
224	0x3ce8f54e	0.028437283
225	0x3e1c4e6e	0.15264294
226	0xbd538204	-0.051637664
227	0xbda8c084	-0.082398444
228	0x3e04d8e8	0.12973368
229	0xbd76ca2c	-0.0602514
230	0xbbf7639f	-0.0075497176
231	0xbd5ea0c4	-0.054352537
232	0xbd950bc7	-0.07277637
233	0x3d148b19	0.036265466
234	0xbc435cea	-0.011924008
235	0xbc4d5991	-0.012533561
236	0xbcca9f6d	-0.024734223
237	0x3a94aebc	0.0011343579
238	0x3df78a29	0.12086899
239	0xbd666be1	-0.056255225
240	0x3d9517f6	0.07279961
241	0xbc1915ab	-0.009343545
242	0x3ad7984f	0.001644859
243	0x3baeb1ab	0.0053312383
244	0x3e322964	0.17398602
245	0x3d9c4bb7	0.07631629
246	0x3c419390	0.011814967
247	0xbd8ed14d	-0.06973515
248	0xbc4878b8	-0.012235813
249	0x3c2d4f65	0.010578011
250	0x3db3c770	0.08778274
251	0x3d8a989d	0.0676739
252	0x3c1a75a6	0.009427464
253	0xbe566676	-0.20937523
254	0x3e269cd2	0.1627076
255	0x3bac7aab	0.0052636466

mixlayers.3.op.3.weight f4 [32]
0	0x3e53d959	0.2068838
1	0x3e82659a	0.2546814
2	0x3e5c6066	0.21521148
3	0x3e6e6fb9	0.23284806
4	0x3e80e2f1	0.25173143
5	0x3e5f8ede	0.21831843
6	0x3e59ecc1	0.2128172
7	0x3e74759e	0.23872992
8	0x3e851f17	0.26000282
9	0x3e70b9ef	0.23508428
10	0x3e811e3b	0.25218377
11	0x3e6db86a	0.2321488
12	0x3e8e2ed7	0.2777011
13	0x3e89917e	0.26868814
14	0x3e88c53a	0.26712972
15	0x3e772168	0.24133837
16	0x3e78e55d	0.24306245
17	0x3e6eb9cd	0.23313065
18	0x3e86fb3c	0.26363552
19	0x3e4392d9	0.19098987
20	0x3e8398a8	0.25702405
21	0x3e8db645	0.27678123
22	0x3e628c3f	0.22123812
23	0x3e5ce618	0.21572149
24	0x3e3b0e1c	0.18267101
25	0x3e8f1609	0.279465
26	0x3e75cfa4	0.2400499
27	0x3e7a038d	0.24415417
28	0x3e61cbb7	0.22050367
29	0x3eaf34bf	0.3421993
30	0x3e6099ef	0.21933721
31	0x3e4be5fd	0.19911952

mixlayers.3.op.3.bias f4 [32]
0	0x3dccc3da	0.09998293
1	0x3e090e64	0.13384396
2	0xbba71752	-0.0050992155
3	0x3dce163d	0.10062835
4	0x3d2399a5	0.03994145
5	0x36d3d7d1	6.3134144e-06
6	0x3d333b64	0.04375781
7	0x3d154ef4	0.03645225
8	0x3dbe376d	0.092879154
9	0xbdab92d4	-0.083776146
10	0x3dfc0277	0.12305158
11	0x3deaff32	0.11474456
12	0x3d8f1b76	0.0698766
13	0xbd0680fd	-0.032837857
14	0x3d680951	0.05664951
15	0x3ca9b317	0.02071528
16	0x3cfd3902	0.030910973
17	0x3d7fddfb	0.062467556
18	0xbd5b50f8	-0.053544015
19	0x3d3e15f2	0.046407647
20	0xbd222127	-0.039582398
21	0x3d1cfde5	0.03832807
22	0x3dbd43c0	0.09241438
23	0xbcf7b59a	-0.030237962
24	0x3dc0db68	0.094168484
25	0x3bd3c5d0	0.00646279
26	0x3c0defe5	0.008663152
27	0xbc1ead0f	-0.009684815
28	0x3ddc6365	0.107611455
29	0x3da49e9b	0.08038064
30	0x3da6678e	0.0812522
31	0x3da290e3	0.07937791

mixlayers.3.op.3.running_mean f4 [32]
0	0x3d32d1ca	0.0436571
1	0xbca2561f	-0.019816456
2	0xbc7bf634	-0.015378524
3	0xbc464485	-0.012101297
4	0x3c806203	0.015671736
5	0xbbf8e07b	-0.0075951195
6	0x3ca8d275	0.020608166
7	0x3c905b45	0.017621646
8	0xbcb34141	-0.021881701
9	0x3c9d3a98	0.019192979
10	0xbc50cd05	-0.012744193
11	0xbc7b3360	-0.015332073
12	0xbc95209c	-0.018204026
13	0x3cbbfb34	0.022946931
14	0x3d3942fb	0.045229893
15	0x3d35d4ca	0.044392385
16	0xbbafe880	-0.0053682923
17	0xbcc33315	-0.023828069
18	0x3c41f1fa	0.011837477
19	0x3c36121f	0.011112719
20	0xbcfdceba	-0.030982364
21	0xbd0636e8	-0.032767206
22	0xbbd47496	-0.0064836247
23	0x3cd75225	0.026284287
24	0xbcb720e6	-0.022354554
25	0xbb3f1c67	-0.0029161216
26	0xbccff12b	-0.025383553
27	0x3c2349c7	0.00996632
28	0xbb387c1d	-0.002815015
29	0xbd069cb1	-0.032864276
30	0xbc774152	-0.015091257
31	0x3cc78087	0.024353279

mixlayers.3.op.3.running_var f4 [32]
0	0x3aa5789f	0.0012624449
1	0x3af44679	0.0018636725
2	0x3a515183	0.00079848635
3	0x3a3d804d	0.0007228896
4	0x3aa42c67	0.001252544
5	0x3acd71c3	0.0015674162
6	0x3aaf9891	0.0013396909
7	0x3a61d732	0.00086151354
8	0x3a519ee1	0.0007996392
9	0x3b11d0d1	0.0022249708
10	0x3adeac58	0.0016988618
11	0x3ad37bc6	0.001613491
12	0x3a258e42	0.00063154486
13	0x3a9d634b	0.0012007741
14	0x3a97377a	0.0011536919
15	0x3aab1ed4	0.0013055452
16	0x3b32cfa4	0.0027284408
17	0x3a5e1bf5	0.0008472794
18	0x3acd915e	0.0015683582
19	0x397d6ca1	0.00024168428
20	0x3a293def	0.0006456067
21	0x3b39fabb	0.0028378207
22	0x3a6323ee	0.0008664717
23	0x3b061c97	0.0020463818
24	0x3b61cc6f	0.0034454127
25	0x3a256bcb	0.0006310313
26	0x3a658e85	0.0008756894
27	0x3a8524ad	0.0010158025
28	0x3ab713bb	0.0013967672
29	0x3ae439f7	0.0017412294
30	0x3b64d8c8	0.003491925
31	0x3aa347d1	0.0012457316
