Train-KMNIST_train-20240327-192114/weights.pt (torch, 183696 bytes, 97 tensors)

stem.0.weight f4 [4, 1, 3, 3]
-0.09910534 -0.0023171091 -0.15906759 -0.084832735 -0.03734083 -0.08479929 0.0001900132 -0.06738839
-0.032902457 -0.14752835 0.29738313 0.23991501 0.10238756 0.44607434 0.0123940725 0.10678333
-0.3771324 -0.23374778 0.14005344 -0.3489915 -0.08956968 0.29816148 -0.33838508 -0.095211975
0.19871531 0.08577578 0.1315779 -0.0735194 -0.08683839 -0.14031257 -0.2094295 -0.27538043
-0.16753128 -0.023933584 0.101848125 0.15709054
00000000: bef7 cabd a4da 17bb 9de2 22be c9bc adbd
00000010: b3f2 18bd 40ab adbd 483e 4739 ed02 8abd
00000020: bac4 06bd ac11 17be 9a42 983e 48ac 753e
00000030: 92b0 d13d db63 e43e 8210 4b3c 38b1 da3d
00000040: 7f17 c1be 945b 6fbe 2b6a 0f3e 04af b2be
00000050: 4f70 b7bd 9fa8 983e cf40 adbe 7ffe c2bd
00000060: 077c 4b3e 36ab af3d 5bbc 063e 5791 96bd
00000070: 53d8 b1bd 19ae 0fbe b074 56be aafe 8cbe
00000080: 528d 2bbe 5d10 c4bc c095 d03d 58dc 203e

stem.1.weight f4 [4]
0.37708378 0.19103754 0.25192964 0.38318104
00000000: 2011 c13e 589f 433e ecfc 803e 4e30 c43e

stem.1.bias f4 [4]
-0.088394746 0.27744648 0.10226589 -0.029284872
00000000: 4e08 b5bd 770d 8e3e c770 d13d d4e6 efbc

stem.1.running_mean f4 [4]
-0.015603268 0.0014914968 0.010932972 -0.012105428
00000000: d9a4 7fbc 547e c33a 3520 333c d855 46bc

stem.1.running_var f4 [4]
0.2073069 0.43513852 0.22659257 0.46505168
00000000: 4348 543e 7aca de3e e207 683e 411b ee3e

mixlayers.0.op.1.weight f4 [4, 1, 3, 3]
-0.054307375 0.04333686 -0.14595945 0.14602062 0.090466045 -0.09181893 0.20113745 0.16506669
-0.09349086 -0.27571452 -0.14220542 0.012565857 0.03811985 0.54058516 -0.03999956 0.30825055
0.14797333 -0.0811099 -0.06811459 0.04997516 0.047460996 -0.009412386 -0.072383896 -0.3081722
0.159558 0.28998974 -0.24866492 -0.16018312 0.040635325 0.15874895 -0.013082656 0.16111553
0.1955686 -0.21481179 -0.0074087675 0.19044982
00000000: 6971 5ebd fe81 313d 6576 15be 6e86 153e
00000010: 4346 b93d 900b bcbd faf6 4d3e 3e07 293e
00000020: 2378 bfbd 742a 8dbe 4c9e 11be 06e1 4d3c
00000030: 8f23 1c3d ca63 0a3f 94d6 23bd 04d3 9d3e
00000040: 5286 173e f21c a6bd aa7f 8bbd c1b2 4c3d
00000050: 7666 423d 6936 1abc 023e 94bd bfc8 9dbe
00000060: 2c63 233e 8979 943e 04a2 7ebe 0b07 24be
00000070: 3a71 263d 168f 223e a358 56bc 78fb 243e
00000080: 2343 483e 9ff7 5bbe 3fc5 f2bb 4705 433e

mixlayers.0.op.2.weight f4 [16, 4, 1, 1]
-0.05888698 0.016780946 0.07843571 0.20925455 -0.062284365 -0.1555461 -0.107593775 -0.016483866
0.17125413 -0.18972822 0.049989842 -0.0559048 -0.059532735 -0.039693262 -0.028628841 0.22724627
0.03476143 0.22358201 -0.03560655 0.066315934 -0.026474316 0.14434841 0.12534752 -0.11117618
-0.07151116 -0.090565845 0.21654157 0.19851835 0.010772758 -0.030940732 -0.28661963 -0.06729517
-0.07462241 0.051211327 -0.08310011 -0.087394245 0.00031044168 -0.03732932 -0.113543026 -0.11416179
0.29019526 -0.08056234 0.19937818 -0.073462896 0.0120098395 -0.257522 0.07841914 0.06928307
-0.08279778 0.14377172 0.06690193 0.007627531 -0.12290844 -0.059121095 -0.10403984 0.033691805
0.058706474 -0.20041384 -0.04014333 0.12940793 -0.048167303 0.1536265 0.050837636 0.04165164
00000000: 7933 71bd 3278 893c e7a2 a03d d346 563e
00000010: e41d 7fbd 7a47 1fbe 205a dcbd 2c09 87bc
00000020: 3e5d 2f3e 1d48 42be 26c2 4c3d 6efc 64bd
00000030: 99d8 73bd 6795 22bd 0887 eabc 3fb3 683e
00000040: 0062 0e3d aff2 643e 2cd8 11bd a6d0 873d
00000050: aae0 d8bc 12d0 133e 1a5b 003e 56b0 e3bd
00000060: 7174 92bd 967a b9bd 13bd 5d3e 6548 4b3e
00000070: 3980 303c 6b77 fdbc cfbf 92be 0dd2 89bd
00000080: a2d3 98bd f8c2 513d 6430 aabd c1fb b2bd
00000090: c7c2 a239 a1e6 18bd 3f89 e8bd a8cd e9bd
000000a0: 7994 943e defd a4bd cb29 4c3e b773 96bd
000000b0: ebc4 443c ecd9 83be 379a a03d 48e4 8d3d
000000c0: e291 a9bd e538 133e e103 893d 5ef0 f93b
000000d0: 6cb7 fbbd f628 72bd d712 d5bd 6b00 0a3d
000000e0: 3376 703d 4939 4dbe 556d 24bd 8383 043e
000000f0: 144b 45bd 4450 1d3e 203b 503d e99a 2a3d

mixlayers.0.op.3.weight f4 [16]
0.2534565 0.22128096 0.30389285 0.2211023 0.20976691 0.17212611 0.28572965 0.23030394
0.19449864 0.17743613 0.30095425 0.2896308 0.17783166 0.17982106 0.2522601 0.19896942
00000000: 0dc5 813e 7a97 623e d897 9b3e a468 623e
00000010: 23cd 563e d441 303e 284b 923e ccd4 6b3e
00000020: a72a 473e d1b1 353e ad16 9a3e 7d4a 943e
00000030: 8119 363e 0323 383e 3c28 813e a4be 4b3e

mixlayers.0.op.3.bias f4 [16]
-0.07287474 0.006718685 0.015988627 0.0074107586 0.026804842 0.084020525 0.10747 -0.08029601
0.047891475 0.047099058 0.06429387 0.09117841 -0.0013413249 0.08418297 0.05447989 -0.08419869
00000000: 5a3f 95bd 6a28 dc3b 95fa 823c f3d5 f23b
00000010: d495 db3c f412 ac3d 3b19 dc3d 3c72 a4bd
00000020: da29 443d f1ea 403d 81ac 833d bfbb ba3d
00000030: 65cf afba 1f68 ac3d 4e26 5f3d 5d70 acbd

mixlayers.0.op.3.running_mean f4 [16]
0.008929908 -0.022372179 -0.026191257 0.0038654013 0.03649875 0.012242057 -0.009925692 -0.0015755893
0.0029831554 -0.00833257 -0.011408744 -0.034726243 0.0173736 -0.007943357 -0.020273464 0.021546425
00000000: c04e 123c dc45 b7bc 0c8f d6bc ac52 7d3b
00000010: b77f 153d e992 483c 5f9f 22bc 0184 ceba
00000020: 0b81 433b 5585 08bc beeb 3abc 1b3d 0ebd
00000030: 1453 8e3c db24 02bc 8914 a6bc 2182 b03c

mixlayers.0.op.3.running_var f4 [16]
0.00015960338 0.0005066478 0.0009708996 0.0002306718 0.0011162449 0.0006125162 0.00095154135 0.00064289407
0.00021994239 0.00012394806 0.0007577296 0.0018639632 0.00046830266 0.00015135191 0.0011178639 0.0004919056
00000000: 355b 2739 8fd0 043a f883 7e3a 7de0 7139
00000010: f74e 923a 4491 203a dc70 793a e487 283a
00000020: 56a0 6639 0ef8 0139 5fa2 463a 3a50 f43a
00000030: 8586 f539 38b4 1e39 4a85 923a 3af3 003a

mixlayers.1.op.1.weight f4 [16, 1, 3, 3]
0.13365066 -0.10512053 -0.12371167 0.009706354 0.04157438 -0.12679167 0.022844562 0.014871388
-0.093235746 -0.02100549 0.036838487 -0.058636528 0.16891867 0.0017974825 -0.033919375 -0.03282757
-0.1674235 0.057314508 0.024172932 -0.112622075 0.08193326 -0.19593486 -0.051627394 0.29621553
-0.059289575 0.04487848 0.003583921 0.065877475 0.09299652 0.03285872 0.12526923 0.053583767
0.013486216 -0.08570871 0.07444854 0.054892596 -0.1485759 0.11132345 -0.0022920382 0.010696634
0.14453422 0.12880345 -0.17764287 0.14776586 0.14461839 0.0033595616 -0.02046048 0.066808216
0.07957691 0.12182556 -0.023107886 -0.2214318 -0.13246962 -0.030996313 0.008277172 -0.10188072
-0.17982563 0.14710869 0.2053387 -0.037311163 0.11017201 0.20508842 -0.07868308 0.077140465
-0.12033539 -0.12170207 -0.014001377 -0.23571818 -0.15699619 0.049871568 0.023601735 0.033933796
0.100276574 0.074535914 -0.014320714 -0.03837821 -0.1480292 -0.022483319 0.12675299 -0.06103721
-0.008636911 -0.03443381 -0.0047127027 -0.06679848 -0.04787781 0.074548334 -0.03860721 -0.030443478
0.17566021 -0.018114462 -0.14819674 -0.15844469 0.05891566 -0.007280523 0.024262788 -0.13310957
0.25064883 0.25609723 -0.100446306 -0.0099321725 0.009969462 0.13091229 0.0016270936 -0.25313878
-0.16578151 0.019955024 -0.20888916 -0.07870518 0.117317356 0.0438163 0.07070169 0.049499497
-0.034377936 -0.0069816303 -0.10763074 -0.16195934 -0.0947137 -0.079349704 0.009308896 -0.08169295
-0.06366139 0.05563291 0.015799861 -0.090070166 0.09561446 -0.056714185 0.003879917 0.11298633
0.0742053 0.024579553 0.15656273 0.14260739 -0.008341015 0.063954815 0.042793944 0.013274953
-0.068107106 -0.10685738 -0.07589463 -0.08787024 0.0077953283 -0.12391625 -0.01192682 -0.06619157
00000000: b8db 083e 6f49 d7bd 8b5c fdbd 6607 1f3c
00000010: e649 2a3d add5 01be 8524 bb3c 1fa7 733c
00000020: 62f2 bebd b513 acbc f4e3 163d db2c 70bd
00000030: 04f9 2c3e 8199 eb3a 0bef 0abd 3476 06bd
00000040: 1171 2bbe 9ec2 6a3d 5006 c63c 67a6 e6bd
00000050: a0cc a73d 26a3 48be 3f77 53bd 90a9 973e
00000060: a0d9 72bd 7fd2 373d 37e0 6a3b c5ea 863d
00000070: f674 be3d dd96 063d 9446 003e a77a 5b3d
00000080: 4af5 5c3c 0c88 afbd 7a78 983d 0fd7 603d
00000090: 4824 18be 8dfd e33d 0536 16bb ef40 2f3c
000000a0: c700 143e 0de5 033e 03e8 35be ef4f 173e
000000b0: d816 143e 172c 5c3b bd9c a7bc bfd2 883d
000000c0: 38f9 a23d ae7f f93d c04c bdbc 05bf 62be
000000d0: 1ea6 07be fbeb fdbc fa9c 073c d7a6 d0bd
000000e0: 3624 38be a9a3 163e 4f44 523e 97d3 18bd
000000f0: dda1 e13d b302 523e 9824 a1bd d2fb 9d3d
00000100: 6772 f6bd ef3e f9bd 0866 65bc 1b60 71be
00000110: 9cc3 20be 2146 4c3d 6d58 c13c 2afe 0a3d
00000120: ce5d cd3d 49a6 983d 6ea1 6abc 7832 1dbd
00000130: f794 17be f02e b8bc 89cb 013e 2702 7abd
00000140: d581 0dbc 770a 0dbd 046d 9abb a4cd 88bd
00000150: 861b 44bd ccac 983d 9822 1ebd 9a64 f9bc
00000160: 45e0 333e c864 94bc e3c0 17be 533f 22be
00000170: 8c51 713d 7491 eebb c1c2 c63c e04d 08be
00000180: 0b55 803e 2d1f 833e cbb6 cdbd 8dba 22bc
00000190: f456 233c df0d 063e 3444 d53a 689b 81be
000001a0: a1c2 29be b878 a33c 0ae7 55be 2e30 a1bd
000001b0: 1544 f03d b878 333d 0ccc 903d fcbf 4a3d
000001c0: e1cf 0cbd 29c6 e4bb 816d dcbd abd8 25be
000001d0: 42f9 c1bd 1982 a2bd 5784 183c a24e a7bd
000001e0: e760 82bd 56df 633d b66e 813c b576 b8bd
000001f0: 84d1 c33d 224d 68bd 3546 7e3b 6165 e73d
00000200: f3f8 973d 0f5b c93c fb51 203e ac07 123e
00000210: c1a8 08bc befa 823d b448 2f3d 307f 593c
00000220: bd7b 8bbd 0bd8 dabd a56e 9bbd 50f5 b3bd
00000230: f46f ff3b cec7 fdbd b568 43bc 728f 87bd

mixlayers.1.op.2.weight f4 [16, 16, 1, 1]
-0.06652962 -0.07543098 -0.11695598 -0.018615853 -0.035281558 0.033131033 0.065794155 -0.16696866
-0.0686877 -0.043091062 0.26200104 0.13552006 0.0605044 -0.03882363 -0.1170791 0.11843157
0.016142346 -0.042693783 0.05854396 0.11874788 -0.008594863 -0.13475242 -0.14775527 0.147938
0.034059063 0.050024968 0.0966517 0.074904226 -0.086481065 0.0044865627 0.17723612 -0.0511884
0.00017559902 -0.007117118 -0.02238436 -0.06329112 -0.053467397 0.0030172435 0.03477564 0.010664224
0.06617404 -0.058182385 -0.049443096 -0.042558942 0.0033008729 -0.098714575 0.023509808 0.01106894
-0.067155376 0.05323852 -0.13828956 -0.0003409576 -0.049965464 -0.15308402 -0.103659175 -0.04830569
0.01640482 -0.030566879 -0.114099436 0.08777987 -0.1509261 -0.024829622 -0.06829897 0.14765917
0.034310993 0.057799175 -0.08400958 -0.0681062 -0.022233356 -0.026994348 0.003223748 -0.07991306
0.03901757 -0.007014084 -0.033977177 -0.022976842 -0.021494748 -0.0102320425 -0.0003307667 -0.03593864
-0.095936924 -0.062090516 -0.101668075 -0.050845537 0.07627988 0.018156283 -0.0807879 -0.07657507
-0.054206874 0.15324521 0.19904423 0.19790462 0.07197158 0.10975692 -0.07521397 0.08146505
0.15818651 -0.053141337 0.20282266 0.01874472 -0.09963045 0.0043692193 0.16588901 0.21358763
0.0537767 0.027937222 -0.024058187 -0.10619587 0.043623418 0.043473758 -0.010276878 0.0018727022
-0.04329971 0.08758701 -0.13231394 -0.094270155 0.0074599884 0.028179439 -0.1381249 -0.05186977
-0.015725179 0.032418914 -0.1750127 0.11254052 0.057593282 -0.009813154 -0.16418383 -0.034609493
0.065369725 -0.055730227 -0.002168597 -0.05567837 -0.026864292 -0.051358428 0.011447347 0.10549881
0.083828695 -0.03516147 0.20373443 0.04687233 0.05114857 -0.029150419 0.021117415 -0.10648883
-0.1176381 0.032610573 0.054952223 -0.0017774248 -0.046143077 -0.10677459 -0.21201207 -0.071982116
-0.076791726 -0.0966008 0.11154141 0.21672499 -0.099220164 0.022547588 -0.0787872 -0.0272279
-0.063246146 0.06277184 -0.09735615 0.03260949 -0.08268337 0.054578792 -0.11009 0.07945436
-0.004189494 0.01062074 0.03804476 0.012409782 -0.030378904 -0.017738933 0.022848627 0.07385372
0.05109123 -0.038274825 -0.061043225 -0.14542983 0.097293414 -0.035059776 0.07907777 -0.061751436
0.027052188 -0.04818447 0.0052358257 0.089524925 0.020379337 0.09107504 -0.15475143 0.037929352
0.0677985 0.15606637 -0.076493785 -0.12675321 -0.31832376 0.025403162 0.045712486 0.0290223
0.10235822 -0.048901577 -0.05073349 0.053537477 0.16455813 -0.03508582 -0.06638093 0.15411839
0.06596786 0.024953121 -0.15102014 -0.0072509088 0.0764019 -0.15832461 -0.059870195 0.12805793
-0.03481713 0.004436477 0.02225517 0.041049723 -0.018382376 0.030318664 -0.01775321 -0.05148859
0.02770716 -0.021729143 0.04863265 2.7289112e-05 0.04276728 -0.05430929 0.09935005 0.060225714
0.009687652 0.029827554 0.00062982674 0.08372891 -0.05492613 0.054546572 -0.08005649 -0.016521951
0.013345889 -0.024065988 -0.09278353 0.011755007 0.024584556 -0.0032355385 0.01750986 0.07607108
-0.037591923 0.02735258 0.046342883 -0.06345624 -0.03697831 -0.016118292 0.080635376 0.08434996
00000000: ae40 88bd 8f7b 9abd 9e86 efbd 4680 98bc
00000010: 6583 10bd 68b4 073d 16bf 863d d5f9 2abe
00000020: 23ac 8cbd 4180 30bd 0025 863e c5c5 0a3e
00000030: 76d3 773d 8705 1fbd 2bc7 efbd 408c f23d
00000040: f43c 843c addf 2ebd cbcb 6f3d 1732 f33d
00000050: 78d1 0cbc 8afc 09be 284d 17be 0f7d 173e
00000060: 8481 0b3d fbe6 4c3d 54f1 c53d 6367 993d
00000070: fc1c b1bd 0404 933b 637d 353e edaa 51bd
00000080: 0121 3839 b736 e9bb 685f b7bc c69e 81bd
00000090: a100 5bbd f2bc 453b e770 0e3d ffb8 2e3c
000000a0: 4186 873d a750 6ebd d884 4abd 4952 2ebd
000000b0: 7553 583b de2a cabd a497 c03c 805a 353c
000000c0: c288 89bd a210 5a3d c79b 0dbe 8ec2 b2b9
000000d0: 96a8 4cbd 0fc2 1cbe 434b d4bd 30dc 45bd
000000e0: 6763 863c 6467 fabc f7ac e9bd efc5 b33d
000000f0: 5f8c 1abe 7e67 cbbc 55e0 8bbd f733 173e
00000100: af89 0c3d d4be 6c3d 370d acbd 437b 8bbd
00000110: ba22 b6bc 4023 ddbc 8445 533b 75a9 a3bd
00000120: e3d0 1f3d 67d6 e5bb a72b 0bbd ee39 bcbc
00000130: c115 b0bc 4ca4 27bc c16a adb9 6534 13bd
00000140: 947a c4bd a052 7ebd 5a37 d0bd 6943 50bd
00000150: a038 9c3d 7cbc 943c 2074 a5bd 64d3 9cbd
00000160: 0708 5ebd 50ec 1c3e 40d2 4b3e 82a7 4a3e
00000170: d665 933d 3cc8 e03d c809 9abd 26d7 a63d
00000180: a5fb 213e bbaa 59bd beb0 4f3e 878e 993c
00000190: 0d0b ccbd ab2b 8f3b cfde 293e b7b6 5a3e
000001a0: f544 5c3d 9adc e43c ad15 c5bc 387d d9bd
000001b0: 78ae 323d 8a11 323d 5a60 28bc 7575 f53a
000001c0: 095b 31bd d160 b33d 4e7d 07be b610 c1bd
000001d0: eb72 f43b 91d8 e63c 9d70 0dbe 6575 54bd
000001e0: 17d2 80bc b2c9 043d 8736 33be a57b e63d
000001f0: efe6 6b3d 5ac7 20bc ce1f 28be afc2 0dbd
00000200: 90e0 853d 6145 64bd 051f 0ebb 010f 64bd
00000210: 8112 dcbc 375d 52bd a78d 3b3c c30f d83d
00000220: 61ae ab3d 7905 10bd c29f 503e 33fd 3f3d
00000230: 2a81 513d dccc eebc 6efe ac3c d116 dabd
00000240: 3fec f0bd aa92 053d 9515 613d 7bf8 e8ba
00000250: 8600 3dbd a3ac dabd b119 59be 5c6b 93bd
00000260: fb44 9dbd a4d6 c5bd d36f e43d 28ed 5d3e
00000270: f133 cbbd b8b5 b83c 2f5b a1bd 0c0d dfbc
00000280: 3287 81bd 868e 803d a962 c7bd 8791 053d
00000290: e655 a9bd 038e 5f3d de76 e1bd f8b8 a23d
000002a0: 0648 89bb 9d02 2e3c d2d4 1b3d 6652 4b3c
000002b0: 2edd f8bc 3d51 91bc 0b2d bb3c 9f40 973d
000002c0: 0a45 513d 10c6 1cbd 7608 7abd 8feb 14be
000002d0: c541 c73d d79a 0fbd 87f3 a13d 13ef 7cbd
000002e0: 8d9c dd3c 145d 45bd 4a91 ab3b d858 b73d
000002f0: 91f2 a63c 8d85 ba3d 2977 1ebe cf5b 1b3d
00000300: f1d9 8a3d ddcf 1f3e c6a8 9cbd 98cb 01be
00000310: 55fb a2be 4b1a d03c 043d 3b3d 2dc0 ed3c
00000320: 30a1 d13d 054d 48bd eccd 4fbd 1d4a 5b3d
00000330: ed81 283e 26b6 0fbd baf2 87bd 36d1 1d3e
00000340: 281a 873d 7d6a cc3c 06a5 1abe 0899 edbb
00000350: 9978 9c3d d91f 22be 733a 75bd 9e21 033e
00000360: 689c 0ebd de5f 913b 7950 b63c c123 283d
00000370: a396 96bc d95e f83c 2e6f 91bc b3e5 52bd
00000380: 20fa e23c 5101 b2bc 0833 473d ecea e437
00000390: be2c 2f3d 6b73 5ebd 0a78 cb3d 3daf 763d
000003a0: f5b8 1e3c ea58 f43c f51a 253a 107a ab3d
000003b0: 39fa 60bd 3a6c 5f3d a8f4 a3bd 0b59 87bc
000003c0: b7a8 5a3c 0926 c5bc 4b05 bebd 1398 403c
000003d0: 8d65 c93c 540b 54bb d770 8f3c 28cb 9b3d
000003e0: fdf9 19bd 8512 e03c 09d2 3d3d 58f5 81bd
000003f0: 9276 17bd 820a 84bc 2924 a53d acbf ac3d

mixlayers.1.op.3.weight f4 [16]
0.25240648 0.23950484 0.22730634 0.26319906 0.19325732 0.18125021 0.24707638 0.21979102
0.2216964 0.23855914 0.2183299 0.20098269 0.30431914 0.21306217 0.19019449 0.20998256
00000000: 6c3b 813e c240 753e fec2 683e 07c2 863e
00000010: 3fe5 453e a899 393e 9701 7d3e e610 613e
00000020: 6204 633e d948 743e e091 5f3e 68ce 4d3e
00000030: b8cf 9b3e f82c 5a3e 58c2 423e ab05 573e

mixlayers.1.op.3.bias f4 [16]
-0.013628806 0.053584695 0.05197235 0.115192465 -0.0072600916 0.14924364 0.1086238 0.07034148
0.03614426 0.09795667 -0.04208667 0.0138679845 0.08646687 0.0050685974 -0.044493087 -0.00088254194
00000000: 5b4b 5fbc a07b 5b3d f5e0 543d 07ea eb3d
00000010: 10e6 edbb 53d3 183e 2876 de3d 320f 903d
00000020: 010c 143d 829d c83d 1263 2cbd 8b36 633c
00000030: 8b15 b13d 7a16 a63b 623e 36bd 635a 67ba

mixlayers.1.op.3.running_mean f4 [16]
-0.018228147 0.0034441582 0.0049143443 -0.020326069 0.0014797538 -0.030462371 0.010191936 -0.03369286
-0.0036648768 -0.03435084 -0.010157177 -0.020385185 -0.027984561 -0.007915436 -0.008317181 0.010922117
00000000: 3253 95bc 63b7 613b 8208 a13b db82 a6bc
00000010: 4cf4 c13a 398c f9bc 14fc 263c 8601 0abd
00000020: 6e2e 70bb 77b3 0cbd 4a6a 26bc d5fe a6bc
00000030: e13f e5bc bfaf 01bc c944 08bc aef2 323c

mixlayers.1.op.3.running_var f4 [16]
0.00088415114 0.0003490374 0.000104084145 0.0008396865 6.22323e-05 0.0010263864 0.0015847652 0.00091428624
0.0002964664 0.0013903726 0.00017969521 0.00046804996 0.0009149812 0.00039215715 0.00012319844 0.00013544297
00000000: 61c6 673a 02ff b639 c047 da38 681e 5c3a
00000010: b682 8238 d087 863a e5b7 cf3a b6ac 6f3a
00000020: 0c6f 9b39 2a3d b63a 916c 3c39 9a64 f539
00000030: 59db 6f3a 719a cd39 d42e 0139 b205 0e39

mixlayers.2.op.1.weight f4 [16, 1, 3, 3]
0.070966065 0.13597667 -0.118595004 0.121720605 -0.03648884 -0.14340447 -0.08648649 -0.19516888
-0.09938803 -0.05589239 -0.028689815 0.16721319 -0.15115845 -0.20417139 0.05903826 0.09140166
-0.076817505 -0.03247354 0.01890392 0.030563522 0.025955742 -0.010349648 0.006551603 0.020311153
-0.14789572 -0.10900177 0.0023286962 -0.19481538 -0.005828832 0.19687265 0.081984654 0.2266625
-0.08104831 -0.018855646 -0.15995987 -0.17758146 0.07591165 0.028909093 0.061398968 -0.057587918
-0.027122231 -0.036084983 -0.084813006 -0.08751565 0.047997396 -0.02598327 0.12947318 0.0815563
-0.20707662 0.05920471 0.11584656 -0.24665557 0.036781438 0.1596803 0.008934581 0.16720745
0.243862 0.030986615 0.13674153 0.09355563 -0.029196505 0.07384982 0.04098165 -0.09661865
-0.15985838 0.17371555 -0.12853912 0.03557598 0.13780227 -0.038280107 0.14900607 0.08611976
-0.050596815 0.20025171 -0.103934586 0.058457382 -0.026586471 -0.15192448 0.005166394 -0.07726423
-0.046780035 -0.1585183 -0.1763058 -0.04354699 0.09243218 0.009703702 -0.11949913 0.23272473
0.20662236 0.12653212 0.013494579 -0.018523026 -0.129456 0.027127722 0.08008439 -0.008097892
0.07197631 0.11004375 0.100039914 -0.008615835 -0.21122953 -0.07717531 -0.048160262 -0.14013185
0.10180181 -0.045481812 -0.020668626 0.048744548 -0.10313755 -0.114201516 -0.012351944 -0.15051208
-0.15911366 -0.048475254 -0.052699517 -0.1113811 0.07337028 0.012632556 -0.06990409 -0.15303981
0.18850037 0.07156434 0.011984958 0.14194763 0.055125475 0.045341704 -0.036886223 0.0027609484
-0.022506397 -0.12164041 -0.10421154 0.010653677 -0.027182905 -0.09655153 0.058519647 0.08539166
0.029300692 0.0065431534 0.11534533 0.052093625 0.038798753 -0.0065322067 -0.076873764 0.04672572
00000000: a856 913d 783d 0b3e f0e1 f2bd a748 f93d
00000010: 5275 15bd 9fd8 12be d41f b1bd 5ada 47be
00000020: f48b cbbd 6bef 64bd e706 ebbc ef39 2b3e
00000030: 48c9 1abe 4e12 51be 1ad2 713d cb30 bb3d
00000040: 7f52 9dbd fa02 05bd 65dc 9a3c 5a60 fa3c
00000050: 23a1 d43c 9291 29bc d4ae d63b 9363 a63c
00000060: fa71 17be 523c dfbd 0a9d 183b af7d 47be
00000070: c9ff bebb fc98 493e 92e7 a73d 371a 683e
00000080: a8fc a5bd 2877 9abc 85cc 23be ead7 35be
00000090: 9177 9b3d c3d2 ec3c 7c7d 7b3d 4fe1 6bbd
000000a0: 712f debc d9cd 13bd 71b2 adbd 683b b3bd
000000b0: eb98 443d deda d4bc 9e94 043e fd06 a73d
000000c0: e50b 54be a380 723d f640 ed3d 4793 7cbe
000000d0: 22a8 163d 3c83 233e 5962 123c 6e38 2b3e
000000e0: f6b6 793e a4d7 fd3c f905 0c3e 189a bf3d
000000f0: 822d efbc 933e 973d 60dc 273d 00e0 c5bd
00000100: eab1 23be 7de2 313e c29f 03be 1eb8 113d
00000110: 0a1c 0d3e 9acb 1cbd 0c95 183e 8f5f b03d
00000120: 9b3e 4fbd c90e 4d3e a8db d4bd 0271 6f3d
00000130: dfcb d9bc 1792 1bbe db4a a93b b53c 9ebd
00000140: 6c9c 3fbd 9f52 22be 8289 34be 545e 32bd
00000150: 154d bd3d 47fc 1e3c f6bb f4bd 644f 6e3e
00000160: d094 533e a391 013e 5e18 5d3c 9abd 97bc
00000170: 1d90 04be f53a de3c 4903 a43d 05ad 04bc
00000180: 5168 933d 9e5e e13d bae1 cc3d 6e29 0dbc
00000190: 8e4c 58be 170e 9ebd b243 45bd b97e 0fbe
000001a0: 787d d03d 234b 3abd 4051 a9bc 5da8 473d
000001b0: c839 d3bd 7ce2 e9bd cf5f 4abc d71f 1abe
000001c0: b1ee 22be fd8d 46bd 73db 57bd c61b e4bd
000001d0: 2843 963d c8f8 4e3c e029 8fbd 78b6 1cbe
000001e0: 3e06 413e 5390 923d 8f5c 443c b85a 113e
000001f0: 40cb 613d 39b8 393d 0216 17bd 07f1 343b
00000200: 565f b8bc 9b1e f9bd dc6c d5bd c38c 2e3c
00000210: afae debc cfbc c5bd 4cb2 6f3d d3e1 ae3d
00000220: 0108 f03c f367 d63b 2c3a ec3d 2060 553d
00000230: 71eb 1e3d 1f0c d6bb fe6f 9dbd 7863 3f3d

mixlayers.2.op.2.weight f4 [16, 16, 1, 1]
-0.0005025834 0.0040123314 -0.039494075 -0.0809567 0.0058381297 -0.07418291 -0.034047604 -0.003731662
-0.02338505 -0.020723365 0.016294448 0.04513348 0.034402408 0.0022958624 0.03865319 -0.0010943159
0.09978931 0.13528363 -0.07446709 0.013918267 0.05553598 0.080409825 -0.113657184 -0.0057473197
-0.023733959 -0.22109355 -0.08606245 0.012457531 -0.13889718 -0.1364941 0.08090871 -0.05001059
-0.03459988 -0.017051166 0.046717763 -0.018843977 0.013859178 -0.07668945 0.021279862 -0.015410122
0.030756915 0.15720752 0.11178678 0.07643695 -0.01669661 0.08650176 0.031792983 -0.03253771
-0.043752056 -0.06367706 0.09501841 -0.04408821 -0.037543017 -0.092985116 0.053809542 0.041137494
0.01775959 0.20341243 0.1122221 0.016347768 0.021975638 -0.08296929 -0.004189182 0.027444553
-0.059762564 -0.113311425 -0.05420563 0.14478524 0.10275042 -0.03256254 -0.08724749 -0.02406953
-0.010547718 -0.20039536 -0.042406254 -0.0126107605 0.11568765 -0.10121839 -0.016023107 -0.11721688
0.098883204 0.00850415 -0.00457802 0.07951604 -0.067340136 -0.05632524 -0.16802898 0.17580977
0.16870753 0.023355434 -0.049659953 -0.11574156 0.10667534 0.0686485 -0.03511285 -0.053015642
-0.113745764 -0.024698643 0.051124334 0.022385756 0.0072525144 -0.014523362 -0.028230341 0.06730294
0.00515281 0.1691 -0.036019817 0.020100944 0.10748947 0.10180181 -0.07509308 -0.03359157
0.1430184 0.024278622 0.07707301 0.08829895 0.0368492 0.04589055 -0.16042039 0.18836214
-0.0031766053 -0.060827002 -0.07942333 -0.06916877 0.15637034 -0.035851203 0.024849543 0.012188454
0.14080526 0.022309663 -0.07705922 0.119167365 0.004132802 -0.1714858 0.03526824 -0.2135443
0.041422755 -0.099104695 0.056852404 -0.038639016 0.0015538296 -0.10399768 -0.10568755 -0.06320799
0.032686558 -0.02468118 -0.0045644967 0.14889023 0.064243004 0.03669864 -0.1673813 0.00018353258
-0.082573555 -0.016389208 -0.067153156 0.011535691 0.23343481 0.13298103 0.00064184284 -0.008725961
-0.031852953 0.07503345 0.037484232 -0.26572767 -0.0032557857 0.046956148 0.081089996 0.039741997
-0.09881431 -0.1113535 -0.034168124 0.13753994 0.106021255 0.093433306 0.084848054 -0.03379147
-0.012163824 0.0059123966 -0.0002563071 -0.066998534 -0.039971076 0.014595538 -0.030503055 -0.0844172
0.08707831 -0.08984948 0.042569995 0.022810066 -0.12688094 -0.024482362 0.07986003 -0.05464267
-0.27503106 -0.0023207148 -0.061488684 -0.059643943 -0.039401747 0.22402123 -0.12547965 0.085951366
0.17321326 -0.042778935 -0.05452024 0.11345407 -0.048230354 -0.07148978 0.07197208 0.03696319
-0.10607222 -0.04185551 -0.0042244517 0.047236692 0.02765091 0.037848208 -0.10883251 -0.16552065
-0.01582729 -0.06519254 -0.07634289 -0.0027672763 0.058902636 0.08367099 -0.10177108 -0.09507778
-0.117468454 -0.1454463 0.048806515 0.19070539 0.038063265 0.0086620925 0.03880093 0.1103103
0.012227318 0.13487442 -0.014989761 0.18454187 0.13171925 -0.040982492 0.050150506 0.042259227
-0.016319292 0.21354876 -0.031346634 -0.06963157 -0.018198378 0.2781931 -0.205265 0.008381738
0.002262443 0.04684134 -0.013747849 -0.15843758 0.03402853 -0.00262734 -0.024608148 -0.050720043
00000000: cdbf 03ba e079 833b 8ac4 21bd a0cc a5bd
00000010: c84d bf3b 36ed 97bd 8075 0bbd e68e 74bb
00000020: 0192 bfbc 0cc4 a9bc ef7b 853c e2dd 383d
00000030: 8ae9 0c3d 2e76 163b cf52 1e3d 266f 8fba
00000040: 565e cc3d cb87 0a3e 3482 98bd 7109 643c
00000050: b279 633d e8ad a43d 19c5 e8bd 0354 bcbb
00000060: b86d c2bc 5966 62be 8341 b0bd ac1a 4c3c
00000070: 103b 0ebe 1cc5 0bbe 77b3 a53d e8d7 4cbd
00000080: 9bb8 0dbd e3ae 8bbc 205b 3f3d af5e 9abc
00000090: 9b11 633c 5c0f 9dbd 1b53 ae3c bd7a 7cbc
000000a0: edf5 fb3c 02fb 203e 78f0 e43d fa8a 9c3d
000000b0: 54c7 88bc d627 b13d 5c39 023d 4346 05bd
000000c0: 5b35 33bd 1e69 82bd 0399 c23d d795 34bd
000000d0: b5c6 19bd fb6e bebd 6567 5c3d ca7f 283d
000000e0: 8f7c 913c 594b 503e b3d4 e53d c1eb 853c
000000f0: 4106 b43c ceeb a9bd 6845 89bb 66d3 e03c
00000100: 97c9 74bd d20f e8bd b906 5ebd 9542 143e
00000110: d06e d23d 4c60 05bd d0ae b2bd 772d c5bc
00000120: 56d0 2cbc 7134 4dbe 2eb2 2dbd 5d9d 4ebc
00000130: a6ed ec3d 964b cfbd e442 83bc 670f f0bd
00000140: 4783 ca3d fe54 0b3c 3703 96bb 4ed9 a23d
00000150: a0e9 89bd 4bb5 66bd ca0f 2cbe 7a07 343e
00000160: abc1 2c3e e553 bf3c 3c68 4bbd e909 edbd
00000170: 9a78 da3d 9697 8c3d 7ed2 0fbd ee26 59bd
00000180: 8af3 e8bd cf54 cabc c067 513d 5562 b73c
00000190: 80a6 ed3b 65f3 6dbc 5143 e7bc 20d6 893d
000001a0: e7d8 a83b 8d28 2d3e 8489 13bd bcaa a43c
000001b0: 7023 dc3d 787d d03d 67ca 99bd 5097 09bd
000001c0: 6a73 123e f6e3 c63c 74d8 9d3d 14d6 b43d
000001d0: 30ef 163d bbf7 3b3d 3e45 24be 01e2 403e
000001e0: 982e 50bb bc25 79bd b3a8 a2bd 5ba8 8dbd
000001f0: 8c1f 203e b6d8 12bd 4591 cb3c 15b2 473c
00000200: 412f 103e c1c2 b63c 39d1 9dbd 050e f43d
00000210: 756c 873b f999 2fbe 6e75 103d 5bab 5abe
00000220: e8aa 293d 67f7 cabd 11de 683d f243 1ebd
00000230: dfa9 cb3a bcfc d4bd b772 d8bd 3173 81bd
00000240: 57e2 053d 3030 cabc c691 95bb ae76 183e
00000250: d691 833d 5051 163d 0166 2bbe a772 4039
00000260: 531c a9bd a942 86bc 9887 89bd 3200 3d3c
00000270: 8909 6f3e 2e2c 083e 5841 283a 55f7 0ebc
00000280: 3e78 02bd 23ab 993d 1189 193d 750d 88be
00000290: 055f 55bb 1755 403d 8312 a63d 81c8 223d
000002a0: 285f cabd 4e0d e4bd e0f3 0bbd 45d7 0c3e
000002b0: ac21 d93d f659 bf3d d1c4 ad3d ed68 0abd
000002c0: c74a 47bc c7bc c13b f560 86b9 8736 89bd
000002d0: b6b8 23bd 2022 6f3c 8be1 f9bc ede2 acbd
000002e0: 1d56 b23d 0103 b8bd e05d 2e3d 2ddc ba3c
000002f0: 14ed 01be 3c8f c8bc a88d a33d fed0 5fbd
00000300: dfd0 8cbe 2217 18bb 8fdb 7bbd 354d 74bd
00000310: ba63 21bd d265 653e bd7d 00be 4507 b03d
00000320: d15e 313e f738 2fbd 9d50 5fbd 9c5a e83d
00000330: 318d 45bd 3c69 92bd 1966 933d b766 173d
00000340: 643c d9bd af70 2bbd 456d 8abb 437b 413d
00000350: 2984 e23c b906 1b3d 94e3 debd 3f7e 29be
00000360: 3ca8 81bc ab83 85bd a959 9cbd 315b 35bb
00000370: e443 713d b25b ab3d 5b6d d0bd 24b8 c2bd
00000380: 4d93 f0bd e0ef 14be 57e9 473d 4648 433e
00000390: 3ae8 1b3d 73eb 0d3c b9ed 1e3d 5eea e13d
000003a0: 1755 483c 851c 0a3e 9d97 75bc 8bf8 3c3e
000003b0: 69e1 063e 42dd 27bd 9e6a 4d3d 0318 2d3d
000003c0: 09b0 85bc 87ac 5a3e 5465 00bd ff9a 8ebd
000003d0: c414 95bc 536f 8e3e fd30 52be 8f53 093c
000003e0: 7f45 143b b4dc 3f3d a83e 61bc 763d 22be
000003f0: 8061 0b3d 732f 2cbb 0797 c9bc d2bf 4fbd

mixlayers.2.op.3.weight f4 [16]
0.18617208 0.2936077 0.24119404 0.25689566 0.26803628 0.2559425 0.22293118 0.22442187
0.23792629 0.23974156 0.23115748 0.28269097 0.27087536 0.2151826 0.2544881 0.2366423
00000000: e5a3 3e3e c053 963e 92fb 763e d487 833e
00000010: 0d3c 893e e50a 833e 1248 643e d9ce 653e
00000020: f3a2 733e d07e 753e 8cb4 6c3e dfbc 903e
00000030: 2db0 8a3e d458 5c3e 444c 823e 5c52 723e

mixlayers.2.op.3.bias f4 [16]
0.008085656 0.065567106 -0.014058362 -0.045186803 -0.15179172 0.008434158 0.077475905 0.028078057
0.08086543 0.056530334 -0.006018848 0.042941216 -0.020791298 0.087595716 -0.08499477 0.044657573
00000000: b379 043c 0c48 863d 0b55 66bc cc15 39bd
00000010: 4a6f 1bbe 6c2f 0a3c b0ab 9e3d f403 e63c
00000020: c69c a53d 5a8c 673d c239 c5bb 21e3 2f3d
00000030: 8352 aabc 6265 b33d bd11 aebd dcea 363d

mixlayers.2.op.3.running_mean f4 [16]
-0.009424085 -0.01357315 0.0059364866 0.009362915 -0.031109216 -0.033528127 -0.00731593 -0.04183148
-0.011583175 -0.04741569 -0.002318451 0.004227272 -0.0040469826 -0.020391004 -0.009430334 -0.021675007
00000000: 7a67 1abc eb61 5ebc dc86 c23b e966 193c
00000010: c1d8 febc ca54 09bd 78ba efbb 7c57 2bbd
00000020: 5bc7 3dbc f436 42bd 27f1 17bb ed84 8a3b
00000030: 8d9c 84bb 090b a7bc b081 1abc c98f b1bc

mixlayers.2.op.3.running_var f4 [16]
7.561967e-05 0.0018409768 0.0006481456 0.0010227293 0.0010235684 0.0011221705 0.00074693625 0.0011471666
0.0011270288 0.0012043333 0.0008030913 0.00033756063 0.0015319617 0.0004594915 0.0008310056 0.0017021125
00000000: 0096 9e38 ee4c f13a 51e8 293a 1a0d 863a
00000010: 4229 863a cb15 933a 0bce 433a 865c 963a
00000020: d0b8 933a b8da 9d3a 8b86 523a 9ffa b039
00000030: 1bcc c83a e8e7 f039 d7d7 593a 6b19 df3a

mixlayers.3.op.1.weight f4 [16, 1, 3, 3]
-0.0018024314 -0.043281544 -0.0067761443 0.054884233 0.08004238 0.023928568 -0.0019327061 -0.09250575
0.03249708 0.12859426 0.08510751 -0.0008429931 0.096658364 0.2076737 0.09115634 -0.073652335
0.10935496 0.04660896 -0.119836144 -0.07809401 0.13058594 -0.18670678 -0.077478416 0.051436175
0.045338545 -0.0033465675 0.0051595108 -0.034247506 -0.032355856 0.074974924 -0.06291416 -0.09119794
-0.13675623 -0.18864387 -0.10631903 -0.05369089 0.071476124 0.1650212 0.12353255 0.084007986
0.11478544 0.11146064 0.015491658 0.06178459 0.107075155 0.023473999 0.006583045 -0.05044527
0.076778725 0.16598561 0.044742 -0.054752346 0.19847661 0.17314725 -0.0390479 -0.09141778
-0.08526085 0.0723619 0.035580378 -0.09423879 0.22122589 0.08863551 0.012067187 -0.054087386
-0.07084935 -0.0014881159 -0.15454006 -0.09213924 0.04514734 -0.18146423 -0.002013126 0.16362637
-0.08281136 -0.025078772 0.02634642 -0.17035988 -0.118543394 -0.016019018 -0.1353142 -0.1603279
0.030214934 0.06963267 -0.18898395 -0.09660676 -0.007908199 -0.10783917 -0.18091153 0.06778095
-0.035534646 -0.070470646 0.026528148 0.098144785 0.06666366 0.043609053 0.11348538 0.13416491
0.10519756 0.06858048 0.000831858 -0.06614227 -0.112481765 -0.079183996 -0.11825638 0.015786674
0.03325744 0.008687859 0.06381879 0.16706517 0.073674425 -0.06577043 -0.18718266 -0.16228749
-0.14184967 -0.09191912 -0.16624784 -0.030972851 0.11687722 0.1529897 0.017445527 -0.08576776
0.008268405 -0.014340609 -0.068607286 -0.15983176 -0.10918361 0.007989035 0.10130215 0.12241316
-0.0039460305 0.1334557 0.11734044 0.11023479 0.053860497 0.1335395 0.0047510057 0.12976526
0.12515032 0.07754389 -0.0013911156 0.18229267 0.16718845 -0.07714472 -0.003738399 0.12764557
00000000: 903f ecba fd47 31bd 6b0a debb 4ace 603d
00000010: 42ed a33d d805 c43c db52 fdba a873 bdbd
00000020: a81b 053d 37ae 033e d94c ae3d 4ffc 5cba
00000030: d2f4 c53d 6aa8 543e 2db0 ba3d 09d7 96bd
00000040: 7ef5 df3d 09e9 3e3d a76c f5bd c1ef 9fbd
00000050: 52b8 053e 1030 3fbe 01ad 9ebd bdae 523d
00000060: e9b4 393d 1652 5bbb 1d11 a93b 1d47 0cbd
00000070: 9387 04bd 748c 993d 24d9 80bd fcc5 babd
00000080: d309 0cbe dc2b 41be cbbd d9bd fbea 5bbd
00000090: 1362 923d 51fb 283e a2fe fc3d 610c ac3d
000000a0: a114 eb3d 7a45 e43d b9d0 7d3c d711 7d3d
000000b0: 384a db3d 8b4c c03c 95b6 d73b b39f 4ebd
000000c0: 2a3e 9d3d 22f8 293e 6343 373d ff43 60bd
000000d0: 743d 4b3e 834d 313e b1f0 1fbd 3f39 bbbd
000000e0: 3e9d aebd 7a32 943d bbbc 113d 4400 c1bd
000000f0: 0a89 623e 8986 b53d 73b5 453c bc8a 5dbd
00000100: 7719 91bd e20c c3ba c03f 1ebe 7fb3 bcbd
00000110: 6bec 383d c2d1 39be a6ee 03bb ac8d 273e
00000120: 0199 a9bd ff71 cdbc 73d4 d73c d272 2ebe
00000130: e1c6 f2bd 513a 83bc ce8f 0abe ff2c 24be
00000140: 4f85 f73c 939b 8e3d 0285 41be c4d9 c5bd
00000150: 6491 01bc c8da dcbd df40 39be bdd0 8a3d
00000160: c78c 11bd ea52 90bd 8f51 d93c 2200 c93d
00000170: f586 883d 689f 323d 066b e83d 8762 093e
00000180: d171 d73d ec73 8c3d 0c11 5a3a 9975 87bd
00000190: d75c e6bd 382b a2bd 6730 f2bd 0e53 813c
000001a0: f438 083d 8657 0e3c 6db3 823d 2213 2b3e
000001b0: 9ee2 963d a6b2 86bd d0ac 3fbe b12e 26be
000001c0: 0a41 11be 1740 bcbd e03c 2abe c7ba fdbc
000001d0: 535d ef3d 55a9 1c3e ece9 8e3c 02a7 afbd
000001e0: 3478 073c e0f4 6abc fa81 8cbd f0aa 23be
000001f0: a89b dfbd 71e4 023c 8077 cf3d c0b3 fa3d
00000200: b44d 81bb 9ca8 083e 2f50 f03d c7c2 e13d
00000210: d39c 5c3d 94be 083e 53ae 9b3b 2fe1 043e
00000220: 6827 003e 55cf 9e3d 1856 b6ba eeaa 3a3e
00000230: 7333 2b3e 0dfe 9dbd edff 74bb 85b5 023e

mixlayers.3.op.2.weight f4 [32, 16, 1, 1]
-0.017505934 0.080509305 -0.11275061 0.028119288 0.05650451 -0.0730237 -0.08037788 0.07025454
0.05511391 0.010932587 -0.018227518 -0.007928491 0.07636057 0.024476372 0.060302306 0.008784401
0.041095886 -0.061618883 0.09636821 0.031207092 -0.051032677 -0.009687653 -0.012355105 0.17268081
-0.053001978 -0.10062539 0.17755872 0.045796663 0.059343435 0.03790045 0.040825233 -0.08296349
0.003021527 -0.023686545 -0.069508985 -0.0036383586 0.09955835 0.06013368 -0.12921216 -0.0045590913
-0.015800029 -0.15116501 0.02327488 0.07294821 0.07348869 -0.10202329 0.21775988 0.029483568
0.051265813 -0.0037200763 0.041946232 0.07538349 -0.021970287 -0.01178845 -0.038276423 0.012463118
0.00907542 0.045251273 -0.0056306655 -0.13483547 0.068390384 0.035465278 -0.017098198 -0.014011862
-0.002346592 -0.06687029 -0.001277358 -0.08752304 -0.0037593471 0.02704257 0.009758663 0.0038722057
-0.18702956 -0.046272088 -0.05614014 -0.04711989 0.009535192 -0.03785203 -0.08280742 -0.024974525
0.023449326 0.10820448 0.04682477 0.08173315 0.14918764 -0.0230544 -0.21067041 0.05706399
0.03784269 -0.10113663 -0.037330862 -0.015509688 0.008587448 0.0052894354 -0.044140205 0.0073915133
-0.038883843 -0.05578901 -0.16060595 -0.11720934 -0.064450644 0.04445504 0.046663065 0.022731608
0.0055191 0.09102893 -0.040809702 -0.009735243 0.007962537 -0.0832 -0.02904526 0.0022071067
0.028115582 0.07653331 0.003629046 0.011863787 -0.11884474 -0.08088051 -0.07626021 0.109709114
-0.07520595 0.058760013 -0.061296232 0.004675866 -0.15098675 -0.0754375 -0.023695504 0.17380026
0.06586282 -0.08370718 0.07015301 0.111079834 -0.016549686 -0.036169317 0.00910181 -0.10069918
-0.13061704 0.00266825 -0.0049356506 -0.028473727 0.10673281 0.06695601 -0.21253955 0.01709658
-0.04829173 -0.06548653 -0.11530881 -0.010404287 -0.023746349 -0.00035435217 -0.06525768 0.016176404
-0.06749097 0.027551575 0.09925064 -0.03370741 -0.012732504 0.0011660458 -0.022210637 0.04376641
0.020748373 0.202846 0.09305015 -0.05213427 0.17139211 -0.18047118 -0.018749313 0.07596729
0.1069135 -0.07963454 -0.15894991 0.05880515 0.12633716 0.018450717 -0.013235603 0.13010356
0.020729804 0.11371482 0.060038686 -0.08108903 0.06082146 -0.029960828 0.06194716 0.0055836537
0.0063025914 0.02529016 0.08600002 -0.08866037 -0.010599081 0.09995632 -0.012666747 0.11375955
-0.020756964 0.0096435435 -0.042062398 -0.061156157 -0.014768468 -0.065944105 0.049564317 0.04695194
0.077210814 0.04001375 -0.0851717 0.004451442 -0.014469902 -0.011376006 0.04671654 -0.042099595
-0.050621763 -0.04467968 -0.056615315 0.025374303 0.06603937 0.03150873 0.06535076 -0.2667858
-0.08366516 -0.08987869 -0.04039275 0.102959864 0.08849237 -0.087996356 -0.08926468 0.0701938
0.030299012 -0.036713485 -0.06252702 -0.08581587 0.029705413 -0.13375677 0.03346065 -0.0058709555
-0.13782685 0.064098604 -0.08146248 -0.04145474 0.05474351 0.100635104 -0.021741005 -0.03094899
0.013785395 0.1081217 -0.0962 0.096142925 0.13606212 0.11732191 -0.06708124 -0.0048255017
0.0016581625 -0.14815988 0.0009882798 0.052026518 0.1939731 -0.12716137 0.063660264 0.09677672
00000000: 9b68 8fbc 10e2 a43d cbe9 e6bd 6c5a e63c
00000010: 4671 673d 738d 95bd 289d a4bd 9de1 8f3d
00000020: 20bf 613d 981e 333c e051 95bc 80e6 01bc
00000030: ee62 9c3d ac82 c83c 8dff 763d 73ec 0f3c
00000040: 2954 283d 1564 7cbd b25c c53d 04a6 ff3c
00000050: a407 51bd f6b8 1ebc 116d 4abc 3dd3 303e
00000060: 9a18 59bd af14 cebd f4d1 353e 4895 3b3d
00000070: 1a12 733d 813d 1b3d 5c38 273d c3e8 a9bd
00000080: d004 463b 490a c2bc ba5a 8ebd 8771 6ebb
00000090: 40e5 cb3d bc4e 763d 3150 04be 6e64 95bb
000000a0: 106f 81bc 00cb 1abe f6aa be3c df65 953d
000000b0: 3d81 963d 96f1 d0bd 72fc 5e3e 8687 f13c
000000c0: 1afc 513d 86cc 73bb d0cf 2b3d a962 9a3d
000000d0: 08fb b3bc 5824 41bc bdc7 1cbd 1b32 4c3c
000000e0: 12b1 143c 6659 393d 7281 b8bb 4f12 0abe
000000f0: 4210 8c3d 0a44 113d 8511 8cbc 0292 65bc
00000100: 48c9 19bb 4af3 88bd 066d a7ba 483f b3bd
00000110: 615f 76bb 6188 dd3c cde2 1f3c d5c4 7d3b
00000120: ad84 3fbe cd87 3dbd 34f3 65bd c900 41bd
00000130: 7e39 1c3c bb0a 1bbd f096 a9bd 6097 ccbc
00000140: cd18 c03c 4f9a dd3d 54cb 3f3d b663 a73d
00000150: a5c4 183e 95dc bcbc fcb9 57be eebb 693d
00000160: f000 1b3d b920 cfbd 3fe8 18bd 591c 7ebc
00000170: 5eb2 0c3c 0053 ad3b 5ccc 34bd 8234 f23b
00000180: aa44 1fbd 0483 64bd e375 24be 730b f0bd
00000190: b3fe 83bd 7d16 363d c521 3f3d a337 ba3c
000001a0: 91d9 b43b 606d ba3d 1328 27bd 9280 1fbc
000001b0: 4d75 023c c364 aabd 53f0 edbc 1ba5 103b
000001c0: a652 e63c 7fbd 9c3d 4ad5 6d3b 5460 423c
000001d0: df64 f3bd aea4 a5bd 502e 9cbd 2caf e03d
000001e0: 9405 9abd 57ae 703d c211 7bbd 0238 993b
000001f0: 459c 1abe fa7e 9abd 131d c2bc b2f8 313e
00000200: 16e3 863d ac6e abbd 62ac 8f3d d37d e33d
00000210: 3593 87bc 4726 14bd c21f 153c 5f3b cebd
00000220: 79c0 05be cedd 2e3b 3dbb a1bb bc41 e9bc
00000230: bb96 da3d 3c20 893d f8a3 59be 200e 8c3c
00000240: 8dcd 45bd cd1d 86bd 0627 ecbd be76 2abc
00000250: b487 c2bc 58c8 b9b9 d2a5 85bd 6184 843c
00000260: b538 8abd d7b3 e13c eb43 cb3d c810 0abd
00000270: fe9b 50bc 01d6 983a 15f3 b5bc 6844 333d
00000280: 7ef8 a93c ddb6 4f3e 1491 be3d bf8a 55bd
00000290: 6a81 2f3e 70cd 38be 2998 99bc bd94 9b3d
000002a0: 77f5 da3d 6f17 a3bd c4c3 22be abdd 703d
000002b0: 875e 013e f525 973c 25da 58bc de39 053e
000002c0: 8dd1 a93c 51e3 e83d 20eb 753d 0112 a6bd
000002d0: ec1f 793d 6970 f5bc 4ebc 7d3d 15f7 b63b
000002e0: f885 ce3b 4f2d cf3c c720 b03d 9193 b5bd
000002f0: c5a7 2dbc e6b5 cc3d 3088 4fbc c4fa e83d
00000300: 820a aabc f4ff 1d3c 9f49 2cbd e17e 7abd
00000310: 72f7 71bc b40d 87bd f403 4b3d ad50 403d
00000320: b420 9e3d 75e5 233d 806e aebd 67dd 913b
00000330: 2b13 6dbc 6d62 3abc d859 3f3d a070 2cbd
00000340: c458 4fbd 0a02 37bd 76e5 67bd c5dd cf3c
00000350: a63f 873d 4c0f 013d 9fd6 853d 2698 88be
00000360: a458 abbd 5212 b8bd de72 25bd 9fdc d23d
00000370: 7d3b b53d 6f37 b4bd 67d0 b6bd c4c1 8f3d
00000380: a235 f83c e160 16bd 2b0e 80bd 3bc0 afbd
00000390: c458 f33c 89f7 08be 090e 093d 2561 c0bb
000003a0: 7b22 0dbe 2146 833d cdd5 a6bd 72cc 29bd
000003b0: bb3a 603d c719 ce3d 311a b2bc bc88 fdbc
000003c0: 23dc 613c e96e dd3d 8104 c5bd 95e6 c43d
000003d0: de53 0b3e 7846 f03d e461 89bd 3e1f 9ebb
000003e0: b356 d93a 39b7 17be 2b89 813a c219 553d
000003f0: e2a0 463e 9736 02be 5060 823d df32 c63d

mixlayers.3.op.3.weight f4 [32]
0.24114475 0.26318315 0.22582155 0.26812318 0.2172441 0.24856175 0.2541817 0.2150766
0.22307368 0.23360851 0.21288234 0.21719605 0.24420857 0.19309016 0.25257298 0.18864603
0.22471394 0.18259327 0.19684514 0.21424893 0.22780882 0.20672108 0.26456422 0.23600529
0.24449798 0.22837684 0.19657366 0.24979499 0.27832577 0.26306567 0.20690517 0.22248554
00000000: a6ee 763e f1bf 863e c43d 673e 7147 893e
00000010: 3d75 5e3e f986 7e3e 1b24 823e 0a3d 5c3e
00000020: 6d6d 643e 1237 6f3e d4fd 593e a468 5e3e
00000030: d011 7a3e 6db9 453e 3f51 813e 6d2c 413e
00000040: 691b 663e bbf9 3a3e c691 493e 1264 5b3e
00000050: b746 693e b1ae 533e f674 873e 5fab 713e
00000060: ae5d 7a3e 9edb 693e 9b4a 493e 42ca 7f3e
00000070: b780 8e3e 8bb0 863e f3de 533e 40d3 633e

mixlayers.3.op.3.bias f4 [32]
0.070374526 -0.0580592 -0.030917117 0.032108963 -0.051022023 0.12920001 0.019289916 0.025678124
0.17118153 0.02224102 0.09076343 0.06943037 0.025261115 0.1318986 0.07844419 0.120709844
-0.02764463 0.09443238 0.08565622 -0.007884162 0.095756926 0.02461738 0.024323938 0.04474779
0.022393882 0.054453902 0.018237382 -0.043405596 0.03078028 0.09609784 0.05948192 0.028770817
00000000: 8520 903d 7ccf 6dbd e545 fdbc b084 033d
00000010: 78fc 50bd 024d 043e e305 9e3c ee5a d23c
00000020: 364a 2f3e cd32 b63c 2de2 b93d 8331 8e3d
00000030: 66f0 ce3c 6d10 073e 59a7 a03d b936 f73d
00000040: fe76 e2bc c365 c13d 876c af3d 922c 01bc
00000050: 351c c43d 63aa c93c ff42 c73c 7549 373d
00000060: 6073 b73c 0e0b 5f3d 9066 953c 11ca 31bd
00000070: ed26 fc3c f2ce c43d 50a3 733d c7b0 eb3c

mixlayers.3.op.3.running_mean f4 [32]
-0.004600267 -0.005793777 0.027112165 -0.015866634 0.010395085 0.004650688 -0.0047741216 0.01698607
-0.01741714 0.0059344647 0.0035386924 0.022762395 -0.014405595 0.018331774 -0.009522514 0.031676948
0.015191177 -0.0022010838 -0.014256011 0.011238529 0.0024833386 0.008598284 -0.033674058 0.018549914
-0.0077516614 0.019479344 0.0072731758 0.035808347 -0.02670256 -0.015556525 0.0029439637 0.006382046
00000000: d6bd 96bb b9d9 bdbb 551a de3c befa 81bc
00000010: 2650 2a3c cc64 983b 3c70 9cbb 5f26 8b3c
00000020: 64ae 8ebc e675 c23b 68e9 673b 3478 ba3c
00000030: 7205 6cbc 842c 963c 5204 1cbc b0bf 013d
00000040: 6ae4 783c 0f40 10bb 0b92 69bc cf21 383c
00000050: 82bf 223b d1df 0c3c cfed 09bd fdf5 973c
00000060: a601 febb 2593 9f3c d253 ee3b c6ab 123d
00000070: 54bf dabc cce0 7ebc 84ef 403b 7b20 d13b

mixlayers.3.op.3.running_var f4 [32]
0.00023000504 0.00045247254 0.0016314808 0.00026568424 0.00026601448 0.0011212736 0.00059593015 0.0010097158
0.0010467202 0.00012827381 0.0012231269 0.0005152452 0.0002911768 0.0011671324 0.00104086 0.0016004657
0.0015593076 0.001316181 0.0011816068 0.0007683134 0.0007135748 0.0016727905 0.00065544987 0.0013403688
0.00040354457 0.0021802075 0.00047770664 0.0012524342 0.0013831041 0.0006641373 0.001119159 0.0002977843
00000000: 822d 7139 d639 ed39 69d7 d53a 894b 8b39
00000010: dc77 8b39 b3f7 923a 3238 1c3a 7158 843a
00000020: 1a32 893a 3d81 0639 5451 a03a 8511 073a
00000030: 17a9 9839 77fa 983a 776d 883a b8c6 d13a
00000040: ae61 cc3a b583 ac3a 25e0 9a3a a468 493a
00000050: 320f 3b3a 8941 db3a 7fd2 2b3a 50af af3a
00000060: d692 d339 d0e1 0e3b b374 fa39 b828 a43a
00000070: 4649 b53a 8019 2e3a bfb0 923a ef1f 9c39

mixlayers.4.op.1.weight f4 [32, 1, 3, 3]
-0.13163708 -0.01244548 0.06423754 -0.040486053 0.12563391 -0.0361045 0.027916485 0.109530896
-0.049570464 0.037310068 -0.15775849 -0.20156258 0.06966342 -0.014508289 -0.095161796 0.09064284
0.08225074 -0.011361466 0.011586027 0.12812081 0.06371004 0.15383203 0.12589478 -0.06739034
0.076886006 0.082414515 -0.02171262 -0.16168346 -0.1315942 0.048513204 -0.019530747 0.10121648
0.08430451 -0.025203664 0.061092228 -0.083611354 0.091253005 -0.14571455 0.053618845 0.037106864
-0.121181384 -0.005906089 0.08237931 -0.08433334 -0.034001485 0.17017399 0.19255087 -0.11639303
-0.073520064 -0.09972293 0.11418357 -0.14758454 -0.06370353 0.047614906 -0.010202846 -0.048538458
0.20225252 0.022139644 -0.10142351 -0.08404907 0.057567507 0.14980751 0.11553803 0.09213412
0.043776665 0.03574698 0.184878 -0.011056357 -0.0691407 0.050214075 -0.20516172 -0.096641205
-0.030371023 -0.008672481 0.047635887 -0.11103983 -0.1747721 -0.13925873 -0.12538016 0.12917818
0.12941366 -0.016038679 0.074534416 0.07454463 0.039462045 0.062438346 -0.10374693 -0.12727268
0.0008693832 -0.023983149 -0.043441135 -0.02425953 0.039927088 -0.17540693 -0.12046697 0.09738255
-0.17656562 -0.0814673 0.004091626 0.097234085 0.020519909 0.13775598 0.07365994 -0.088334404
-0.07163308 0.13485189 0.07779011 -0.035809837 -0.000143577 0.007567406 0.115477085 0.049977314
0.09110913 -0.01609922 0.019302094 -0.075940005 -0.10579645 0.05875844 -0.12250564 -0.048105784
0.14186789 -0.28320736 0.11773785 -0.081475504 0.09490203 0.11962953 0.061997842 -0.020392912
-0.004224823 0.12598136 0.007207758 0.16473565 0.17400333 -0.122078225 0.12536862 -0.05491367
0.14940318 0.117870115 0.06992441 0.17891917 -0.06788805 -0.22170824 -0.18147834 -0.049579524
-0.065413624 0.03606587 -0.17518637 -0.063106276 -0.16060403 -0.078778 -0.16292903 -0.10187068
0.09245681 0.10849282 0.20389406 -0.065444514 -0.045707572 0.02423528 -0.15229091 -0.16804464
-0.09198838 -0.005702144 0.11415606 -0.19954363 -0.034631 -0.1915035 -0.04425756 -0.035798214
-0.06716021 0.27510464 0.0756949 -0.115646504 0.017152976 0.11921789 -0.05345605 0.016541798
-0.084928446 -0.008333241 -0.1635525 -0.14499316 -0.10609564 0.12457278 -0.059996866 -0.030093517
-0.05916354 -0.21065858 0.2072213 -0.03421441 0.086794525 0.18839024 -0.11919469 0.12090155
0.13039507 -0.17893365 -0.14992808 0.073163345 -0.14759068 -0.06847446 -0.10031835 -0.1253334
0.06969568 -0.093157046 -0.07569386 -0.10485647 0.037709318 0.03977696 -0.105472304 0.11723004
0.2001606 0.12971291 -0.021433966 -0.062414948 0.035623636 -0.14423786 -0.2131199 -0.06541515
-0.012308926 0.03818128 -0.11132944 -0.10916869 0.19370243 -0.1325185 -0.07027799 0.09326499
0.106195144 0.23392159 0.04621992 -0.13777447 0.29012772 0.041065298 0.023626618 -0.22886018
0.08751823 0.1422814 -0.043507826 -0.19269884 0.056074683 0.036236178 -0.02105749 0.0006636497
0.0689616 0.09332979 0.09892743 -0.09331275 0.12191544 0.023915024 -0.0048397575 0.14957273
0.056490973 -0.06468943 0.19532941 0.025747875 0.18943104 -0.030798297 0.0074274912 0.053819202
00000000: dfcb 06be 20e8 4bbc f98e 833d b4d4 25bd
00000010: 2da6 003e 50e2 13bd 1db1 e43c bc51 e03d
00000020: 660a 4bbd 71d2 183d 718b 21be 6c66 4ebe
00000030: b2ab 8e3d 2db4 6dbc 30e4 c2bd f4a2 b93d
00000040: 1373 a83d 7125 3abc 52d3 3d3c 1a32 033e
00000050: 697a 823d 2586 1d3e 90ea 003e f203 8abd
00000060: 6976 9d3d f1c8 a83d aade b1bc 5990 25be
00000070: a1c0 06be c8b5 463d f2fe 9fbc 964a cf3d
00000080: d8a7 ac3d ea77 cebc d83b 7a3d 6e3c abbd
00000090: dbe2 ba3d 3236 15be 6f9f 5b3d 5efd 173d
000000a0: f22d f8bd de87 c1bb 7cb6 a83d f5b6 acbd
000000b0: 2445 0bbd 1742 2e3e 0e2c 453e 785f eebd
000000c0: b091 96bd 893b ccbd 13d9 e93d 6720 17be
000000d0: ff76 82bd d907 433d d629 27bc 43d0 46bd
000000e0: 491b 4f3e 335e b53c 21b7 cfbd eb21 acbd
000000f0: e8cb 6b3d 2467 193e 349f ec3d d0b0 bc3d
00000100: 294f 333d 6d6b 123d a950 3d3e b925 35bc
00000110: a499 8dbd 46ad 4d3d ea15 52be d3eb c5bd
00000120: a7cc f8bc 0617 0ebc d91d 433d da68 e3bd
00000130: 75f7 32be d799 0ebe a863 00be 4947 043e
00000140: 0485 043e 8c63 83bc 80a5 983d dbaa 983d
00000150: f4a2 213d 5abf 7f3d 4579 d4bd c553 02be
00000160: 52e7 633a 4f78 c4bc 55ef 31bd ecbb c6bc
00000170: 968a 233d e09d 33be 63b7 f6bd 8170 c73d
00000180: 9ecd 34be 54d8 a6bd 0c13 863b aa22 c73d
00000190: 5e19 a83c e70f 0d3e 06db 963d abe8 b4bd
000001a0: 5db4 92bd 9d16 0a3e 6c50 9f3d 56ad 12bd
000001b0: 288d 16b9 01f8 f73b 407f ec3d 03b5 4c3d
000001c0: 6c97 ba3d 83e2 83bc 6d1f 9e3c 6f86 9bbd
000001d0: cfab d8bd b1ac 703d 3de4 fabd 920a 45bd
000001e0: d145 113e 8e00 91be 8b20 f13d a1dc a6bd
000001f0: ff5b c23d 5400 f53d 73f1 7d3d 090f a7bc
00000200: 6270 8abb 4201 013e 0e2f ec3b 76b0 283e
00000210: ee2d 323e 2604 fabd a260 003e 28ed 60bd
00000220: 26fd 183e e365 f13d 8734 8f3d 9636 373e
00000230: e408 8bbd 7c07 63be 75d5 39be e613 4bbd
00000240: 94f7 85bd ceb9 133d 0e64 33be dd3d 81bd
00000250: 6275 24be 5c56 a1bd ded6 26be 93a1 d0bd
00000260: ff59 bd3d 7c31 de3d 9bc9 503e c607 86bd
00000270: dd37 3bbd 1189 c63c 26f2 1bbe e513 2cbe
00000280: 6764 bcbd 0dd9 babb a7ca e93d 2a55 4cbe
00000290: 3cd9 0dbd 7e19 44be 6a47 35bd 26a1 12bd
000002a0: 4b8b 89bd 84da 8c3e ed05 9b3d 13d8 ecbd
000002b0: 6684 8c3c 8228 f43d bbf4 5abd aa82 873c
000002c0: f7ee adbd 2588 08bc 4e7a 27be 1679 14be
000002d0: ac48 d9bd 0420 ff3d 46bf 75bd ae86 f6bc
000002e0: 7855 72bd e2b6 57be d231 543e 6924 0cbd
000002f0: 54c1 b13d 5fe9 403e 581c f4bd 3b9b f73d
00000300: 4986 053e 623a 37be bf86 19be aad6 953d
00000310: 0322 17be 563c 8cbd b573 cdbd 6657 00be
00000320: 9cbc 8e3d 1fc9 bebd 6205 9bbd fdbe d6bd
00000330: 1675 1a3d 2aed 223d dd01 d8bd 4e16 f03d
00000340: e6f6 4c3e 76d3 043e 4996 afbc d1a6 7fbd
00000350: 17ea 113d 17b3 13be 1a3c 5abe 61f8 85bd
00000360: 61ab 49bc f963 1c3d b000 e4bd d693 dfbd
00000370: ee59 463e eeb2 07be e8ed 8fbd b701 bf3d
00000380: d77c d93d 2489 6f3e 1951 3d3d c014 0dbe
00000390: 9f8b 943e 1634 283d 9c8c c13c 535a 6abe
000003a0: c23c b33d 37b2 113e 4335 32bd d852 45be
000003b0: 91ae 653d 636c 143d c280 acbc c7f8 2d3a
000003c0: bd3b 8d3d b023 bf3d 779a ca3d c11a bfbd
000003d0: cdae f93d 71e9 c33c d496 9ebb 9829 193e
000003e0: 1463 673d e47b 84bd 6f04 483e 35ed d23c
000003f0: 36fa 413e b64c fcbc 5062 f33b 8671 5c3d
