Rubric-Kmnist_without_cutout-20240327-091200/weights.pt (torch, 183696 bytes, 97 tensors)

stem.0.weight f4 [4, 1, 3, 3]
-0.49966785 0.1298133 0.31152532 -0.2567029 0.13194762 0.3222263 -0.003820889 0.10569596
0.50986105 0.082548514 0.02757896 0.33277524 -0.43241835 -0.5805213 0.25224778 -0.19948013
-0.37434933 0.29924572 -0.017597215 -0.13659325 0.28243816 -0.25602728 -0.4039507 -0.010740119
0.2658179 -0.40833136 -0.2708541 0.35591924 0.22191845 0.017516114 0.30228 -0.4196159
-0.46394548 -0.016567983 -0.58420634 -0.101344645
00000000: 77d4 ffbe c7ed 043e 3f80 9f3e 906e 83be
00000010: 471d 073e d8fa a43e e167 7abb 2077 d83d
00000020: 4186 023f 320f a93d 45ed e13c 8461 aa3e
00000030: f065 ddbe 0b9d 14bf 9f26 813e 8544 4cbe
00000040: b7aa bfbe bc36 993e 0928 90bc 1adf 0bbe
00000050: bc9b 903e 0216 83be a0d2 cebe 53f7 2fbc
00000060: 4919 883e cf10 d1be 63ad 8abe 0c3b b63e
00000070: 973e 633e f47d 8f3c 72c4 9a3e e5d7 d6be
00000080: 438a edbe 94b9 87bc 8c8e 15bf c88d cfbd

stem.1.weight f4 [4]
0.5376477 0.6267472 0.90864825 0.7314403
00000000: 48a3 093f 8172 203f 2c9d 683f ac3f 3b3f

stem.1.bias f4 [4]
0.29393297 0.36655843 0.03276546 0.29518545
00000000: 627e 963e 8cad bb3e 1335 063d 8c22 973e

stem.1.running_mean f4 [4]
0.025859216 0.00021636924 -0.017022053 -0.0119952755
00000000: b5d6 d33c 2de1 6239 d571 8bbc d587 44bc

stem.1.running_var f4 [4]
1.1876184 0.94257265 0.87007654 1.1693001
00000000: e103 983f 714c 713f 56bd 5e3f a0ab 953f

mixlayers.0.op.1.weight f4 [4, 1, 3, 3]
0.37530413 -0.0069319336 0.5496727 -0.03890542 -0.33634827 0.36903834 -0.20422596 -0.54197925
0.13683766 -0.28234264 -0.5118817 -0.017699113 -0.030021979 -0.43346342 -0.11174356 0.4508945
0.15573758 -0.104781814 0.24487378 -0.0025024498 0.2620001 -0.15718253 -0.104787186 0.42429605
-0.32162666 -0.40474552 0.09104203 0.41709727 0.39599723 0.09379952 0.3329653 0.36888057
-0.37706852 -0.08271572 0.05105557 0.02968748
00000000: dd27 c03e 4625 e3bb 5ab7 0c3f 4a5b 1fbd
00000010: d735 acbe 98f2 bc3e 9c20 51be 27bf 0abf
00000020: 2c1f 0c3e 378f 90be ae0a 03bf bbfd 90bc
00000030: a7f0 f5bc ebee ddbe cfd9 e4bd a5db e63e
00000040: ac79 1f3e d997 d6bd 31c0 7a3e 2400 24bb
00000050: e124 863e 75f4 20be aa9a d6bd 553d d93e
00000060: 40ac a4be ce3a cfbe 3e74 ba3d c68d d53e
00000070: 26c0 ca3e f619 c03d 6e7a aa3e eadd bc3e
00000080: 200f c1be dc66 a9bd a51f 513d 2833 f33c

mixlayers.0.op.2.weight f4 [16, 4, 1, 1]
-0.08915832 -0.30169427 -0.119038254 -0.18681012 -0.28219724 -0.2203547 -0.27702373 0.28877324
-0.4329587 -0.009066066 -0.24322261 0.12309795 -0.10001002 0.38479805 0.049743153 -0.06313316
0.395076 0.16293508 -0.18384737 0.027701262 -0.095827535 0.3345965 -0.14862664 -0.17214511
-0.254447 0.14692917 0.30525804 -0.4009686 -0.050298233 0.29787037 0.015983334 0.32634845
-0.09457445 0.33340994 0.113588035 -0.07623372 0.26557836 0.16703701 0.4235324 -0.09274169
0.065748274 0.31332764 -0.32439697 -0.038402513 0.38924134 -0.11322361 0.1860755 0.21340284
0.32985523 0.25451702 -0.40769318 -0.44080886 0.06789366 0.16628754 0.29023522 -0.39904323
0.2726264 0.22859396 -0.2325568 0.23400602 -0.092900455 0.075137086 -0.15476666 0.3506389
00000000: a398 b6bd ac77 9abe 54ca f3bd 274b 3fbe
00000010: 287c 90be aaa4 61be 0ed6 8dbe 16da 933e
00000020: c3ac ddbe d689 14bc 590f 79be c71a fc3d
00000030: 0ed2 ccbd 4004 c53e 7abf 4b3d f54b 81bd
00000040: 6747 ca3e 74d8 263e 7c42 3cbe c2ed e23c
00000050: 3a41 c4bd 3c50 ab3e 9531 18be cf46 30be
00000060: e146 82be 9a74 163e c84a 9c3e c24b cdbe
00000070: 8505 4ebd 7782 983e 7bef 823c 2517 a73e
00000080: 40b0 c1bd b5b4 aa3e d8a0 e83d 6d20 9cbd
00000090: e3f9 873e c00b 2b3e 3dd9 d83e 5bef bdbd
000000a0: 08a7 863d 7b6c a03e 5c17 a6be f44b 1dbd
000000b0: a44a c73e c8e1 e7bd 938a 3e3e 4686 5a3e
000000c0: c9e2 a83e 0e50 823e 29bd d0be b3b1 e1be
000000d0: d50b 8b3d 4847 2a3e b699 943e 654f ccbe
000000e0: b095 8b3e 8914 6a3e 5f23 6ebe 469f 6f3e
000000f0: 9842 bebd 79e1 993d 277b 1ebe f186 b33e

mixlayers.0.op.3.weight f4 [16]
0.7155766 0.7331707 0.6900034 0.71410984 0.68063504 0.6970124 0.71830034 0.729405
0.68183184 0.736977 0.7196287 0.6385552 0.7715062 0.73925054 0.71248394 0.731143
00000000: 0730 373f 13b1 3b3f 10a4 303f e7cf 363f
00000010: 193e 2e3f 686f 323f 88e2 373f 49ba 3a3f
00000020: 888c 2e3f 86aa 3c3f 9639 383f 5b78 233f
00000030: 6e81 453f 863f 3d3f 5965 363f 302c 3b3f

mixlayers.0.op.3.bias f4 [16]
0.05941664 0.02717691 -0.020342845 0.05906831 0.09449286 0.073277295 0.19608408 0.0042216517
-0.010800428 0.09683229 0.054365408 0.0792606 0.15429267 0.091073446 0.0795896 -0.027579471
00000000: dd5e 733d 1ca2 de3c 0aa6 a6bc 9df1 713d
00000010: 7985 c13d 6812 963d 44ca 483e c855 8a3b
00000020: 47f4 30bc 0250 c63d 43ae 5e3d 6253 a23d
00000030: e6fe 1d3e b784 ba3d dfff a23d 58ee e1bc

mixlayers.0.op.3.running_mean f4 [16]
0.016753428 0.23920828 0.03379612 -0.21847798 -0.021880249 -0.26110685 -0.32163283 0.052835926
-0.20196825 -0.10096221 -0.1598391 0.21357033 -0.34519845 -0.2992941 0.057427026 0.16164428
00000000: 7c3e 893c 04f3 743e cd6d 0a3d b1b8 5fbe
00000010: 353e b3bc ccaf 85be 0fad a4be 7c6a 583d
00000020: c4d0 4ebe 46c5 cebd dcac 23be 2eb2 5a3e
00000030: dabd b0be 143d 99be 9a38 6b3d 1486 253e

mixlayers.0.op.3.running_var f4 [16]
0.014554972 0.03805891 0.029387528 0.028559024 0.024908902 0.031911634 0.058434293 0.025527796
0.0239383 0.019845407 0.01949508 0.038825154 0.08367249 0.0445825 0.022421677 0.024272416
00000000: fa77 6e3c a9e3 1b3d 1dbe f03c 9df4 e93c
00000010: c10d cc3c c6b5 023d cc58 6f3d ab1f d13c
00000020: 411a c43c d692 a23c 25b4 9f3c 2007 1f3d
00000030: 7c5c ab3d 249c 363d aaad b73c f2d6 c63c

mixlayers.1.op.1.weight f4 [16, 1, 3, 3]
0.23236358 0.16722088 -0.14611694 0.04632038 -0.029178755 -0.14465214 0.14295138 -0.062534034
0.37832147 0.10079409 0.032651275 -0.29857817 -0.16404638 0.06707843 0.23592634 -0.15895432
-0.16644311 0.29094455 0.1571955 -0.3190348 -0.050687704 -0.05493859 -0.060561884 -0.02276725
0.116858676 0.11191462 0.034981642 0.22189438 0.1865571 0.21612225 -0.2123895 0.14574333
0.15202028 -0.336629 0.105191454 -0.098650336 -0.2848275 0.16253796 0.048469838 -0.0023678509
-0.09418815 -0.03438893 -0.31090397 -0.23344785 0.30592024 0.12461819 -0.06830562 -0.028878048
0.17507571 0.1873294 -0.23666948 -0.36151567 0.2525982 0.21103115 0.14379048 -0.07757265
-0.5110862 0.19621792 0.021904452 -0.08395849 0.058529306 0.32522315 -0.3367039 -0.13865764
-0.22453189 0.23033743 -0.03649772 0.20134589 0.28712007 0.14772145 -0.13563927 0.025280306
-0.14252873 0.14339319 0.2980032 0.17873672 -0.13344985 -0.034821935 0.10898817 -0.24860892
-0.19662967 0.102987684 -0.30346662 0.12440067 0.2915426 -0.1178155 0.23669378 0.24246408
-0.20332544 0.048695724 -0.005179276 -0.111761674 0.21594001 -0.097928815 -0.20770697 -0.08285612
0.17122722 0.00023229157 -0.34515235 0.11927384 0.13093895 0.042411596 -0.13972023 -0.031738073
-0.21907218 0.21666865 0.08386552 -0.35012344 0.1257929 0.14259195 0.07608997 0.094454505
-0.29961884 0.16272277 -0.4872046 -0.25962874 -0.34167066 0.14007418 0.38412863 0.32967022
0.037440415 0.18130396 0.045800813 -0.120181 -0.151442 -0.11235483 0.24178591 0.33096445
-0.05884374 0.07707728 0.07543207 -0.11203302 -0.030666357 -0.21512361 -0.2445792 -0.2579953
-0.24494588 -0.27658665 0.08390352 -0.01463577 0.19950612 0.32522324 0.11264364 -0.03492965
00000000: b8f0 6d3e f33b 2b3e ae9f 15be 70ba 3d3d
00000010: 4908 efbc b11f 14be d961 123e d811 80bd
00000020: 5ab3 c13e 226d ce3d 58bd 053d 3ddf 98be
00000030: c6fb 27be 6a60 893d ad96 713e ecc4 22be
00000040: 1070 2abe aff6 943e dbf7 203e 8858 a3be
00000050: e99d 4fbd 4907 61bd bd0f 78bd 6282 babc
00000060: 9a53 ef3d 7e33 e53d e948 0f3d 4838 633e
00000070: d308 3f3e 274f 5d3e a27c 59be bd3d 153e
00000080: 34ab 1b3e a35a acbe 9e6e d73d 3009 cabd
00000090: e9d4 91be 5a70 263e 4f88 463d f22d 1bbb
000000a0: b7e5 c0bd 68db 0cbd ce2e 9fbe f40c 6fbe
000000b0: 94a1 9c3e d237 ff3d d1e3 8bbd a891 ecbc
000000c0: 0c47 333e 47d3 3f3e 7c59 72be 9518 b9be
000000d0: 8d54 813e 8d18 583e d03d 133e 69de 9ebd
000000e0: 8cd6 02bf 5aed 483e f770 b33c 6ef2 abbd
000000f0: 6dbc 6f3d a683 a63e 7464 acbe 45fc 0dbe
00000100: b0eb 65be 93dd 6b3e a27e 15bd 9e2d 4e3e
00000110: 6701 933e 4b44 173e 05e5 0abe a518 cf3c
00000120: 0df3 11be aad5 123e e093 983e c206 373e
00000130: 14a7 08be 72a1 0ebd 3135 df3d 5693 7ebe
00000140: 4a59 49be 35eb d23d fa5f 9bbe c7c5 fe3d
00000150: 1245 953e 4149 f1bd db5f 723e 8148 783e
00000160: 8b34 50be 2b75 473d ebb6 a9bb 4ee3 e4bd
00000170: 611f 5d3e e78e c8bd 23b1 54be 78b0 a9bd
00000180: 3056 2f3e 4b93 7339 cfb7 b0be d845 f43d
00000190: dc14 063e c8b7 2d3d d212 0fbe c8ff 01bd
000001a0: 7554 60be 63de 5d3e b0c1 ab3d 6143 b3be
000001b0: dbcf 003e a003 123e 0fd5 9b3d 5d71 c13d
000001c0: a467 99be cca0 263e e272 f9be 0fee 84be
000001d0: 75ef aebe 9b6f 0f3e 82ac c43e 89ca a83e
000001e0: 1f5b 193d bfa7 393e a299 3b3d 7521 f6bd
000001f0: 9d13 1bbe 4a1a e6bd ba96 773e 2c74 a93e
00000200: 2206 71bd b1da 9d3d 217c 9a3d 9171 e5bd
00000210: 0338 fbbc 5d49 5cbe f872 7abe f617 84be
00000220: 18d3 7abe c49c 8dbe 9cd5 ab3d deca 6fbc
00000230: 554b 4c3e a983 a63e b5b1 e63d 6512 0fbd

mixlayers.1.op.2.weight f4 [16, 16, 1, 1]
-0.05504521 -0.025938885 -0.2532829 0.27207616 -0.1285455 -0.20714377 -0.26760817 0.28358838
0.10291434 0.11312902 -0.03233557 0.14782467 0.2501636 0.10142306 -0.017222513 -0.07395419
0.10222438 0.015189834 -0.03352956 0.015797256 0.21351427 3.748505e-05 0.06003062 -0.16600138
-0.18306844 0.11165106 0.24928519 -0.2193055 -0.15504935 0.023440592 -0.1380927 0.13352148
-0.13826473 -0.013770018 -0.17461221 -0.2439777 0.07866187 -0.0076677473 -0.028072607 -0.05664065
0.043263808 0.026283102 -0.10707647 0.14124176 -0.24741995 -0.27664962 -0.06439786 -0.09858819
-0.22216406 -0.113074854 -0.20444296 -0.0106604695 0.21890558 -0.16903578 0.10844647 -0.10668226
-0.07734184 -0.045997303 0.043391105 -0.22904591 0.067833096 -0.17855123 0.00821869 0.07090322
0.124994636 0.31875798 0.1354586 -0.01423581 0.0005788107 -0.013238968 -0.1860709 0.048347134
0.2008359 0.037864644 0.26488593 0.054649062 0.19525303 -0.1985234 -0.00853155 -0.056078404
-0.10536994 0.08265956 -0.045394618 0.12963024 0.15613304 0.04322997 -0.21305573 -0.0921006
0.17974685 -0.091839634 0.042296667 0.13688485 0.27193063 -0.01698325 0.21079667 0.021238562
-0.19409701 -0.037029635 0.04478734 -0.07436137 0.2605663 -0.10950294 -0.05723556 -0.07282308
-0.20395672 -0.032164536 0.026569387 -0.038788754 -0.0059771077 -0.33143446 0.20157394 -0.43763894
-0.06481351 -0.10753502 -0.123214304 0.108978085 -0.13423474 0.12998599 0.17029765 -0.10502907
-0.104468144 0.04216563 -0.22456028 0.25078404 -0.49551395 0.013525583 -0.20979886 0.09896305
0.012227238 0.068059064 -0.0795479 0.20640507 -0.15355977 0.1847162 -0.15208384 0.1381459
0.1375026 0.055729903 -0.14138998 -0.08400842 0.006463846 0.19027385 -0.08769895 -0.07367892
-0.015164533 -0.032597438 -0.015046249 -0.23935531 0.15217198 0.006376817 0.06389541 -0.16305676
0.096001565 0.01617584 0.10784283 -0.0136709595 0.22053957 -0.28821012 -0.058555473 -0.080238745
-0.108165756 0.13896173 0.06997767 0.15279502 0.018206464 0.011626829 -0.24455096 -0.11623872
-0.036364485 0.27797368 0.22203813 0.010671824 0.049050637 0.0005230999 0.28142735 0.06143227
0.12901032 0.06939453 -0.012703516 -0.023469413 0.046671692 -0.02720213 -0.12420704 0.053388376
0.021960163 0.16922411 0.08664848 0.10291255 -0.12797125 -0.09647334 -0.16917735 -0.06114786
0.02027014 -0.20761658 -0.0014834929 0.1798287 0.23904882 0.29938224 0.13157871 -0.18756188
-0.20044382 -0.42051214 -0.1531422 0.11039977 0.009124582 0.036425777 -0.035148125 0.116813764
0.03371921 -0.09390315 -0.05202749 -0.07807309 0.18285976 -0.096954376 -0.11169211 -0.06660416
0.05739118 0.041997604 0.10378081 -0.094012335 -0.16182235 0.16055784 -0.22559528 -0.09432966
-0.18816052 -0.24398224 0.013121281 0.23370054 -0.068543054 0.15739802 -0.008237372 -0.013870733
0.08877356 -0.23962569 -0.14053172 0.017969778 -0.037316103 0.0027108747 0.3380346 -0.07969718
-0.23151045 0.049916126 -0.094108224 0.008465872 -0.15019897 0.013938669 -0.4902826 -0.18241444
-0.10623554 0.122516684 -0.07798535 0.057583686 -0.21848668 0.26092893 -0.06411495 -0.040001374
00000000: 1677 61bd c97d d4bc 4cae 81be 914d 8b3e
00000010: 6ea1 03be 7f1d 54be f003 89be 7f32 913e
00000020: c1c4 d23d 30b0 e73d 4d72 04bd 5a5f 173e
00000030: 7215 803e e5b6 cf3d 3a16 8dbc 4b75 97bd
00000040: 045b d13d c8de 783c 4b56 09bd 3f69 813c
00000050: 7ca3 5a3e 4439 1d38 abe2 753d 44fc 29be
00000060: 4b76 3bbe 50a9 e43d 9e44 7f3e 9f91 60be
00000070: 42c5 1ebe 7c06 c03c 2c68 0dbe dbb9 083e
00000080: 4595 0dbe a49b 61bc 8bcd 32be 4ad5 79be
00000090: 7919 a13d ba41 fbbb 86f8 e5bc 0700 68bd
000000a0: 6435 313d a94f d73c e94a dbbd aea1 103e
000000b0: a85b 7dbe 05a5 8dbe 06e3 83bd 9be8 c9bd
000000c0: fa7e 63be ca93 e7bd 7f59 51be 40a9 2ebc
000000d0: c928 603e b717 2dbe 2f19 de3d 3b7c dabd
000000e0: 6665 9ebd ab67 3cbd dfba 313d 038b 6abe
000000f0: 14ec 8a3d 22d6 36be afa7 063c b535 913d
00000100: 30fd ff3d 3f34 a33e a9b5 0a3e 513d 69bc
00000110: 54bb 173a 42e8 58bc 5f89 3ebe a507 463d
00000120: eda7 4d3e f517 1b3d 219f 873e b2d7 5f3d
00000130: 69f0 473e b849 4bbe eac7 0bbc 78b2 65bd
00000140: 32cc d7bd 6a49 a93d b5ef 39bd cabd 043e
00000150: 57e1 1f3e e911 313d 482b 5abe 3d9f bcbd
00000160: 8f0f 383e 6b16 bcbd 453f 2d3d 8b2b 0c3e
00000170: 7e3a 8b3e 7520 8bbc 15db 573e 7efc ad3c
00000180: 5ec1 46be 63ac 17bd ee72 373d c64a 98bd
00000190: f268 853e 1443 e0bd d66f 6abd 4424 95bd
000001a0: 08da 50be f6be 03bd 0ba8 d93c f5e0 1ebd
000001b0: 9ddb c3bb c7b1 a9be 6669 4e3e 3612 e0be
000001c0: f2bc 84bd 523b dcbd c857 fcbd e72f df3d
000001d0: d574 09be 0c1b 053e 8262 2e3e 7b19 d7bd
000001e0: 65f3 d5bd deb5 2c3d 21f3 65be c466 803e
000001f0: 01b4 fdbe 689a 5d3c 83d5 56be 24ad ca3d
00000200: c154 483c 8d62 8b3d 02ea a2bd da5b 533e
00000210: c63e 1dbe 3e26 3d3e debb 1bbe 1e76 0d3e
00000220: 7bcd 0c3e 0a45 643d 89c8 10be 9b0c acbd
00000230: acce d33b 26d7 423e 829b b3bd f9e4 96bd
00000240: a974 78bc e484 05bd 8b84 76bc 8f19 75be
00000250: f9d2 1b3e 9ef4 d03b 99db 823d 5af8 26be
00000260: 789c c43d 3283 843c b4dc dc3d 29fc 5fbc
00000270: 20d5 613e 4790 93be ddd7 6fbd 3654 a4bd
00000280: 0286 ddbd fc4b 0e3e 7450 8f3d 4c76 1c3e
00000290: b925 953c 757e 3e3c 916b 7abe 910e eebd
000002a0: edf2 14bd 9152 8e3e f75d 633e e0d8 2e3c
000002b0: 52e9 483d a420 093a 3f17 903e 67a0 7b3d
000002c0: 481b 043e b81e 8e3d 6822 50bc ed42 c0bc
000002d0: d12a 3f3d 00d7 debc 4360 febd c5ad 5a3d
000002e0: cde5 b33c 1649 2d3e c274 b13d d1c3 d23d
000002f0: e50a 03be d193 c5bd d43c 2dbe 2e76 7abd
00000300: 910d a63c 7199 54be c371 c2ba 0425 383e
00000310: 37c9 743e a148 993e 92bc 063e 3910 40be
00000320: 2541 4dbe 5e4d d7be 4fd1 1cbe 4619 e23d
00000330: 457f 153c 3233 153d 7bf7 0fbd 0e3c ef3d
00000340: 281d 0a3d 4b50 c0bd c71a 55bd c9e4 9fbd
00000350: 973f 3b3e 0490 c6bd d5be e4bd c367 88bd
00000360: 0413 6b3d ae05 2c3d 098b d43d 8a89 c0bd
00000370: c2b4 25be 4669 243e 7302 67be e92f c1bd
00000380: 27ad 40be 7bd6 79be a4fa 563c 324f 6f3e
00000390: 4d60 8cbd f22c 213e 0bf6 06bc 1242 63bc
000003a0: eace b53d 7060 75be 8ce7 0fbe 5b35 933c
000003b0: c5d8 18bd eea8 313b df12 ad3e 4638 a3bd
000003c0: 1311 6dbe da74 4c3d d0bb c0bd 71b4 0a3c
000003d0: c2cd 19be 045f 643c 5206 fbbe daca 3abe
000003e0: 0592 d9bd 07ea fa3d c8b6 9fbd dfdc 6b3d
000003f0: f9ba 5fbe 7a98 853e b34e 83bd 7bd8 23bd

mixlayers.1.op.3.weight f4 [16]
0.7123067 0.6792796 0.727667 0.70387465 0.73634243 0.8020457 0.75922453 0.7455129
0.62189776 0.769408 0.658365 0.7244619 0.7178897 0.650936 0.7073477 0.6219113
00000000: bb59 363f 45e5 2d3f 6248 3a3f 2131 343f
00000010: f080 3c3f de52 4d3f 8a5c 423f efd9 3e3f
00000020: b134 1f3f ecf7 443f 9c8a 283f 5676 393f
00000030: 9fc7 373f bea3 263f bd14 353f 9435 1f3f

mixlayers.1.op.3.bias f4 [16]
0.0971715 0.21793379 0.015595664 0.059274476 0.032804884 0.08871843 0.06929022 0.24089038
-0.0063932356 0.04241464 0.0011827542 0.016958794 -0.10529526 -0.02963206 0.14331988 0.20602296
00000000: da01 c73d 092a 5f3e f584 7f3c cbc9 723d
00000010: 6a5e 063d 02b2 b53d 08e8 8d3d f8ab 763e
00000020: 597e d1bb f9ba 2d3d a506 9b3a 2bed 8a3c
00000030: 0ba5 d7bd efbe f2bc 72c2 123e aff7 523e

mixlayers.1.op.3.running_mean f4 [16]
0.051885035 0.0010104141 -0.041130293 -0.1383351 -0.09456338 -0.0940877 -0.1378441 0.14995894
0.14940616 -0.19090293 0.005180707 0.035678204 -0.045426395 0.043506064 0.024730353 0.1492847
00000000: 6785 543d df6f 843a 3d78 28bd b7a7 0dbe
00000010: 72aa c1bd 0db1 c0bd 0127 0dbe d68e 193e
00000020: eefd 183e 0f7c 43be ecc2 a93b 4f23 123d
00000030: 0711 3abd 6a33 323d 4f97 ca3c 17de 183e

mixlayers.1.op.3.running_var f4 [16]
0.07999738 0.026934184 0.05728989 0.0521948 0.048700754 0.061804567 0.106965356 0.15241419
0.06370468 0.08979811 0.038027614 0.017614987 0.052692417 0.021753317 0.04224107 0.13534202
00000000: abd5 a33d 14a5 dc3c cea8 6a3d 37ca 553d
00000010: 717a 473d c926 7d3d a710 db3d 7712 1c3e
00000020: 9977 823d 12e8 b73d d8c2 1b3d 4e4d 903c
00000030: 01d4 573d 0334 b23c f904 2d3d 1997 0a3e

mixlayers.2.op.1.weight f4 [16, 1, 3, 3]
-0.27431896 -0.1567878 0.25913742 -0.29475626 -0.20680144 0.27081046 0.2743293 0.037346635
0.028496083 -0.07633335 -0.13625659 -0.21932404 0.15240309 -0.040548638 -0.18414806 0.19317636
0.09795488 0.33898133 -0.025641525 -0.037104413 0.14382944 0.16081321 -0.10539742 -0.14496575
0.058527153 -0.20969242 -0.37387294 0.007584748 -0.09667428 0.07393188 -0.2378759 -0.25378788
-0.048159257 -0.1611494 -0.15163176 -0.100057185 -0.013133088 0.117560856 -0.08250773 -0.090544365
0.06136166 -0.16350614 -0.2240267 -0.3160301 0.19772229 0.16683793 -0.22308604 -0.27081317
-0.09264394 -0.18138945 -0.1539148 0.24189132 -0.08441329 -0.07323057 -0.019619608 0.3313205
0.33263087 -0.014018041 0.2958785 0.14448231 -0.072604775 0.061336633 -0.003944299 -0.048712768
-0.12742338 -0.3281484 0.2796635 -0.09013237 -0.12721196 0.14754324 0.50383776 0.41203585
0.08174351 0.12145564 0.1827238 -0.076096125 -0.09997161 -0.19577205 0.040839527 0.1457594
-0.104468085 0.16729826 -0.17768568 0.10802076 0.20432843 -0.12461029 -0.049066506 0.21647395
0.42208478 0.24019478 -0.012635752 -0.013660511 0.019494161 -0.27517053 -0.19106896 0.03160757
0.100399196 0.0033853243 -0.10926535 -0.2684127 0.037466895 0.047920596 0.048875146 -0.08543205
0.06628581 0.21390978 0.018625112 -0.018723737 0.16199107 -0.17839006 -0.15982282 -0.117418274
-0.22346021 -0.31275836 -0.16707979 0.11147454 -0.18979484 -0.15323436 0.08673279 0.24849927
-0.04043845 -0.21379733 -0.075575255 0.19512603 0.11702135 -0.013457065 0.13303523 0.011616098
-0.30630627 -0.15865189 -0.0904788 0.12152467 -0.28922555 -0.15898062 0.24086854 0.23854473
-0.19561216 0.107036054 -0.31796739 -0.16044311 0.20344177 -0.41187182 -0.116480574 0.14614062
00000000: 8973 8cbe fb8c 20be a9ad 843e 4bea 96be
00000010: c2c3 53be aba7 8a3e e474 8c3e c9f8 183d
00000020: 9e70 e93c a954 9cbd d986 0bbe 7b96 60be
00000030: 8e0f 1c3e 5416 26bd 4f91 3cbe 06d0 453e
00000040: 919c c83d f68e ad3e 2d0e d2bc ccfa 17bd
00000050: 0648 133e 38ac 243e 9ada d7bd e771 14be
00000060: 2bba 6f3d 9cb9 56be 466c bfbe 7a89 f83b
00000070: 2afd c5bd 9969 973d bd95 73be 7cf0 81be
00000080: a442 45bd 5904 25be 5b45 1bbe c8ea ccbd
00000090: 2a2c 57bc bfc3 f03d d0f9 a8bd 536f b9bd
000000a0: 5d56 7b3d 276e 27be 4167 65be b3ce a1be
000000b0: b677 4a3e 90d7 2a3e ab70 64be 06a8 8abe
000000c0: 1bbc bdbd 28be 39be d79b 1dbe 5cb2 773e
000000d0: e0e0 acbd e9f9 95bd 4db9 a0bc d7a2 a93e
000000e0: 984e aa3e edab 65bc 637d 973e 2cf3 133e
000000f0: d0b1 94bd 1f3c 7b3d 2e3f 81bb 0a87 47bd
00000100: 467b 02be 1103 a8be 0e30 8f3e 5297 b8bd
00000110: da43 02be 9315 173e 83fb 003f 5df6 d23e
00000120: 2469 a73d bcbd f83d f31b 3b3e 49d8 9bbd
00000130: eabd ccbd 7878 48be 5947 273d f441 153e
00000140: 5df3 d5bd 3c50 2b3e 3cf3 35be fd39 dd3d
00000150: 793b 513e ae33 ffbd f6f9 48bd 59ab 5d3e
00000160: 7f1b d83e 9ff5 753e 2f06 4fbc 56d0 5fbc
00000170: 38b2 9f3c 27e3 8cbe 95a7 43be f076 013d
00000180: 189e cd3d 51dc 5d3b 83c6 dfbd 646d 89be
00000190: e376 193d 6348 443d 4e31 483d 00f7 aebd
000001a0: dbc0 873d 2a0b 5b3e b193 983c 8662 99bc
000001b0: fde0 253e e2ab 36be 98a8 23be fe78 f0bd
000001c0: c1d2 64be dd21 a0be f716 2bbe c34c e43d
000001d0: 9459 42be 78e9 1cbe f6a0 b13d 9876 7e3e
000001e0: caa2 25bd b0ed 5abe 33c7 9abd 1ecf 473e
000001f0: e4a8 ef3d 067b 5cbc 633a 083e 7251 3e3c
00000200: 2dd4 9cbe a475 22be f34c b9bd ede1 f83d
00000210: 5f15 94be d1cb 22be 3ea6 763e 1245 743e
00000220: 8e4e 48be b835 db3d 9fcc a2be 334b 24be
00000230: 0a53 503e dde0 d2be 5e8d eebd e3a5 153e

mixlayers.2.op.2.weight f4 [16, 16, 1, 1]
0.12830208 -0.08330643 0.009324547 -0.1811917 0.07408469 -0.1383475 -0.019211665 -0.23116335
0.098709285 -0.11854505 0.08147994 -0.01319081 -0.13280417 -0.096176356 0.13903525 0.15818924
-0.0405112 -0.15494794 0.016109586 0.060418922 -0.23383287 0.07256458 0.013911455 -0.5382444
0.03888529 0.14975564 0.024741093 -0.048189156 -0.17141189 -0.12812437 0.01895707 0.12562805
0.24493022 -0.17903359 -0.027378432 0.13211787 -0.123210624 0.03837506 0.021234347 -0.1229774
0.031644095 -0.18257248 0.16146976 -0.19656786 0.05832662 0.007286022 0.03858459 -0.118088685
0.1454882 0.114586286 0.14760776 -0.2963728 -0.1476939 0.09902824 0.29839644 0.054946184
0.08587572 0.3760487 0.16281971 0.14521492 -0.015108587 0.022509493 -0.009133218 -0.07907771
0.050696116 -0.0028321936 0.026580585 0.14211161 0.05693135 0.16725406 -0.21773122 0.088186204
0.07677119 0.06842798 -0.08797678 -0.012687084 -0.1316199 0.09983849 -0.2560767 -0.29095688
0.3153921 -0.19047357 -0.13882147 0.0077024726 -0.09128548 -0.20965996 -0.014221373 0.2968821
0.036324617 -0.12105548 -0.010925768 -0.1346272 -0.0975482 -0.11421555 -0.090123594 0.17161407
0.03270954 0.15936275 -0.038809665 0.12175117 -0.051789723 -0.18302226 0.16462484 0.17721385
0.09555002 0.11347384 -0.0033187147 0.116841145 0.21048802 -0.074899256 -0.24360491 0.15326932
0.05293293 -0.24385133 0.050621737 -0.08858504 0.27560294 0.19667378 -0.07653076 -0.13507141
-0.03135697 0.055902295 0.19703504 -0.1111298 0.1099965 -0.108957276 -0.015876466 0.041709527
-0.17293961 0.084048174 -0.06401623 0.16323584 0.00049777265 0.015074494 -0.21196328 -0.04494665
0.012765384 0.027362168 -0.19957533 -0.036258347 0.17509776 0.031753547 0.025523257 -0.31405228
0.03235405 0.11662325 -0.23292865 0.06616514 0.13444577 0.05753583 0.24143052 0.5156326
-0.12369106 -0.06172196 0.112487905 0.104630955 -0.22686979 0.082094274 0.117760465 0.0627426
-0.08138387 -0.11779851 0.062860765 0.14586513 0.14393188 0.091022804 -0.39182532 0.08907565
0.186744 -0.21393077 0.006738785 -0.052344874 -0.060604297 -0.044649795 -0.039182056 -0.17006959
0.25014645 -0.048063446 0.24858439 -0.008024649 0.044434298 0.136371 0.0027191534 0.10696246
-0.06160572 -0.104659624 0.11045119 0.1337133 0.07672911 0.15281773 0.2918305 -0.24678887
-0.14844114 0.0007119302 0.17524856 0.0522241 0.16481772 0.037094265 0.08976124 0.03135507
0.16429184 -0.05671203 -0.109302185 0.045331385 0.07960907 0.1600843 -0.32331955 -0.09366984
-0.37761006 -0.14328098 0.14597705 0.11169128 -0.22496615 0.3087945 -0.11222451 0.0046203104
-0.065432355 -0.19856362 -0.15470287 0.038196746 -0.40919322 -0.127946 -0.05944699 -0.06863901
-0.06058307 -0.17375219 0.16579491 -0.016317923 -0.027333584 0.22230923 -0.17986736 0.16907744
0.14257905 -0.042360365 -0.015635937 0.08817025 -0.11511753 0.041435815 0.056169495 -0.36204335
0.07480343 0.017831339 0.018510709 -0.0836942 0.12439787 -0.05313704 -0.076847725 -0.0049113766
-0.06618113 0.07028338 -0.051407456 -0.08348836 0.060264017 -0.23296173 0.12741439 0.25040504
00000000: 9f61 033e 909c aabd fcc5 183c 518a 39be
00000010: b7b9 973d f8aa 0dbe c861 9dbc 16b6 6cbe
00000020: 1828 ca3d bfc7 f2bd f4de a63d 441e 58bc
00000030: d1fd 07be 1cf8 c4bd 425f 0e3e 5cfc 213e
00000040: 12ef 25bd acaa 1ebe 40f8 833c d579 773d
00000050: e271 6fbe bd9c 943d dfec 633c 63ca 09bf
00000060: 2f46 1f3d 8b59 193e d5ad ca3c fe61 45bd
00000070: 9986 2fbe 0933 03be db4b 9b3c a4a4 003e
00000080: fdce 7a3e 9554 37be bc48 e0bc e849 073e
00000090: da55 fcbd 2b2f 1d3d a7f3 ad3c 93db fbbd
000000a0: 3d9d 013d 48f4 3abe 5458 253e 1649 49be
000000b0: e5e7 6e3d 95bf ee3b e00a 1e3d 7bd8 f1bd
000000c0: dcfa 143e 37ac ea3d 7d26 173e 2dbe 97be
000000d0: 123d 17be 51cf ca3d 6bc7 983e 400f 613d
000000e0: 9cdf af3d 7589 c03e 36ba 263e 38b3 143e
000000f0: 028a 77bc d465 b83c 7ea3 15bc 7ff3 a1bd
00000100: bba6 4f3d 539c 39bb 87bf d93c b585 113e
00000110: d930 693d a644 2b3e eff4 5ebe f89a b43d
00000120: 373a 9d3d f823 8c3d 2c2d b4bd 7ddd 4fbc
00000130: 5ec7 06be 1f78 cc3d 7c1c 83be 4df8 94be
00000140: 137b a13e 810b 43be 3727 0ebe 0665 fc3b
00000150: e2f3 babd 1ab1 56be c300 69bc ee00 983e
00000160: 1fc9 143d efeb f7bd fe01 33bc b6db 09be
00000170: 5ac7 c7bd d8e9 e9bd b892 b8bd 99bb 2f3e
00000180: 70fa 053d fd2f 233e e2f6 1ebd ad58 f93d
00000190: 7621 54bd 306a 3bbe 6a93 283e 8c77 353e
000001a0: bbaf c33d f964 e83d cb7e 59bb 694a ef3d
000001b0: 2c8a 573e c864 99bd 9173 79be a2f2 1c3e
000001c0: 33d0 583d 2ab4 79be bd58 4f3d 136c b5bd
000001d0: d41b 8d3e da64 493e 29bc 9cbd 2950 0abe
000001e0: 2b70 00bd cef9 643d 8ec3 493e 0598 e3bd
000001f0: d845 e13d fe24 dfbd 5d0f 82bc 9cd7 2a3d
00000200: 1517 31be 7321 ac3d f11a 83bd 4c27 273e
00000210: f57c 023a 03fb 763c e70c 59be fa19 38bd
00000220: e725 513c a026 e03c 7a5d 4cbe a283 14bd
00000230: d44c 333e 0210 023d 2616 d13c 76cb a0be
00000240: ae85 043d 2cd8 ee3d d984 6ebe 9781 873d
00000250: 27ac 093e b1aa 6b3d 9039 773e 8000 043f
00000260: bd51 fdbd 2ad0 7cbd 0f60 e63d c148 d63d
00000270: 8e50 68be 0b21 a83d 662c f13d 317f 803d
00000280: 96ac a6bd 5840 f1bd 25bd 803d ab5d 153e
00000290: e162 133e 2a6a ba3d 549d c8be 4b6d b63d
000002a0: d239 3f3e ab10 5bbe 07d1 dc3b 9467 56bd
000002b0: 363c 78bd b4e2 36bd 5d7d 20bd b926 2ebe
000002c0: 3213 803e 2dde 44bd e88c 7e3e d179 03bc
000002d0: bd00 363d d7a4 0b3e d333 323b 220f db3d
000002e0: 4856 7cbd c957 d6bd 3c34 e23d 24ec 083e
000002f0: 2724 9d3d 407c 1c3e cf6a 953e 39b6 7cbe
00000300: f400 18be d4a0 3a3a 5c74 333e f0e8 553d
00000310: fac5 283e 28f0 173d bed4 b73d 2d6e 003d
00000320: 1f3c 283e e04a 68bd d3d9 dfbd 67ad 393d
00000330: 150a a33d 24ed 233e 248a a5be f9d5 bfbd
00000340: 1b56 c1be 40b8 12be 027b 153e 66be e43d
00000350: 875d 66be 501a 9e3e f7d5 e5bd f965 973b
00000360: 6601 86bd 4354 4bbe 6e6a 1ebe 3174 1c3d
00000370: c681 d1be 4704 03be b07e 73bd 9c92 8cbd
00000380: f425 78bd 18ec 31be 24c6 293e 2aad 85bc
00000390: aeea dfbc 08a5 633e 262f 38be a322 2d3e
000003a0: 3e00 123e 1082 2dbd f016 80bc 9b92 b43d
000003b0: bdc2 ebbd 9ab8 293d fc11 663d bf5d b9be
000003c0: 8a32 993d 0713 923c c5a3 973c dd67 abbd
000003d0: 4fc4 fe3d 3aa6 59bd 5762 9dbd 9def a0bb
000003e0: f989 87bd bcf0 8f3d a090 52bd f2fb aabd
000003f0: 67d7 763d 858d 6ebe eb78 023e 1735 803e

mixlayers.2.op.3.weight f4 [16]
0.71113455 0.8285569 0.6747121 0.7298303 0.7931141 0.7499012 0.7088402 0.7711006
0.6341061 0.78648543 0.66556144 0.7359975 0.657474 0.697257 0.658986 0.65682477
00000000: ea0c 363f 4e1c 543f efb9 2c3f 29d6 3a3f
00000010: 8709 4b3f 86f9 3f3f 8d76 353f d966 453f
00000020: c754 223f 1c57 493f 3c62 2a3f 556a 3c3f
00000030: 3750 283f 6f7f 323f 4eb3 283f ab25 283f

mixlayers.2.op.3.bias f4 [16]
0.060965687 0.09512392 -0.05339914 0.12389843 0.10034657 -0.09281786 0.09625581 0.04520775
0.10881585 0.003286177 0.14062315 0.044718135 -0.03499472 -0.045651305 0.16611387 0.031032324
00000000: 28b7 793d 54d0 c23d 0eb9 5abd 76be fd3d
00000010: 8182 cd3d 4a17 bebd c421 c53d c32b 393d
00000020: d8da de3d e75c 573b 84ff 0f3e 5d2a 373d
00000030: a056 0fbd ddfc 3abd c119 2a3e 8037 fe3c

mixlayers.2.op.3.running_mean f4 [16]
-0.054452278 -0.063189045 -0.12936884 0.3069039 -0.006358242 0.0812772 0.12977064 -0.1618235
-0.0756394 0.15299869 -0.23527238 -0.10869843 0.017983355 -0.08745917 -0.035327964 -0.06189336
00000000: 5a09 5fbd 4269 81bd 4479 04be 8222 9d3e
00000010: cd58 d0bb a974 a63d 98e2 043e 0fb5 25be
00000020: d4e8 9abd b0ab 1c3e 3eeb 70be 489d debd
00000030: d451 933c cb1d b3bd 0eb4 10bd e483 7dbd

mixlayers.2.op.3.running_var f4 [16]
0.053269763 0.19888689 0.027170274 0.044849303 0.06074035 0.05229314 0.05475698 0.034431186
0.02846656 0.20201854 0.06728696 0.05244966 0.029252654 0.11676719 0.08702064 0.02886039
00000000: 6531 5a3d 01a9 4b3e 3294 de3c e7b3 373d
00000010: e0ca 783d 5531 563d db48 603d b707 0d3d
00000020: b432 e93c f3dd 4e3e bfcd 893d 74d5 563d
00000030: 43a3 ef3c a323 ef3d e137 b23d a06c ec3c

mixlayers.3.op.1.weight f4 [16, 1, 3, 3]
0.046798088 0.30209115 0.1471966 -0.02740605 0.21970552 -0.08820172 -0.06981669 0.014730963
0.012623965 -0.10343636 0.07628774 0.19361918 -0.007056042 0.14242852 0.550534 0.097048804
0.18241301 0.06530685 -0.02823103 -0.047087897 -0.06495123 -0.20282033 -0.22671112 0.053585656
-0.28031635 -0.10055346 0.067185275 0.03868335 0.29531515 0.10704982 0.08334232 0.022699298
0.26969653 0.16870084 0.13439204 0.20074776 0.17541979 -0.16654722 -0.4095861 0.008695592
0.1722028 -0.21943885 -0.20828731 0.018291596 0.36792773 -0.027442997 0.2837493 0.05472625
0.07316357 0.14158827 -0.119126946 0.30487847 0.060524017 -0.317845 -0.29036248 -0.05335537
-0.10977876 -0.3132487 -0.010030675 0.22333795 0.009530391 0.0870108 0.23176906 -0.0057227137
0.32003528 0.2542211 0.20606025 0.05653492 -0.078179225 0.14638294 0.033057794 -0.21172501
0.079467125 -0.12610452 -0.3373743 0.038443387 0.22087996 -0.022393165 0.29928908 0.02639589
-0.05857788 0.03924518 -0.05129352 -0.26714128 -0.012727061 -0.36612728 -0.3498467 0.07480529
-0.1841015 -0.20042957 -0.12395798 0.06298845 0.012529494 -0.029647574 0.008384901 0.0751145
0.13462928 0.35513195 0.20182875 0.24043645 0.1339525 0.20089819 -0.022440126 0.08667173
0.17250288 0.053960398 0.21708621 0.20772861 0.116123006 0.004989939 -0.11498063 -0.033295345
-0.07621495 -0.21844551 -0.019256255 -0.2914777 0.05185683 0.12683602 0.27691847 0.29253203
-0.06452417 0.25905427 0.30243108 0.084019564 0.10854714 -0.050697256 0.00360539 0.19370107
0.0042556114 -0.23929752 -0.21608944 0.0406044 -0.25219366 -0.3865417 -0.12063436 -0.20263179
-0.076419696 0.09981733 0.20741197 -0.058313854 -0.21557663 -0.17256962 0.05320398 -0.2515014
00000000: 5aaf 3f3d b1ab 9a3e b5ba 163e a782 e0bc
00000010: 7cfa 603e 1aa3 b4bd 0efc 8ebd 235a 713c
00000020: bfd4 4e3c 71d6 d3bd bf3c 9c3d 1b44 463e
00000030: 5f36 e7bb c8d8 113e ccef 0c3f 86c1 c63d
00000040: 7aca 3a3e 99bf 853d c344 e7bc 3ddf 40bd
00000050: 2705 85bd 22b0 4fbe f626 68be a27c 5b3d
00000060: a085 8fbe f9ee cdbd 6f98 893d 6f72 1e3d
00000070: 8c33 973e f03c db3d 61af aa3d e1f3 b93c
00000080: aa15 8a3e eabf 2c3e 119e 093e d290 4d3e
00000090: 3fa1 333e 5b8b 2abe 45b5 d1be f577 0e3c
000000a0: ee55 303e 94b4 60be 4549 55be 42d8 953c
000000b0: 0661 bc3e 23d0 e0bc 9747 913e a228 603d
000000c0: c8d6 953d 84fc 103e d4f8 f3bd 0819 9c3e
000000d0: 08e8 773d 94bc a2be 64aa 94be 298b 5abd
000000e0: b0d3 e0bd 2262 a0be b357 24bc b4b2 643e
000000f0: 5b25 1c3c b832 b23d de54 6d3e 9a85 bbbb
00000100: aadb a33e 4529 823e 7501 533e 2991 673d
00000110: 6e1c a0bd 69e5 153e 9c67 073d 71ce 58be
00000120: a9bf a23d 8b21 01be 53bc acbe d076 1d3d
00000130: 5b2e 623e df71 b7bc 6b3c 993e 323c d83c
00000140: 5cef 6fbd 8ebf 203d 2719 52bd bec6 88be
00000150: 2a85 50bc 0975 bbbe 1b1f b3be 8433 993d
00000160: 1b85 3cbe 693d 4dbe aedd fdbd 1700 813d
00000170: 8248 4d3c 78df f2bc d360 093c a2d5 993d
00000180: 42dc 093e dbd3 b53e 32ac 4e3e f934 763e
00000190: d82a 093e 41b8 4d3e 5bd4 b7bc f380 b13d
000001a0: 98a4 303e 9405 5d3d d94b 5e3e cfb6 543e
000001b0: e6d1 ed3d a482 a33b f77a ebbd b360 08bd
000001c0: 9516 9cbd 2eb0 5fbe 4bbf 9dbc 913c 95be
000001d0: d467 543d 4de1 013e 42c8 8d3e c2c6 953e
000001e0: 3f25 84bd c3a2 843e 3fd8 9a3e 7312 ac3d
000001f0: f74d de3d eda7 4fbd 6848 6c3b 9359 463e
00000200: a872 8b3b 690a 75be 8d46 5dbe cd50 263d
00000210: 871f 81be cbe8 c5be 260f f7bd b57e 4fbe
00000220: ee81 9cbd 076d cc3d ce63 543e 82da 6ebd
00000230: 1fc0 5cbe 17b6 30be 6bec 593d cbc4 80be

mixlayers.3.op.2.weight f4 [32, 16, 1, 1]
0.003996758 0.07975521 0.14238289 0.123271145 -0.0998207 0.14580382 0.050905116 0.15011612
0.10595165 -0.20160706 -0.16597483 0.072375335 0.07481789 -0.14622773 0.19611058 0.033460617
0.15329629 -0.092959896 -0.11962208 -0.13929993 0.009234152 0.22305864 0.16206057 -0.14523904
0.18777576 0.08794562 -0.15458813 0.16508009 0.081888065 0.1850535 0.019930998 -0.08670376
-0.078602016 -0.15989476 -0.1148506 -0.040003315 -0.14726092 0.14464611 -0.044222843 0.0020935256
0.005167237 0.12726681 0.069643274 -0.13742933 0.177876 0.2820108 -0.06997639 0.0053412127
-0.017207114 0.24370687 -0.038265023 -0.08860641 0.016829895 -0.03854 -0.15139602 0.114566304
-0.058288522 0.06723268 -0.1388144 -0.11865282 0.05774828 0.35471514 0.35477862 0.050073665
0.04276968 -0.17593662 0.0916404 -0.22510026 0.11060495 -0.09848561 0.12550007 0.1492007
0.12718047 0.16803789 0.030408368 -0.1396305 0.15052767 -0.0962286 0.14758453 0.0872354
-0.2432443 0.03387167 0.026025128 -0.083363324 -0.029738963 0.1848112 -0.23468487 -0.17445412
0.2102245 -0.2443936 -0.11167607 -0.18157081 0.1489917 -0.09312312 0.15814969 0.041941576
-0.1525258 -0.0854476 -0.057879962 -0.31632406 0.2426856 -0.11680775 0.07099746 0.0074724043
-0.053656276 0.045527756 -0.09083194 -0.17115507 -0.08577691 -0.15139008 0.29122654 0.09997298
0.065346085 -0.21306297 0.21381786 0.038218625 0.10043998 -0.11599335 -0.07897507 -0.17157549
-0.208487 0.14849645 -0.102268055 -0.23918337 0.14618644 -0.039577547 0.18616776 0.031449467
-0.18908796 -0.11144115 -0.17951429 -0.08972565 -0.005556435 0.3003223 -0.2221751 -0.092488155
-0.10412302 0.089229465 0.1429077 0.040484946 -0.101627715 0.27003 0.14312778 -0.016795017
0.13432823 0.111850835 0.15441735 -0.030201662 -0.25147006 0.19305448 0.12508193 0.023060923
-0.18389684 0.11299355 0.11121166 -0.14316069 -0.0832013 0.08188715 0.08492292 -0.09469995
0.12289396 -0.05546079 -0.20330404 -0.14491472 0.12111717 -0.13903435 0.10892748 -0.15744118
-0.11396592 0.044698384 -0.070370816 -0.15455428 0.13575287 -0.06923135 -0.17447403 -0.11421592
0.043210216 -0.07809847 -0.022965048 -0.140897 0.21530926 -0.08044159 -0.0551782 0.10838873
-0.06113691 0.15722723 -0.029854123 0.012724362 -0.088053666 -0.09908909 -0.31203684 -0.020929778
-0.044938646 -0.094949126 -0.14552674 -0.061128084 0.12991847 -0.14046496 -0.06604517 0.060513668
0.0031297896 0.18418393 -0.15995468 0.010236368 0.15080632 -0.11115939 -0.0715688 0.17964377
0.01904098 -0.14901188 0.08605619 -0.0682816 -0.19310023 0.16041178 -0.060874473 0.074675314
-0.17328039 0.19316994 -0.0055674845 -0.16806601 0.059753634 0.1556112 -0.05085979 -0.02047995
-0.10337635 0.084423274 -0.0048344187 -0.12811802 0.09426435 -0.11359212 0.023869365 0.008054854
0.113593645 0.14559828 0.13204364 0.22556902 -0.039614797 -0.19441043 -0.14064541 0.16632171
-0.032979295 0.21082696 0.008606278 0.016979657 -0.10425585 0.020879328 0.15761195 -0.06578085
0.09334063 -0.30018708 0.16875385 0.14327133 0.18355413 0.21034646 -0.02636533 0.05686267
00000000: 3cf7 823b b356 a33d d2cc 113e 9575 fc3d
00000010: cc6e ccbd 994d 153e e281 503d 0ab8 193e
00000020: 2efd d83d 1572 4ebe 4ef5 29be 8539 943d
00000030: 1f3a 993d b9bc 15be 36d1 483e 000e 093d
00000040: b4f9 1c3e c261 bebd 6cfc f4bd a4a4 0ebe
00000050: d74a 173c 7c69 643e 35f3 253e 8bb9 14be
00000060: 4a48 403e d51c b43d 5a4c 1ebe c10a 293e
00000070: eeb4 a73d aa7e 3d3e 5546 a33c be91 b1bd
00000080: 18fa a0bd 74bb 23be cb36 ebbd 84da 23bd
00000090: 91cb 16be 1c1e 143e 0323 35bd 8833 093b
000000a0: ed51 a93b 3b52 023e 22a1 8e3d 46ba 0cbe
000000b0: 2025 363e b863 903e c84f 8fbd 5705 af3b
000000c0: eff5 8cbc 4b8e 793e c9bb 1cbd 4777 b5bd
000000d0: d9de 893c 1edc 1dbd 8f07 1bbe bda1 ea3d
000000e0: f2bf 6ebd 4ab1 893d 5d25 0ebe 4000 f3bd
000000f0: 7689 6c3d 399d b53e 8ba5 b53e 0b1a 4d3d
00000100: 432f 2f3d bb28 34be f6ad bb3d af80 66be
00000110: d984 e23d d3b2 c9bd 1783 003e 11c8 183e
00000120: 993b 023e 2012 2c3e f81a f93c 4cfb 0ebe
00000130: ed23 1a3e 8013 c5bd 6620 173e 79a8 b23d
00000140: 0915 79be 05bd 0a3d a632 d53c 64ba aabd
00000150: 209f f3bc 263f 3d3e 3b51 70be 1aa4 32be
00000160: 1745 573e 5142 7abe 6cb6 e4bd b3ed 39be
00000170: 4891 183e 56b7 bebd fef1 213e eeca 2b3d
00000180: b92f 1cbe 27ff aebd 8a13 6dbd 3af5 a1be
00000190: 9382 783e e738 efbd 1e67 913d 12db f43b
000001a0: afc6 5bbd 507b 3a3d 1906 babd 4643 2fbe
000001b0: ceab afbd 0006 1bbe a51b 953e a2be cc3d
000001c0: 2bd4 853d 2e2d 5abe 12f3 5a3e 228b 1c3d
000001d0: 7ab3 cd3d ec8d edbd aebd a1bd 7cb1 2fbe
000001e0: 9e7d 55be 740f 183e ea71 d1bd 7cec 74be
000001f0: e6b1 153e 111c 22bd c3a2 3e3e 28d1 003d
00000200: 46a0 41be 423b e4bd 98d2 37be 15c2 b7bd
00000210: c112 b6bb d8c3 993e df81 63be 6e6a bdbd
00000220: 733e d5bd f0bd b63d 6556 123e 8bd3 253d
00000230: 3122 d0bd 5f41 8a3e 1790 123e b495 89bc
00000240: 578d 093e 0d12 e53d 951f 1e3e 7a69 f7bc
00000250: afc0 80be 13b0 453e 7a15 003e 43ea bc3c
00000260: 744f 3cbe 2a69 e73d f0c2 e33d b798 12be
00000270: 7165 aabd 73b4 a73d 11ec ad3d 0cf2 c1bd
00000280: d4af fb3d da2a 63bd ef2e 50be 8664 14be
00000290: 470c f83d 055f 0ebe 5f15 df3d 4338 21be
000002a0: f766 e9bd a715 373d 931e 90bd 7a43 1ebe
000002b0: cd02 0b3e 2bc9 8dbd 52a9 32be 09ea e9bd
000002c0: 32fd 303d 17f2 9fbd 3221 bcbc 4e47 10be
000002d0: 087a 5c3e 8fbe a4bd 8902 62bd e9fa dd3d
000002e0: b26a 7abd 2d00 213e a290 f4bc d879 503c
000002f0: 7b55 b4bd 39ef cabd 4bc3 9fbe ed74 abbc
00000300: 9611 38bd b074 c2bd f604 15be 7161 7abd
00000310: 5909 053e 0cd6 0fbe b142 87bd 2edd 773d
00000320: 281d 4d3b b69a 3c3e 29cb 23be 70b6 273c
00000330: f96c 1a3e 89a7 e3bd aa92 92bd 89f4 373e
00000340: d4fb 9b3c 9296 18be 3a3e b03d 39d7 8bbd
00000350: 11bc 45be fc42 243e 8357 79bd 5fef 983d
00000360: 6a70 31be 57ce 453e 726f b6bb 7f19 2cbe
00000370: 3ac0 743d 8b58 1f3e 5b52 50bd 91c5 a7bc
00000380: fbb6 d3bd 1ce6 ac3d 0b6a 9ebb 5f31 03be
00000390: ab0d c13d fca2 e8bd b089 c33c 82f8 033c
000003a0: c9a3 e83d b717 153e 7336 073e 91fb 663e
000003b0: 2043 22bd 8713 47be 5a05 10be 3d50 2a3e
000003c0: 4c15 07bd 06e3 573e 5901 0d3c ec18 8b3c
000003d0: 1784 d5bd 200b ab3c 0765 213e 1cb8 86bd
000003e0: 5f29 bf3d 1fb2 99be cfcd 2c3e b8b5 123e
000003f0: 9df5 3b3e 1065 573e 1bfc d7bc d5e8 683d

mixlayers.3.op.3.weight f4 [32]
0.6841399 0.67099303 0.717786 0.69576144 0.7226496 0.75642616 0.781492 0.7753814
0.6622984 0.7771907 0.68629676 0.73583406 0.6896102 0.740492 0.7028674 0.6811865
0.63366723 0.7535688 0.7403454 0.6907624 0.7316474 0.6988913 0.7237073 0.6892421
0.7126989 0.72799236 0.68353355 0.75186694 0.66854966 0.685401 0.7708398 0.65103775
00000000: cb23 2f3f 33c6 2b3f d3c0 373f 6c1d 323f
00000010: 90ff 383f 25a5 413f dc0f 483f 657f 463f
00000020: 638c 293f f8f5 463f 25b1 2f3f 9f5f 3c3f
00000030: 4b8a 303f e290 3d3f 1eef 333f 3d62 2e3f
00000040: 0438 223f e3e9 403f 4787 3d3f ced5 303f
00000050: 3e4d 3b3f 8aea 323f e244 393f 2c72 303f
00000060: 6f73 363f b55d 3a3f 0efc 2e3f 5a7a 403f
00000070: 1226 2b3f 7176 2f3f c255 453f 69aa 263f

mixlayers.3.op.3.bias f4 [32]
0.024486752 -0.014567377 -0.016694594 -0.04846282 0.046351135 0.13558076 0.075175285 0.052663412
0.16979146 0.1253737 -0.026811708 0.034134798 0.0022045595 -0.019557716 -0.007396893 0.038836714
0.1356756 0.11796776 0.0038930604 0.038188145 0.04725438 -0.015543699 -0.07004857 -0.0064048413
0.025312537 0.07269814 0.09261958 0.055278327 0.070419304 0.016608559 0.08861634 0.21451648
00000000: 7198 c83c 02ac 6ebc 1ac3 88bc f380 46bd
00000010: b0da 3d3d afd5 0a3e 80f5 993d 97b5 573d
00000020: d0dd 2d3e f761 003e 3aa4 dbbc eed0 0b3d
00000030: 5f7a 103b 8137 a0bc a361 f2bb 3f13 1f3d
00000040: 8bee 0a3e 1599 f13d b722 7f3b 2c6b 1c3d
00000050: cf8d 413d 00ab 7ebc a075 8fbd b4df d1bb
00000060: 3d5c cf3c c3e2 943d 56af bd3d 876b 623d
00000070: ff37 903d ac0e 883c 7c7c b53d 35aa 5b3e

mixlayers.3.op.3.running_mean f4 [32]
0.06443621 -0.035288043 -0.04727323 -0.027593972 -0.38113335 -0.1601339 -0.45718697 -0.38589218
-0.0012026872 0.023805851 -0.15448575 -0.07200002 -0.21430886 -0.12734517 -0.03990367 0.29658297
-0.08689159 0.008777807 -0.13409339 0.11937124 0.012692848 -0.05141701 -0.47628662 0.10438267
0.11317006 -0.13322386 0.027993875 -0.008611442 0.22470093 -0.032607276 -0.08899619 0.12930441
00000000: 22f7 833d 328a 10bd 93a1 41bd c10c e2bc
00000010: e923 c3be 24fa 23be 6914 eabe a993 c5be
00000020: 7ca3 9dba 7d04 c33c 8331 1ebe bf74 93bd
00000030: c873 5bbe c666 02be 0872 23bd b9d9 973e
00000040: 38f4 b1bd cad0 0f3c c74f 09be e978 f43d
00000050: aaf5 4f3c a59a 52bd d7db f3be 95c6 d53d
00000060: b4c5 e73d d66b 08be 6953 e53c 0117 0dbc
00000070: 0018 663e 358f 05bd a243 b6bd 6068 043e

mixlayers.3.op.3.running_var f4 [32]
0.039413087 0.02496988 0.038342286 0.117374435 0.07003278 0.04508307 0.07574962 0.11575579
0.07823985 0.05579224 0.023692371 0.03390367 0.039478417 0.038658258 0.038927604 0.09767518
0.13622127 0.10283969 0.0221764 0.044569906 0.0387419 0.02134593 0.0708236 0.0906353
0.036522657 0.057335842 0.11114315 0.07132836 0.14178558 0.035905346 0.06814759 0.07562025
00000000: 9e6f 213d a28d cc3c cd0c 1d3d 0262 f03d
00000010: 596d 8f3d 06a9 383d 9e22 9b3d 5f11 ed3d
00000020: 373c a03d 6786 643d 8116 c23c 93de 0a3d
00000030: 1fb4 213d 1f58 1e3d 8d72 1f3d ed09 c83d
00000040: 977d 0b3e 9e9d d23d 48ab b53c ef8e 363d
00000050: d4af 1e3d a9dd ae3c f70b 913d 009f b93d
00000060: c898 153d fdd8 6a3d 059f e33d 9a14 923d
00000070: 3d30 113e 7c11 133d f790 8b3d cade 9a3d

mixlayers.4.op.1.weight f4 [32, 1, 3, 3]
0.063014686 -0.15273917 -0.24869697 -0.13887505 -0.21299244 0.18088593 0.18454388 -0.09905796
0.18798672 0.16557972 -0.18125793 -0.034874644 0.15960313 0.160502 0.10265205 -0.1683028
-0.017043974 0.14853694 -0.23374838 0.17699103 -0.18586081 -0.23532015 0.033469364 0.10556467
0.0074748294 -0.038323306 0.1485823 0.035355955 0.16448356 -0.14241329 -0.17695282 -0.29212803
0.2725123 -0.21567231 -0.26169753 -0.16059244 -0.19190641 -0.13406046 0.14837961 -0.18518397
0.02291063 0.016976602 -0.21247907 -0.13750416 0.04650331 -0.20004278 0.08182306 -0.047727462
-0.20585498 0.32291037 0.13759667 -0.20073731 0.14141491 0.32504025 0.30043426 0.08417503
0.054703742 0.057718772 0.29713807 0.06698728 0.31357613 0.041251197 0.023411946 0.115338296
0.18673281 0.26264077 0.24190357 0.38842154 0.048442293 -0.074789986 -0.16173597 -0.05749994
-0.2388182 0.07483581 -0.24436232 0.19210762 0.16141543 -0.24613449 0.12911317 0.05149654
-0.30352515 -0.08904346 -0.19613357 0.01748299 -0.26358646 -0.18740553 0.06874089 0.3671226
0.3570311 -0.044291686 0.06851125 0.03113561 0.02206612 -0.1647813 -0.0026959942 0.13919911
0.059462328 -0.21607982 -0.11505513 -0.28598773 0.023310028 0.0598398 0.015882706 0.03135915
0.21377963 0.026902668 -0.26622075 -0.24530306 -0.02037474 -0.02723672 -0.12003892 -0.13783851
0.035455704 0.09742989 -0.19878305 -0.030878043 0.20141084 0.20612681 0.18892121 -0.21722713
0.0063875658 0.18345684 -0.12761576 -0.17137294 -0.09948144 0.10514689 -0.08926066 -0.0074245725
0.2622293 0.30058065 0.0648603 -0.118750036 0.2337975 -0.007663368 -0.11043502 -0.15861718
0.06666496 0.09173185 0.10604918 0.14460774 -0.22886854 0.34204346 0.080295675 -0.03884934
0.23879059 -0.14279528 0.23025452 0.00074309413 -0.3979893 0.07892858 -0.019314723 -0.38653257
0.3679504 -0.08351231 -0.011269153 0.0012131286 0.015930777 0.32240787 0.2640136 0.25989157
0.037543885 0.12539348 -0.10385635 0.22625346 -0.26675826 0.014273438 0.070293084 0.14097159
-0.033827644 -0.19802235 0.16078669 0.22010039 -0.038162146 -0.16267033 -0.04522202 -0.22785638
-0.020101983 0.20267275 -0.14355859 0.10824878 0.21172093 0.08250052 -0.20324174 5.6417863e-05
0.09576625 0.08373382 -0.14374615 0.19866833 0.0702898 0.022018885 -0.09569982 -0.23068024
-0.042622544 -0.07394328 0.113599904 -0.14271943 -0.012276992 -0.03137717 -0.05212728 0.1826744
0.12828226 -0.082052976 0.17015132 0.27901694 -0.10217841 -0.0964682 0.23771133 0.14421894
-0.17379183 0.027172344 -0.12531501 0.14273958 0.09353984 0.24100205 0.18039277 -0.10862501
0.26933697 0.09838646 0.107349135 -0.101257145 -0.17818299 0.039909866 -0.19666982 0.23982203
0.24607903 -0.12828869 0.2797755 -0.07509823 0.06201424 0.25477332 0.1767528 -0.14128754
0.19887418 0.20344596 -0.10526225 0.31845754 0.1571856 0.084806085 0.29586962 0.021027928
-0.069159575 -0.27590194 -0.22896281 -0.23702097 -0.16617566 -0.0493749 -0.004494138 0.00707547
0.109480634 -0.30723628 -0.28577176 0.19529352 -0.04906754 -0.31066117 0.10826942 -0.21883132
00000000: d80d 813d a867 1cbe 6baa 7ebe 4335 0ebe
00000010: b11a 5abe 293a 393e 12f9 3c3e e6de cabd
00000020: 977f 403e bb8d 293e ae9b 39be b7d8 0ebd
00000030: 016f 233e a35a 243e 3d3b d23d 9257 2cbe
00000040: ce9f 8bbc 111a 183e bc5b 6fbe 233d 353e
00000050: 4c52 3ebe c4f7 70be 2c17 093d 4a32 d83d
00000060: 6aef f43b e6f8 1cbd f525 183e 68d1 103d
00000070: 616e 283e cad4 11be 1f33 35be ce91 95be
00000080: bb86 8b3e 34d9 5cbe 38fd 85be 5872 24be
00000090: 1d83 44be 2547 09be d3f0 173e dea0 3dbe
000000a0: 13af bb3c 8412 8b3c 1d94 59be e4cd 0cbe
000000b0: 417a 3e3d 04d8 4cbe d992 a73d df7d 43bd
000000c0: a6cb 52be 8254 a53e 24e6 0c3e 158e 4dbe
000000d0: 12cf 103e ad6b a63e 85d2 993e f563 ac3d
000000e0: 0811 603d 856a 6c3d 7b22 983e a130 893d
000000f0: 0d8d a03e 04f7 283d 69ca bf3c 7c36 ec3d
00000100: e336 3f3e da78 863e 92b5 773e 30df c63e
00000110: 6d6b 463d 7e2b 99bd 1d9e 25be 0f85 6bbd
00000120: c28c 74be 8443 993d 1e3a 7abe dcb7 443e
00000130: 164a 253e ae0a 7cbe 3e36 043e 09ee 523d
00000140: a667 9bbe 6b5c b6bd 3dd7 48be 7d38 8f3c
00000150: cef4 86be 3ce7 3fbe 06c8 8c3d 7ef7 bb3e
00000160: c8cc b63e 336b 35bd a04f 8c3d 1b10 ff3c
00000170: 02c4 b43c 6ebc 28be 47af 30bb 368a 0e3e
00000180: c58e 733d 0744 5dbe 06a2 ebbd fc6c 92be
00000190: acf4 be3c 941a 753d 731c 823c 7472 003d
000001a0: 0ce9 5a3e fc62 dc3c 164e 88be ba30 7bbe
000001b0: ede8 a6bc 8b1f dfbc f7d6 f5bd 8a25 0dbe
000001c0: 003a 113d 5289 c73d c98d 4bbe f3f3 fcbc
000001d0: a53e 4e3e e812 533e 9074 413e ca70 5ebe
000001e0: c94e d13b 1cdc 3b3e b5ad 02be 637c 2fbe
000001f0: edbc cbbd 4157 d73d 4bce b6bd d449 f3bb
00000200: eb42 863e b5e5 993e 7ad5 843d 3833 f3bd
00000210: 9d68 6f3e fd1c fbbb c12b e2bd 8b6c 22be
00000220: a387 883d e8dd bb3d 5030 d93d 0d14 143e
00000230: 845c 6abe 5220 af3e 0f72 a43d 7c20 1fbd
00000240: 8585 743e ed38 12be d7c7 6b3e 34cc 423a
00000250: 41c5 cbbe 4fa5 a13d e939 9ebc 99e7 c5be
00000260: ff63 bc3e 8108 abbd 41a2 38bc d701 9f3a
00000270: 4381 823c a512 a53e ca2c 873e 8210 853e
00000280: 9ec7 193d 2667 003e a3b2 d4bd fdae 673e
00000290: 8a94 88be 23db 693c d2f5 8f3d db5a 103e
000002a0: db8e 0abd 5fc6 4abe 44a5 243e ff61 613e
000002b0: e94f 1cbd 0d93 26be ba3a 39bd 2f53 69be
000002c0: eaac a4bc 7289 4f3e 0601 13be 89b1 dd3d
000002d0: 5fcd 583e 08f6 a83d 9a1e 50be 38a2 6c38
000002e0: 1821 c43d a37c ab3d 3132 13be b66f 4b3e
000002f0: 19f4 8f3d f360 b43c 44fe c3bd 7137 6cbe
00000300: fa94 2ebd 936f 97bd 11a7 e83d 0b25 12be
00000310: 7025 49bc 5985 00bd 6a83 55bd ff0e 3b3e
00000320: 6d5c 033e 640b a8bd 263c 2e3e 4fdb 8e3e
00000330: ea42 d1bd 1f91 c5bd 996a 733e 21ae 133e
00000340: 7cf6 31be 8998 de3c 9452 00be 532a 123e
00000350: d191 bf3d 3ec9 763e e2b8 383e ca76 debd
00000360: 89e6 893e d77e c93d ddd9 db3d e85f cfbd
00000370: 9a75 36be 8778 233d d063 49be e893 753e
00000380: 24fc 7b3e 1c5e 03be bc3e 8f3e 1acd 99bd
00000390: a502 7e3d a671 823e b0fe 343e aead 10be
000003a0: aca5 4b3e 2354 503e bc93 d7bd de0c a33e
000003b0: 43f5 203e d0ae ad3d 397c 973e c342 ac3c
000003c0: 89a3 8dbd 0543 8dbe 3a75 6abe a0b5 72be
000003d0: f429 2abe 563d 4abd 9043 93bb 58d9 e73b
000003e0: 6237 e03d 134e 9dbe ad50 92be 06fb 473e
000003f0: 0bfb 48bd fb0e 9fbe 5cbc dd3d 5115 60be
