Train-KMNIST_train_no_crop_dropout-20240404-090140/weights.pt (torch, 183696 bytes, 97 tensors)

stem.0.weight f4 [4, 1, 3, 3]
00000000: b620 39be ce36 203d 3b61 06be d89d 8d3b
00000010: 543b 3a3e eeb6 39bd eabf 303e 0458 9e3c
00000020: 97fe 0d3e 675a 26be 9cc1 103e 49cd 813d
00000030: 4e0a b93e 9a73 f73d e720 373d f4c5 763e
00000040: 7deb adbe 3230 d2bd 693b 823e d1ff 6fbe
00000050: fed5 45be 9a9a 323e c7af e9be d7b4 1cbe
00000060: 658b 093e 78d1 253e e2da 533e b0f0 043e
00000070: f9c2 34be 40e4 16be d0f2 8ebe 3e93 c2be
00000080: 7208 0ebe 7165 b0bd d418 a53c 33af 6f3d
-0.18078884 0.039114766 -0.13123028 0.004321795 0.18186694 -0.04534047 0.1726071 0.019329078
0.1386665 -0.16245423 0.14136356 0.06337983 0.36140674 0.12082596 0.044709112 0.2409895
-0.33968726 -0.10263099 0.2543595 -0.2343743 -0.19319913 0.17441788 -0.4564192 -0.1530336
0.13432081 0.16193187 0.20688966 0.1298244 -0.17652501 -0.14735508 -0.27919626 -0.38002962
-0.13870409 -0.086130984 0.02015344 0.058516692

stem.1.weight f4 [4]
00000000: 78c2 3c3e 125e 823e d047 7f3e 1fe2 d43e
0.18433559 0.25462395 0.24929738 0.41578767

stem.1.bias f4 [4]
00000000: 0961 033e 8a8a e73d 2ad9 1b3e f64f 403d
0.12829985 0.11305721 0.1521956 0.046951257

stem.1.running_mean f4 [4]
00000000: 0beb 653b a0df 103c 220d 1a3c d5f3 b9bc
0.0035082723 0.008842379 0.009402545 -0.022699276

stem.1.running_var f4 [4]
00000000: f421 c83d cee0 693e d9c6 8d3e debd 533f
0.09772101 0.22839662 0.2769077 0.8271159

mixlayers.0.op.1.weight f4 [4, 1, 3, 3]
00000000: 6f72 d3bd 5753 0f3e 4e47 0fbe 36d7 0cbd
00000010: a193 263d 2baf 1cbe b6fb ff3d 5e87 2a3e
00000020: cde8 1c3e 1844 dcbd fa99 b7be f962 273e
00000030: 0005 3d3d 880f bf3e 110a 1a3e a488 543c
00000040: b1fc 053e 2c13 b0bd 1b5e 0f3e f311 32be
00000050: 1dfe d9bd 16df c73d fcf6 2b3e ef2c fdbd
00000060: 49fb 1e3e efc1 c33e 9a7b 113c 2560 30bd
00000070: 77d6 9abd 71f8 8cbc 751f 2c3e a8d0 e83e
00000080: 08e2 313e 8e19 90bd c418 013e 4278 6f3c
-0.10324561 0.13996635 -0.13992044 -0.03438493 0.040668134 -0.15301196 0.12499182 0.16653201
0.15323181 -0.10755175 -0.35859662 0.16346349 0.046147346 0.37316537 0.15042903 0.012972031
0.13084675 -0.08597407 0.14000742 -0.1738966 -0.106441714 0.09759347 0.16793436 -0.12362086
0.15525545 0.38233897 0.008879567 -0.04306044 -0.07560437 -0.01720831 0.16808875 0.45471692
0.1737138 -0.07036124 0.12607104 0.014616074

mixlayers.0.op.2.weight f4 [16, 4, 1, 1]
00000000: f23b 803c 0ece 963c a1eb bf3d 2233 1c3e
00000010: 5810 18bd c729 d6bd abde 45be 601f de3b
00000020: 3302 36bd 9962 6bbe ff1c 2dbd c549 65bd
00000030: e119 a73c 1f34 2fbe d796 57bd 9de5 ce3d
00000040: a840 583e 28a0 143e c262 aabd 1937 92bc
00000050: 082b 86bd b005 d63d 2709 933d 06ed 1abe
00000060: 349f 6bbd 97cf 243c ed5f 69bd 11fe 203e
00000070: ada4 df3b 1952 a03d cd55 98be adef 16be
00000080: b333 15be 2561 ca3d 30f7 eabc c8f8 24be
00000090: cd80 4f3c 8a56 2b3c 79d8 5cbe 12c7 00be
000000a0: d6d6 ea3d 7985 51bc f95f 273e 6319 0fbe
000000b0: 4e9e 0c3d 8366 51bd 4a5c db3c 48bf 873e
000000c0: 634c 3abe a0bb 2b3e 845a 1f3d 603c 91bc
000000d0: 06b8 e6bd b9a2 88bd ec00 d4bd 17e8 773d
000000e0: 923b f43d 90d4 7dbe dc02 f73c 50c5 1e3e
000000f0: 235e e8bc 87ca e93d 5496 8f3c 4d53 3a3e
0.015653584 0.018408801 0.093711145 0.1525388 -0.03712496 -0.10457187 -0.19323222 0.0067786425
-0.04443569 -0.22986831 -0.04226398 -0.055978555 0.020398082 -0.17109726 -0.052634086 0.10102389
0.21118414 0.1451422 -0.08319618 -0.017848538 -0.06551176 0.104503036 0.0717948 -0.1512948
-0.057524875 0.010059259 -0.056976248 0.15721919 0.006825051 0.07828159 -0.2975296 -0.14739867
-0.14570503 0.0988181 -0.028682321 -0.16110528 0.012664986 0.010457644 -0.21566953 -0.1257594
0.11466758 -0.01278817 0.16345204 -0.13974528 0.03433066 -0.051123153 0.026777405 0.26513124
-0.18193202 0.16770792 0.03890468 -0.017728984 -0.112655684 -0.06671662 -0.10351738 0.060524072
0.11925425 -0.24788117 0.03015273 0.15504956 -0.0283652 0.11415582 0.017527737 0.18195839

mixlayers.0.op.3.weight f4 [16]
00000000: 695c 8e3e 2f28 633e 1f75 2a3e 7d87 5b3e
00000010: bd81 343e 382e 1b3e 346d 6c3e 8adc 343e
00000020: c283 503e ae12 4d3e 8f64 6c3e 1f60 923e
00000030: 3edb 4f3e 86ba 4f3e 2df3 893e 3614 3e3e
0.27804878 0.22183298 0.1664624 0.21438403 0.17627616 0.1515435 0.23088533 0.17662254
0.20362762 0.20026657 0.23085235 0.2858896 0.20298478 0.20285997 0.2694334 0.18562397

mixlayers.0.op.3.bias f4 [16]
00000000: d1db 063d 6433 7b3d d7b6 0e3e 9313 753d
00000010: 899f 97bc cdc0 7c3d b878 32bc beb9 3b3e
00000020: b9b9 5d3d 8525 c03c 83eb 6dbd 96de d43c
00000030: a50a 2ebd 8e1d 793d 6a96 943d 7b14 253d
0.032924477 0.061328307 0.13936935 0.05983312 -0.01850869 0.061707307 -0.010893039 0.18332574
0.054132197 0.02345539 -0.05808593 0.025985043 -0.04249062 0.0608192 0.07255252 0.040302735

mixlayers.0.op.3.running_mean f4 [16]
00000000: 2571 093d 68c4 cdbc 54c2 c2bc 3ad1 1e3b
00000010: aae3 123a 6ef9 41bc 4565 813c a1e1 4bbd
00000020: 7dad d8bc 9562 26bd 8046 ddb9 10a9 253d
00000030: e415 733b 9382 05bc bf5c 983c cf9d 053d
0.03355517 -0.025118068 -0.023774303 0.0024233595 0.00056033826 -0.011839254 0.01579536 -0.049775723
-0.026449913 -0.04062136 -0.0004220493 0.040444434 0.0037091905 -0.008148807 0.018598912 0.0326212

mixlayers.0.op.3.running_var f4 [16]
00000000: 21e5 c439 e6d3 013a 79d5 2b3a 129d 433a
00000010: f968 1e3a dcd3 0d3a a57e 6739 da7e 043b
00000020: 56e8 523a 3de4 6f3a d9ae 003a 7f91 7f3a
00000030: 4f6b 113a 9913 9b39 e06e 023b 6985 6439
0.00037554748 0.0004952535 0.0006554942 0.0007462065 0.0006042864 0.00054102927 0.00022077055 0.002021721
0.0008045485 0.00091511366 0.0004908867 0.00097491586 0.0005547301 0.00029578505 0.0019902512 0.00021793474

mixlayers.1.op.1.weight f4 [16, 1, 3, 3]
00000000: 4bae 1e3e 5663 cdbd 4237 11be fbbd 7e3d
00000010: 0e38 d23d 60dd 7abd a099 bebc c5ae 8abd
00000020: 5ff1 9fbd ac1f cfbc 08c3 013e 8b0d 073d
00000030: e742 d53d 746d 063e f66a 25bd f542 d6ba
00000040: ee4e 02be ea17 79bd 56c1 433c f27c 1cbd
00000050: 121d 0b3e 339c 8bbc a883 dd3a 1a94 5e3e
00000060: 3dd7 b3bd ca33 5a3b 7c8f ad3c 1721 b3bd
00000070: d37b 92bd 91e8 943d c90b ff3a 3bc2 923d
00000080: acaa ee3d e052 c6bd bfc0 ba3d 337e 573c
00000090: 8a40 41bb b4dc 9a3d 52ca 133e a74e 86bc
000000a0: bfc2 03bd 1e7d ee3d ef4a 16bd 4d86 053e
000000b0: b1d5 f13d dbc1 d83a 4efa a03d c897 fe3c
000000c0: 24db d53d f01a 0f3d 549e 8cbc f6c7 0bbe
000000d0: d258 0abe e4d4 f2bb b976 0bbe 4d9f cfbd
000000e0: 4d64 0d3d bee3 24bc 19fe a63d 70c9 883d
000000f0: e6d8 f0bc 83e9 603d aafb 36bc 22db d53c
00000100: e9f7 4fbe c223 cfb9 f557 373d aa98 94be
00000110: 1b07 eabd 1e85 883e db61 5a3d 0578 efbd
00000120: 193a 363d 77d6 5c3d 21f2 b53d 06a7 b2bd
00000130: 7523 7bbe c511 c5bd 5e1f f539 df87 babd
00000140: a4f4 cd3c 0436 13be e271 ffbd f234 e33c
00000150: e3fe 60bd 3e3e a13d f6ab 6f3c a29e 103e
00000160: f7d5 1c3e 96e5 8cbd f413 7dbe 90af d13c
00000170: 6178 803d 4265 d2bd 5e8e 113c 3025 0cbd
00000180: 304c c1bc 11ef 023d 4856 02be dce3 90bd
00000190: 106a 97bc e51d 72bd 6480 eb3c 7f3c 0cbe
000001a0: 2db6 5cbe 7545 163e a689 c8bd ccb0 143d
000001b0: 2e40 ec3c 8a08 1abe 65d2 1e3d af1f 0abe
000001c0: 8232 5bbd 8819 643d 3622 94bd 9bcd a5bd
000001d0: 4910 20be 58e1 1ebd c2a6 4bbd 1e13 9bbc
000001e0: 3589 d3bd dc77 6ebd 5eb1 1c3c 92a5 c1bd
000001f0: 08dc 093d 9c84 3dbd 6782 0e3c 4819 f03d
00000200: 8553 283e ac77 d6bc 46fd 1d3e d67f 463e
00000210: a599 07be 40bf d53c 6dc2 26bd 451e 1c3e
00000220: f7d4 4a3d 7b95 50bd 039f 4d3c da68 67bd
00000230: 4f0b 2f3d cee3 013d dcba 49bc 2ef1 acbd
0.15496175 -0.100287125 -0.14181235 0.0621929 0.10264598 -0.061246276 -0.023266613 -0.06771616
-0.0780971 -0.025283657 0.12672055 0.0329719 0.10413151 0.1312769 -0.04038521 -0.0016346859
-0.12725422 -0.06081382 0.01194795 -0.038205095 0.13585308 -0.017042255 0.0016900199 0.21736184
-0.08781288 0.003329503 0.021186583 -0.08746546 -0.07152524 0.07270921 0.0019458468 0.07165953
0.11653647 -0.09683776 0.09118795 0.013152647 -0.0029487931 0.07561627 0.14432648 -0.016394926
-0.032168146 0.11644958 -0.036692556 0.13039513 0.118083365 0.0016537266 0.07860242 0.031078234
0.104421884 0.0349378 -0.01716534 -0.13650498 -0.13510445 -0.0074106324 -0.13619508 -0.10137806
0.034519482 -0.010064064 0.08153934 0.06679046 -0.0294003 0.054910194 -0.0111684 0.026105467
-0.20309414 -0.00039508758 0.044761617 -0.29022723 -0.114271365 0.2666406 0.05331598 -0.11692814
0.044489 0.053915467 0.08884073 -0.087232634 -0.24525245 -0.0962253 0.00046753412 -0.091079466
0.025141068 -0.14376074 -0.12472893 0.027735207 -0.05493058 0.078732 0.014628401 0.14123014
0.15315996 -0.068797275 -0.24714643 0.02559641 0.062729605 -0.1027322 0.008884041 -0.034215152
-0.0235959 0.031966273 -0.12728226 -0.07074711 -0.018483192 -0.05911054 0.028747745 -0.13694952
-0.2155387 0.14674933 -0.09791879 0.03630142 0.028839197 -0.1504232 0.038774867 -0.13488649
-0.053514965 0.05568841 -0.07233088 -0.08095857 -0.15631212 -0.038789123 -0.04971958 -0.018930014
-0.103289045 -0.058219776 0.009563772 -0.09455408 0.033657104 -0.046269044 0.0086980825 0.11723572
0.1643811 -0.02618011 0.15428647 0.19384703 -0.13242204 0.026092172 -0.040712763 0.15245922
0.049519505 -0.050923806 0.012550118 -0.05649648 0.042735394 0.031711392 -0.012312617 -0.08444439

mixlayers.1.op.2.weight f4 [16, 16, 1, 1]
00000000: 23a0 e0bb af44 193d 788b 08be d68d bcbd
00000010: ce98 9c3d 3a70 d13d 6a76 b0bd f7da a8bd
00000020: f106 acbc 0b87 85bc 9396 c83d 4fe0 b43d
00000030: 7573 9b3d 4d9f 25bd 867e 10be 1546 913d
00000040: ff6e ae3d 2356 dfbd e487 903d fd50 543d
00000050: ac9e d93d 03cb 21bc a1e1 1fbd 08af 943d
00000060: 6135 8c3d 026f ee3d 637d 3d3d ceae 44bd
00000070: ba24 88bd 86e4 b73d 3f0d fa3d 56d1 c1bb
00000080: da48 5c3d be36 8ebd 8c61 473a d4f2 65bc
00000090: 557a 7cbb d47c 093d 8d90 c73c e4ab 293d
000000a0: 0eee 633d 479d f33b 5ab6 35bd aa7d 7dbd
000000b0: 7ccd 33bd 4d93 f93a 816a 3b3d 0457 d53b
000000c0: f5ef ae3c 965b aa3d b10d c5bc 02fd 7bbd
000000d0: 5f26 35bd c57c 12be 8736 6abd 0a67 9dbd
000000e0: 312c aebd 9586 ce3d 5a69 04be 8c25 a93b
000000f0: 9d3a 193c 719f cbbc 2182 dc3c 80a6 3b3c
00000100: f377 873d 3506 be3c 2ee2 71bc de08 2cbd
00000110: ba02 be3c 7385 193d 4516 5c3b 27c3 6fbe
00000120: ed87 bb3d bb0e f6bc 9ec6 9d3b b756 363d
00000130: 5009 153e f676 b9bd 4511 3ebc 36a9 d93c
00000140: b715 b6bd 8be0 8cbd 5737 d6bd b7bc f0bc
00000150: 498b b13d 0b0d df3c 3144 08bc cc6b 30bd
00000160: 48e0 20bd d8ff 5abb 8ebf d7bd 0001 183e
00000170: 5de3 15bd 415a 9d3d 6a25 0cbe 94ed 213d
00000180: df67 70bd 809b 1bbd 3586 01bd 8bd8 43bd
00000190: ab01 10be 73ba 1c3c aa51 8ebb a3a0 2d3e
000001a0: d6cb 0c3e a1fc 3d3b 9dbc f9bd e703 6a3d
000001b0: f593 593e 0ad1 973d acc2 893c 142e 66bd
000001c0: b34a f13d 7694 053e b9b0 48bd 9c0f 28be
000001d0: 8f44 b33d e551 f4bd be98 0abe 4e9b 7ebb
000001e0: 94bf 8fbd 9fa3 203e 0713 25be 6839 373e
000001f0: a94c 093e e6d0 88bd 83a2 f8bd 3c6a cc3d
00000200: af55 ddbd bc96 163d 8579 d1bc b8a3 bdbc
00000210: 5488 d2bc 2d1a 24bd 1586 a53a bca4 f13d
00000220: f0e2 df3c d791 0ebd 5e97 d43d d1e7 cb3d
00000230: bd4c c83c 9233 643d 1f46 6ebb bc18 25bd
00000240: 5ecf 0dbe 8ae0 713c f608 f8bd 65d2 eebc
00000250: ed3e 15be b2a1 d338 3171 b2bc 0699 1cbe
00000260: fc85 f0bd 36ef 1ebd 065b 113e c545 d43d
00000270: 0759 65bd 37a8 71bd 1dbc 1bbe 9446 953c
00000280: 1989 603d 6075 5b3d 9406 b3bc 45f8 b53c
00000290: f686 f3bc 80b1 6fbb 2349 b4bc 9df2 dabd
000002a0: 731a ddbd 74e1 0cbd 7c56 a8bd 84d5 dc3b
000002b0: 2c61 5ebd 421f 63bc 942d b93b 1d26 9bbc
000002c0: 8cf7 c43d c597 66bb 964e b3bc a3c9 b6bb
000002d0: 6ca9 1a3e 831f 4abd 08ac 77bd f2b6 06be
000002e0: 5ec0 a1bd 8746 0f3d fa0d 313c 85fc 0f3d
000002f0: 8d3e 89bd 533f fb3c 6993 26bd b4d1 9bbc
00000300: 30f2 2c3d b034 1b3e 679f 16bd 2a9e 53bc
00000310: 8747 3f3b 8bb4 9cbd 1bc9 81bb 5021 c13c
00000320: 7807 d1bd bdb9 bf3d 50ea bf3c bc53 b3bc
00000330: 7077 99bb ddbb e4bc ac7b ba3d 78d6 3dbb
00000340: b5ab 8a3d 1996 89bd d52e 7dbb d34e 9dba
00000350: 1a4d 9d3b dce5 30bd ed71 e6ba 9557 e33d
00000360: 975b 35bc 56be aa3d 82d7 12bd f9f6 883d
00000370: 0e50 28bd 8a0d 463c 29fa 73bd d8d2 7bbc
00000380: f8b2 8a3b c735 e23b a6d0 48bd 37d0 453c
00000390: e5d9 b53d 08d6 0ebd dbf3 f0bc 361c 22bd
000003a0: 18cf a3bd 49b9 f93d fafc d13c d06f 9b3d
000003b0: e61b 9abd b8e2 d3bb 7aea 9b3c de3b 95bb
000003c0: 617f be3c c654 e4bc 552b 6ebd dd13 44bb
000003d0: 9a37 b53d c78e 3cbc e4b9 55bd c106 ca3d
000003e0: 9ccc 883d 187c e03d 7d04 c1bc 9351 07be
000003f0: 4a4a 9abd 3d25 843a 8b4c 033e 037d ab3d
-0.0068550273 0.037419017 -0.13334453 -0.092067406 0.07646333 0.10226484 -0.08616336 -0.08244889
-0.020999404 -0.016299745 0.09794345 0.08831846 0.07590381 -0.040435124 -0.14110765 0.07093445
0.085172646 -0.10905101 0.07057169 0.05183505 0.106259674 -0.009875062 -0.039033536 0.07259947
0.06846119 0.11642267 0.046262156 -0.04801827 -0.0664763 0.08979134 0.12209558 -0.0059148474
0.053780414 -0.06944035 0.0007605783 -0.0140349455 -0.0038525064 0.03356631 0.02436092 0.041423693
0.05564695 0.0074345204 -0.044363357 -0.06188742 -0.043897137 0.0019041091 0.045755867 0.006510617
0.021354655 0.0831825 -0.02405438 -0.061520584 -0.044226047 -0.14305408 -0.057180908 -0.07685669
-0.085045226 0.10084263 -0.12930813 0.0051619466 0.009352353 -0.024856301 0.026917519 0.011453271
0.066146754 0.02319632 -0.014763398 -0.042000644 0.02319466 0.037480783 0.003358261 -0.23414288
0.09156785 -0.03003632 0.004814937 0.04451629 0.14554334 -0.09055893 -0.011600797 0.026569944
-0.088908605 -0.06878766 -0.10459774 -0.029386861 0.08669145 0.027227899 -0.008317039 -0.043071553
-0.03927639 -0.0033416655 -0.10534583 0.14844131 -0.036593784 0.0768323 -0.13686147 0.039533213
-0.05869281 -0.037990093 -0.03162213 -0.047813933 -0.14063136 0.009565937 -0.004343231 0.1695581
0.13749632 0.002898969 -0.12194178 0.057132628 0.21247847 0.07412918 0.01681646 -0.056196287
0.11781826 0.13044915 -0.04899666 -0.16412205 0.08753311 -0.11929683 -0.13534829 -0.0038849893
-0.070189625 0.15687416 -0.1612054 0.17892992 0.1340815 -0.06680469 -0.12140372 0.099812
-0.108073585 0.036764845 -0.02557064 -0.023149356 -0.025699772 -0.040064026 0.001262846 0.11798999
0.027329892 -0.034807052 0.103804335 0.09956325 0.024450654 0.055713244 -0.0036357713 -0.04030679
-0.13848636 0.014763007 -0.12111084 -0.029153058 -0.14574786 0.00010091382 -0.02178249 -0.15292749
-0.117443055 -0.038802348 0.14194879 0.1036487 -0.055993106 -0.058998313 -0.15208478 0.01822213
0.054818247 0.053578734 -0.021853723 0.02221311 -0.02972744 -0.0036574304 -0.02200753 -0.10690806
-0.107960604 -0.034394696 -0.082196206 0.0067393202 -0.05429189 -0.013862433 0.0056511853 -0.018939072
0.09617528 -0.0035185677 -0.021888059 -0.005578236 0.15103692 -0.04934646 -0.060466796 -0.13155726
-0.07898019 0.03497937 0.010806555 0.03515293 -0.06701384 0.030669844 -0.040667925 -0.019020893
0.042223155 0.15156817 -0.03677311 -0.012916127 0.002918692 -0.07651623 -0.003960741 0.023575455
-0.10206503 0.09361599 0.023427159 -0.021890514 -0.0046834275 -0.027921611 0.0910562 -0.0028966945
0.06771032 -0.06718082 -0.003863265 -0.0012001641 0.004800451 -0.04318796 -0.001758156 0.11100689
-0.0110692 0.08337085 -0.035850056 0.06687731 -0.04109197 0.012088189 -0.059564743 -0.015370093
0.0042327605 0.0069033834 -0.049027108 0.012073568 0.08879451 -0.034872085 -0.029413154 -0.039577685
-0.079984844 0.121935435 0.025633324 0.07589686 -0.075248525 -0.006466236 0.019032706 -0.004554256
0.023254098 -0.027872454 -0.058146793 -0.0029919066 0.08848496 -0.01150865 -0.052179232 0.098645695
0.06679651 0.10961169 -0.02356171 -0.13214712 -0.07533701 0.0010081899 0.12822168 0.083734535

mixlayers.1.op.3.weight f4 [16]
00000000: c613 513e 4e9c 653e 42b7 683e 5166 3f3e
00000010: 7e8c 693e 0a30 493e d95f 873e 1f53 4c3e
00000020: 6368 8a3e 85a7 683e 8a15 373e 53ee 433e
00000030: 607e 703e c528 3c3e 63c6 153e b410 723e
0.20417699 0.22422907 0.22726157 0.18691374 0.228075 0.19647232 0.26440313 0.19953583
0.27032766 0.22720154 0.1787931 0.19133882 0.23485708 0.18374927 0.1462646 0.23639184

mixlayers.1.op.3.bias f4 [16]
00000000: c93c 953c 288d c13d b89d 813c 1a88 bb3d
00000010: 8f86 663b 4b09 bd3d a313 823c bd99 3e3e
00000020: 0101 9fbd d408 223e f292 ad3c ff29 9f3c
00000030: 5200 23bd c7dd 49bd cd5c 8b3d 5cc9 4a3d
0.018217461 0.094507515 0.015822276 0.09156819 0.0035175418 0.09230288 0.015878504 0.18613334
-0.07763863 0.1582368 0.021188233 0.019429205 -0.039795227 -0.04928377 0.0680481 0.049508438

mixlayers.1.op.3.running_mean f4 [16]
00000000: 3770 72bc e5b1 a83b 223f fe3a 80a6 453c
00000010: d807 e23b 7655 6abc 92c8 ecbc c315 4fbc
00000020: dd92 9dbc a42b 0dbc a471 4e3c 5aa0 073c
00000030: 5ee6 2c3c a978 77bc fb22 b13b 04d7 353c
-0.014797262 0.00514816 0.0019397477 0.0120636225 0.0068979077 -0.014302602 -0.028904233 -0.012639466
-0.019235069 -0.008616362 0.012600336 0.008277977 0.010552971 -0.015104451 0.0054057813 0.011098627

mixlayers.1.op.3.running_var f4 [16]
00000000: 1a4d 0b3a 702e 6a39 26f4 cc38 b7b9 5939
00000010: e141 0f3a 1c07 103a 7173 813a e0de 593a
00000020: a966 f738 2e48 3e3a 681e 5d39 5ef4 353a
00000030: 2eae ff38 c44f 2d39 90f3 9739 2ee3 b839
0.0005313918 0.00022333278 9.772954e-05 0.00020763917 0.0005464834 0.00054942234 0.0009876323 0.0008311104
0.00011797 0.00072586804 0.0002108753 0.00069410156 0.00012191791 0.0001652828 0.00028982433 0.00035264477

mixlayers.2.op.1.weight f4 [16, 1, 3, 3]
00000000: 7a14 183e 7fe4 bb3d 8f1f 4abd fe2d 263e
00000010: f7e4 943c a8ac b7bd 05ef 70bc cd5c 69be
00000020: 1279 92bd 9eee b9bd aab8 d5bd d076 aabd
00000030: 6bb0 553d 1145 91bb 0f68 90bc 06f7 353e
00000040: b5aa 033e 0b3a 52bc 8e5d 47bd b736 153d
00000050: 1e45 b13d 8c7b 1dbd 307c b53c 4f4b 8e3d
00000060: 0267 dabd f6a6 76bd 63a1 d03c e691 76bd
00000070: 639d 583d 9d6b 923d 6495 043e 85e4 313e
00000080: 6da6 7abd 4b30 34bd 4d61 f9bd 8570 f0bd
00000090: 0360 333d b96a 173e 9d08 723d cbd0 8fbd
000000a0: 5f0d 313e 9372 0e3e b3a7 0fbe 02a7 b2bd
000000b0: 85f8 41bc 20d6 2bbe 3a1d ae3d 1b87 0c3e
000000c0: 32b7 4dbe d67d 903d 77ba 523d 7a3d 2abe
000000d0: 8919 ac3d ad53 f53c 18f8 963c e7c0 f33d
000000e0: e8ec f33d a346 6d3d c40d ce3d e0a5 293e
000000f0: 23d6 4b3d c663 453d 9e30 753d 6088 9abc
00000100: 04da 59be ec2e db3d be74 89be 99c6 983d
00000110: 47e8 373e 21d6 01bd 6fd3 883e 325b 96bb
00000120: d219 e4bc dad0 063e 2d89 a138 5377 733d
00000130: 8571 59bc dc6b fbbd e8dc 033e 3e08 cdbd
00000140: adbe 0ebe 6755 54be 01dc 4dbe 78e1 d93c
00000150: 5cbf 213e 7324 edbc d423 77bd a0a1 8f3e
00000160: 5fcd 143e 0322 923d 3b13 72bc 579f 4dbd
00000170: 3b22 cabd e30a 94bd 2295 18bb cf13 a8bc
00000180: 14de cbbd f5b4 26bd 6d00 70bc 442c dc3d
00000190: 767b c8bd b1c9 8cbd 1247 85bd 557c e6bd
000001a0: 4987 b83d 9b48 f2bd 8cd9 05be d3bd 833d
000001b0: 8e05 7fbd 3429 fabd b905 78bd 10b6 893c
000001c0: 157f 453b 745f 673d 9dde 05be ee84 cbbd
000001d0: 60b4 723d 6b7b 7b3d 29d8 8dbd a83d 24bd
000001e0: d905 393d aced 543d ea34 663d d909 443d
000001f0: a78a 553d ec64 e93d 4736 b13a 1e1b df3c
00000200: af43 82bd ffdf 20be 951d c0bd 78e6 40bc
00000210: e163 10bd 711a 42bd 3dea b63d d969 643d
00000220: d5ba b73d 0728 ba3d 3a5d 2f3d 7d9c d83d
00000230: 69c0 2d3e dbf2 bbbd f1ea 99bd 7194 f73c
0.14851561 0.091744415 -0.049346503 0.16228482 0.018175585 -0.089684784 -0.014705424 -0.22789307
-0.071519986 -0.09078716 -0.104356125 -0.08323443 0.0521702 -0.004433282 -0.017627744 0.17770013
0.12858088 -0.012831221 -0.048673205 0.036429133 0.08655761 -0.0384479 0.022153944 0.06947958
-0.106641784 -0.06021782 0.02546758 -0.060197733 0.05288447 0.07149432 0.12947613 0.1737233
-0.061193872 -0.04399137 -0.12176762 -0.117402114 0.043792736 0.14786805 0.059090246 -0.07022246
0.17290257 0.13910894 -0.14028816 -0.087232605 -0.011839037 -0.16780901 0.08501668 0.13723414
-0.20089415 0.07055251 0.051447358 -0.16625014 0.08403308 0.029947126 0.018428847 0.119020276
0.11910421 0.057928693 0.10061219 0.16567183 0.049764764 0.048190854 0.059860818 -0.018863857
-0.21274573 0.10702309 -0.2684688 0.074597545 0.179597 -0.03169835 0.2672381 -0.004588508
-0.027844343 0.13165608 7.702629e-05 0.05943997 -0.013271694 -0.12276432 0.12877238 -0.10011338
-0.13939925 -0.20735703 -0.20103456 0.02659677 0.15795654 -0.028948044 -0.060336903 0.28052998
0.14531468 0.071353935 -0.014775093 -0.050200786 -0.0986981 -0.07228639 -0.002328225 -0.020517258
-0.099544674 -0.040699918 -0.014648539 0.107506305 -0.09789173 -0.06874407 -0.06507696 -0.11254183
0.090101786 -0.11830255 -0.13071269 0.064326905 -0.062261157 -0.1221489 -0.060552333 0.016810447
0.0030135561 0.056487516 -0.13073201 -0.09937464 0.05925405 0.061396997 -0.06925995 -0.040097862
0.045171592 0.051984474 0.056202807 0.047860954 0.052134182 0.113962024 0.0013520204 0.02723461
-0.06360566 -0.15710448 -0.09380642 -0.011773698 -0.035251502 -0.047388498 0.08931396 0.055765007
0.08971182 0.09089666 0.042813517 0.10576723 0.1696793 -0.091771804 -0.07515515 0.03022215

mixlayers.2.op.2.weight f4 [16, 16, 1, 1]
00000000: 8a8e 31bd 0624 c33d 99bd a2bd 69a5 59bb
00000010: a2b9 813d c4b1 73bd 67c7 a53c e78b 043d
00000020: 5fc0 b2ba ff13 8f3c 5234 39bc 8d7b 083e
00000030: eee5 d7ba 0d7c 5c3d 63f4 553d d18d 8cbd
00000040: 411a cc3d 1022 e73d 24be 7abc ffaa c6bc
00000050: 0f27 353e d9df de3d 0dd7 b2bd 61a2 01bd
00000060: e3ff 8b3d f357 94be 92ea 0cbd 4550 b33c
00000070: b64d 32be 2292 123d c1f0 4a3d c5dd b4bd
00000080: c4fc d1bd 52a7 4fbd 5dc9 83bc b7fc 26bd
00000090: 0be3 7cbd 317a c53d f1a7 12be 8aa5 523e
000000a0: 7765 e9bd 5d99 4a3c e2db 063e 84ed 1f3d
000000b0: faee c8bc dbba 24bd 4530 a53c 9a94 f3bd
000000c0: d9cb 59ba 8b24 e4bd 00cd cf3d 31e9 15be
000000d0: fddb 03bd 87b6 d5bd 4db2 723d 5ae1 86bb
000000e0: f665 9b3d 9716 103e 4e78 7fbd 649a 3e3c
000000f0: 6ff2 963d 91f3 b3bd 40a1 6ebb 6546 193c
00000100: 7d88 bdbc 2bb0 51bd 7a73 36bd 65ff e23d
00000110: db40 babd e484 f8bc ab0a f3bd d7f6 8dbd
00000120: 7b47 1d3e 8e1e 1c3d 1a9e e4bd 155f 99bd
00000130: ee66 f2bb 52cd bbbd 5161 1abe b911 babd
00000140: 2c0a 7b3d e7a6 653d bd4b 5ebd 9bc3 9cbd
00000150: 9690 d9bc d570 c2ba 60f0 2fbe a792 163e
00000160: 49b4 73bd 74a6 873d bf3c 4cbd ecfc 4cbe
00000170: c1df 73bc ae68 fb3d 000c a1bd 86ed f7bd
00000180: 46fb 22bd f7e7 15bd e750 3e3d 57e7 2fbd
00000190: 56ff 0f3d 0f72 cfbd 234b 883c e439 b63d
000001a0: 6fc7 21bd 9649 3ebd 207d f3bc eb45 89bc
000001b0: b6d6 c3bd 1f2d b93c fe7a 52bd a694 c53d
000001c0: 7f98 b93d 2646 aebd b6bf e23d 4e7a 073d
000001d0: 28c8 82bd 1b62 4ebe ed25 803e 79dc 28bd
000001e0: 2f4d a0bc cb52 483d 2083 b03c 5d36 edbd
000001f0: 3ca6 3c3c 213c a83d 57a9 59bc 3396 003d
00000200: 38c8 333e 70b7 e03c 68ea 16bb 8d83 213d
00000210: 482e 83bd 3c76 68be 92ba 1b3d 6542 08be
00000220: 1185 ab3c 3d89 b6bd 43df 5d3c 08a4 963d
00000230: 4a70 e73c 3e54 a9bc 0257 5fbd 84b0 94bd
00000240: 416f 58bd 9ee7 26bd c1f7 3b3d 162e 0b3d
00000250: e67d 113e 0dcc 6d3d f9cd 86bd d66c 2f3c
00000260: 0ac8 57bd be99 f2bb 1948 10b8 03c7 57bd
00000270: 2e06 133e 1c93 30bd 211d 1c3d 4307 6cbd
00000280: 517a 58bd a6bf ba3d 8f72 e8bb c28e 0cbe
00000290: d030 31be 12ac 1fbc 9220 723d a6a1 083e
000002a0: 7206 b73b bda4 1d3d 6291 ed3c b1ad c53d
000002b0: cddb c13a bfe1 c53d 1b5b a13c 7b2e 20ba
000002c0: 6b10 853d 4642 9b3d 6e89 22bc 0efe bcbd
000002d0: 6e03 29be a7b3 27bd cfef a3bc b011 56bd
000002e0: 8f1f 593e 3b0e 27be eb18 2f3d ebb2 db3d
000002f0: a15b 783a a70a bebc 6d9c ef3d b222 4d3d
00000300: 907b 09be 45fb db3c 88f7 903c 8636 adbd
00000310: f21c 963c 0dd5 983d b411 86bc 7bbf 9e3e
00000320: 2e61 5ebc eaf9 69bd e83e 5d3d 25d1 823d
00000330: bcb8 35bd 611c 4e3d e65d 443c 23fe 713b
00000340: fde5 083b 11f7 873b fb36 10bd 2890 263c
00000350: 0de0 a0bd ca4c 023c e1f5 22be b1ce 28be
00000360: 9bf4 7e3d a364 e13d 3389 efbc cbbb 84bd
00000370: eb5d b0bc a702 693d ee99 5cbd 1e52 a1bd
00000380: 6d67 56be 00dc 42be 84ed d63c bdb4 fc3d
00000390: 85f8 23be 24cf 073c 7fd4 57bb 93b4 113d
000003a0: 9bd4 afbc 7550 8b3e 890c 0dbb cc54 e03b
000003b0: ea62 93bc d8d6 c5bc a68f 99bc 8f33 3c3e
000003c0: b1a0 b2bc 4292 363c 088c 3cbc 0870 de3d
000003d0: 5561 9bbc 1f84 80bc d64d 07be ac6b 7fbd
000003e0: 7064 d3bc 53ed f2bd 15d4 46bd 4250 13be
000003f0: 1788 babd 5bf4 8cbc 9e9a e0bd 71ef babd
-0.043348826 0.09528355 -0.07946319 -0.0033210164 0.06334235 -0.059495702 0.020236684 0.032359984
-0.0013637653 0.01746559 -0.011303978 0.13328381 -0.0016471723 0.05382924 0.05223502 -0.06862987
0.09965945 0.11285794 -0.015304122 -0.02425146 0.17690681 0.10882539 -0.08732424 -0.031648997
0.06835916 -0.2897335 -0.03440339 0.021888861 -0.17412457 0.035783894 0.049546007 -0.08831362
-0.10253289 -0.05069668 -0.016087228 -0.04076835 -0.061739963 0.09642447 -0.14321877 0.2057096
-0.11396306 0.012365666 0.13169816 0.039044872 -0.024528015 -0.04021726 0.020164618 -0.11893578
-0.0008308269 -0.111397825 0.101465225 -0.14639737 -0.03219222 -0.10435205 0.059252072 -0.0041162195
0.07587807 0.14071117 -0.06237059 0.011633489 0.07370459 -0.08786691 -0.003641203 0.009355162
-0.023136372 -0.051193397 -0.04454372 0.11083869 -0.090944014 -0.030336805 -0.11867269 -0.069318466
0.15359299 0.038115077 -0.11162968 -0.074888386 -0.007397524 -0.09170021 -0.15076186 -0.090854116
0.061288998 0.056067374 -0.05427145 -0.07654496 -0.026558202 -0.0014834652 -0.1718154 0.14704381
-0.059498105 0.06623545 -0.04986262 -0.20018357 -0.01488489 0.122758254 -0.07863617 -0.12105851
-0.039790414 -0.036598172 0.046463873 -0.042945232 0.035155617 -0.10129177 0.01663739 0.088977605
-0.039496835 -0.046456896 -0.02972275 -0.016756972 -0.09562437 0.022604523 -0.051386826 0.09647493
0.090622894 -0.085094735 0.11071722 0.033075623 -0.06385833 -0.20154612 0.25028935 -0.041225884
-0.019568054 0.048907083 0.0215469 -0.115826346 0.011514243 0.08214594 -0.013285003 0.03139324
0.17556846 0.02743122 -0.00230279 0.039432097 -0.06405312 -0.22701353 0.038019724 -0.13306578
0.020937474 -0.08912895 0.013541999 0.07355505 0.028251786 -0.020670053 -0.054526336 -0.0726023
-0.052840475 -0.04074823 0.045890573 0.033979498 0.14208183 0.058055926 -0.06582255 0.010707101
-0.052681006 -0.0074035814 -3.439942e-05 -0.052680027 0.14357826 -0.043109044 0.038113717 -0.057624113
-0.052851025 0.09118585 -0.0070937346 -0.13726333 -0.17303777 -0.009745615 0.059113093 0.13342914
0.005585485 0.038487185 0.028999988 0.0965227 0.0014790237 0.09662198 0.019696763 -0.0006110442
0.06497272 0.07581 -0.009920461 -0.092281446 -0.16505215 -0.040942814 -0.02001181 -0.052262962
0.21203445 -0.16314022 0.042748373 0.10727485 0.0009474103 -0.023198439 0.11699758 0.050081916
-0.13426042 0.026853213 0.017696157 -0.08457665 0.01832435 0.07462511 -0.016365863 0.31005463
-0.013572974 -0.057123102 0.05401507 0.063875474 -0.04436563 0.050320033 0.011985278 0.003692516
0.0020889037 0.0041493257 -0.035208683 0.0101662055 -0.07855234 0.007952878 -0.15914108 -0.16485097
0.062244993 0.11005523 -0.029240226 -0.06481131 -0.021529159 0.056887295 -0.053857736 -0.07876991
-0.20937891 -0.19029236 0.026236303 0.123391606 -0.16012771 0.008289132 -0.0032933054 0.0355726
-0.021463683 0.2720982 -0.0021522364 0.006846046 -0.017991502 -0.024150297 -0.018745255 0.18379043
-0.02180514 0.011143269 -0.011507995 0.10861212 -0.01896731 -0.015688 -0.13213286 -0.062358543
-0.025804728 -0.11861672 -0.0485421 -0.14386085 -0.09107988 -0.017206362 -0.10966991 -0.09127701

mixlayers.2.op.3.weight f4 [16]
00000000: db42 8c3e 75cc 9f3e c139 963e aefd 823e
00000010: c07d 5a3e 7115 5c3e e29f 3a3e e0b2 6f3e
00000020: bd03 7c3e f00a 833e 0567 923e f919 893e
00000030: 6685 9e3e 7a99 673e 9618 8e3e 92e7 523e
0.27394757 0.31210676 0.29340938 0.25584167 0.21337032 0.21492554 0.18225053 0.23408079
0.24610801 0.25594282 0.28594223 0.26777628 0.3096115 0.2261714 0.27753133 0.2059615

mixlayers.2.op.3.bias f4 [16]
00000000: 4d93 8e3d ea63 13bd ca8c e23c 6c42 b33d
00000010: ee11 553c 0319 35bd b66a 10bb fd60 ccbb
00000020: 2a37 b03c 365b 843d 5489 8fbb e68c c83d
00000030: 7d16 34bd 81d7 873b 4328 aebc 3873 d43d
0.06961689 -0.035983957 0.027655024 0.08752903 0.013004763 -0.044213306 -0.002203626 -0.006237148
0.02151068 0.064627096 -0.0043803845 0.09792499 -0.04396676 0.004145563 -0.021259433 0.10373539

mixlayers.2.op.3.running_mean f4 [16]
00000000: bb96 e7ba ad13 80bc 4e3b 9abc cd53 e63b
00000010: 542e 08bc 26db 68bb 205b 493c 67f8 cb3c
00000020: 96d6 0cbc 6ed4 05bc eebb 673b 2179 88bc
00000030: ec2b 123b 292b 55bc ded8 7f3c 2fbd 26bc
-0.0017668823 -0.015634382 -0.018827107 0.007029033 -0.008311827 -0.0035531013 0.012289792 0.02489872
-0.008596083 -0.008168323 0.0035359818 -0.016659321 0.0022304012 -0.013010778 0.01561567 -0.010176941

mixlayers.2.op.3.running_var f4 [16]
00000000: a658 6c39 a416 1d3b a6e6 5b3a 766b 0c3a
00000010: 231d 3e3a 8773 1f3a 51bb 2739 4e15 943a
00000020: 48c1 873a 3588 8339 bb34 203a 8780 623a
00000030: 5ec7 bc3a cadf 193a 0903 4f3b 6052 323a
0.00022539738 0.0023969794 0.00083885563 0.0005356589 0.00072522665 0.00060825836 0.00015996142 0.0011297853
0.0010357285 0.0002508775 0.0006111373 0.0008640368 0.0014402678 0.0005869834 0.0031587502 0.0006802436

mixlayers.3.op.1.weight f4 [16, 1, 3, 3]
00000000: 793d 063c c96e dcbc ded5 053e 9914 93bd
00000010: e20a 9f3c 1c83 223d 05b5 bfbd 6ce1 cdbc
00000020: e91a 5e3e 2a81 7a3d 5438 023e 7d6c 83bd
00000030: 7fd3 f83d efdf 493e 81ab 4b3c 38a9 f23d
00000040: ccc4 3f3e d785 a93d 570b 6cbe bd48 f2bc
00000050: c910 44bc 3d20 e7bd 2a5e 893d 1df0 d53d
00000060: 8bfe bc3d 0f3e 733e 6104 a93d 554c a7bd
00000070: b901 b6bd d566 1f3e 5c46 f2bd 749e 19bd
00000080: 6006 8b3d e0ce 2c3a 0ace d93d 8ba6 363e
00000090: 4a96 de3d 47fa 103e a041 083e 0dba 623d
000000a0: d509 033e 63a1 ad3d 207e e4bd 514f 85bd
000000b0: 793e 953c 98e1 fc3d 143d fc3b c172 8abd
000000c0: 2d83 9b3d ba22 f83d 5ae3 9d3d cc5b de3d
000000d0: b3f0 c83d 0041 7e3d d162 6cbd ad60 363c
000000e0: 1865 b4bc a4a2 853d 4d25 453d fda5 f8bc
000000f0: e3fc 383e 9270 d13c 933a c13c 42d4 ccbd
00000100: d105 3ebe d954 90bd 1be2 13bd ac4b 2fbe
00000110: 24dc 28bd d2b6 993b f06f 8bbd f672 343b
00000120: ad6f 20bb 0201 0dbd 6d67 89bb 4b87 fdbd
00000130: e583 03be c732 2abc 0ca7 66be e9d6 c7bd
00000140: 70ce d33d ec86 003e 4b1d 06be f2b8 b9bd
00000150: be5d a53d ae9f 6ebd 8120 52bc c5a1 2a3e
00000160: db91 023d 364a f83d 7c62 02be c8e6 203d
00000170: 467e 7c3d aa8f 85bd 1559 003d bd5c 083e
00000180: a6a9 f9bd fa30 233c 6813 393e 6dbf e3bd
00000190: 2456 83bd 2b97 a1bb 0f85 31be 4e6e 1ebd
000001a0: adda c0bd f3d1 70bd 30db 00be 8f95 aabd
000001b0: 4cb6 f13c 170e ebbd 52c1 69be f14d 11be
000001c0: 4639 03be 0939 e1bd d40e 02bd 0ab1 82bd
000001d0: 0c25 8c3c c157 b73d 67f3 7bbc 478b 24be
000001e0: cae7 ffbd 2732 b1bc dd0c 18bc c3b1 50be
000001f0: 442d bebc 8aba 5d3d 55e9 113d 13f1 0e3e
00000200: c173 883d c014 493e 406c 503e 6d2a 973c
00000210: a93c 0c3e 3282 813d db30 753c bdef 173c
00000220: f254 623e 7637 a33d 290c 6abc 03a8 983d
00000230: b67d 5b3d 9ac6 0dbe 0c3b a23d fe1f dbbb
0.008193367 -0.026908295 0.13069865 -0.07181663 0.019414369 0.039675817 -0.093606986 -0.025131904
0.21689953 0.061158337 0.127168 -0.06417177 0.12149715 0.1971433 0.012431026 0.11848682
0.18727416 0.08277481 -0.23051201 -0.0295757 -0.0119668925 -0.11285446 0.067074135 0.104461886
0.09228238 0.23754142 0.08252788 -0.08168856 -0.08887047 0.15566571 -0.11829826 -0.03750463
0.06788325 0.0006592106 0.10635002 0.17836969 0.10868509 0.14157973 0.13306284 0.055353213
0.1279672 0.08478048 -0.11156869 -0.06509269 0.018218266 0.12347716 0.007697711 -0.06760169
0.07593379 0.121159986 0.077093795 0.108573526 0.09811535 0.062073708 -0.057711426 0.011131448
-0.022020862 0.06525162 0.048131276 -0.030352587 0.18065219 0.025566373 0.0235875 -0.100014225
-0.18556906 -0.070474334 -0.036104303 -0.1711871 -0.041225567 0.0046909833 -0.0680846 0.0027534342
-0.0024480626 -0.03442479 -0.0041932375 -0.12379321 -0.12843283 -0.010388083 -0.22524661 -0.09757788
0.10342109 0.12551469 -0.13097112 -0.09068479 0.080745205 -0.05825775 -0.012825132 0.16663273
0.03187738 0.121235296 -0.12732881 0.03928259 0.06164386 -0.06521542 0.031334955 0.13316627
-0.12190561 0.009960407 0.18073809 -0.11120496 -0.064129144 -0.0049313507 -0.17335914 -0.038679413
-0.09416709 -0.058793973 -0.12583613 -0.08329307 0.029505871 -0.11477297 -0.22827652 -0.14189889
-0.12814817 -0.10997207 -0.031752422 -0.06381424 0.01710751 0.089522846 -0.015377856 -0.16068755
-0.12495382 -0.02163036 -0.009280411 -0.2038031 -0.023214944 0.054132976 0.035622913 0.1395915
0.06662703 0.19636822 0.20353794 0.018452847 0.13695015 0.06323661 0.014965261 0.009273467
0.22102717 0.07969563 -0.014285126 0.07453921 0.053586684 -0.13845292 0.079214185 -0.0066871634

mixlayers.3.op.2.weight f4 [32, 16, 1, 1]
00000000: f221 9fbb 5711 a23d 084e ee3c 8815 d1bd
00000010: cfcc b23c a707 81bc 96dc 95bd 1735 1a3e
00000020: 5547 f93d 95a8 0f3d 76cb 4a3c 144a 6d3d
00000030: e6d2 4e3d 9a66 8bbd f7e1 da3d 1cc9 7c3d
00000040: 48b3 793d f34d 1e3d 2235 7b3d 8e09 f9bc
00000050: 8c8d 663d 453e 4bbd 444e 11bd ac06 863d
00000060: a95b e1bb 6ccc 49bd 2418 0d3e 0aef 22bd
00000070: 513b f43d bc24 0bbc e082 fe3b 0803 3bbc
00000080: 713e 43bd c9a8 723d c413 a3bc d0ce bfbd
00000090: ccc2 ad3d 6d91 9f3d 2946 793c 0c3c 03bc
000000a0: 52a2 883d 5a16 6ebd dc69 03be c445 a53d
000000b0: a1d5 1b3d 2dd1 d4bd 9f75 333e 49f1 83bb
000000c0: b70c cd3c f783 93bd 61e2 cdbb 7bf9 113e
000000d0: 70a7 79bd 4716 8abc 6653 9d3d 1fb1 a33d
000000e0: 2b1c a93d 798d 52bd 381c 903c ee2f b3bd
000000f0: b063 923d a4ac 10bd d820 b13c 90c8 77bd
00000100: e843 8b3d c2d9 99bb 6479 953d ef58 cdbd
00000110: 360c 52bd 9092 053e 291d 0fbd 4955 0ebe
00000120: 1a34 f7bd 8451 c63c 42d8 283e e65b b8bd
00000130: 9392 b8bc 994e 553c bbfc 08bd 9be4 51bd
00000140: 94ff 593d fbc4 4c3d ff28 473d c420 c4bd
00000150: 8b6d ee3d 97b3 94bb 8a7a 79bd a3c4 593d
00000160: 6ec0 5cbd e3c4 3a3c 3148 9fbc c646 95bd
00000170: 4b2f e43d af1b e4bd d468 b23d 8334 8a3d
00000180: 44e3 c5bc ef84 bf3d 0d03 86bd 70e7 a5bd
00000190: 437a 8dbd fc2a df3d d324 163d de1f 953c
000001a0: 00d3 87bd d725 de3b 0224 17bd 4cc8 db3b
000001b0: a9c1 7ebd 6e11 b9bd c5a5 483e 901c 50bd
000001c0: 621d 653d 68c4 b83d a392 033d 4ae1 60bd
000001d0: 06c2 63bd 1cb0 bd3d d8f6 363d ef65 153e
000001e0: d1a7 bebd bb91 99bd 5391 81bc fcd0 8fbc
000001f0: ae78 f6bd c580 aabd d5dc 3d3c 18e9 f8bc
00000200: 3101 203d 466a dfbd a13d f8bb 15f9 2b3c
00000210: 4001 40bd a3f1 383d fcf8 77bd 44a6 e9bd
00000220: 3043 21be 8cad 933c 2f18 bb3d 1e59 6d3d
00000230: b26b 503d 2b9b 1abd f847 e6bd 98c2 babd
00000240: d37e 60bd 84c5 99bd 0124 49bd b1e7 81bc
00000250: d6a1 1abd e0f0 cabb a665 eaba ad42 14bd
00000260: 37a6 123d e290 f73b 7756 58bd 518c 13bd
00000270: a30d 803d b057 6b3b d6af c4bd 71be 73bd
00000280: 73ea 98bb ea36 7e3e a4c2 053e ec6c 153e
00000290: 883b 023e a784 afbd 8fe3 e4bc 7bc6 c93d
000002a0: fe31 bc3c 5271 b9bd 3823 ab3d 046d 423d
000002b0: 4b66 8f3c be48 f8bc 0c27 343d 7882 883d
000002c0: ecce 273d eabc 4a3e 202d f73c 838d 16bd
000002d0: d2ca c13d 605f f2bc 97b5 88bc 2958 14bc
000002e0: a90f 073c d2f1 64bd 68b2 393d 4887 73bd
000002f0: d232 e03d ccd5 b93d 2c7a e73c 1ff6 1e3d
00000300: 463b c9bc 9f83 df3d 8e0f afbd 4d6f 483d
00000310: a908 9bbd 9e00 28be 16a1 d83c 662e 983c
00000320: 01dc a93d 0af4 ba3d 1c48 6bbd 5a4d cd3d
00000330: df59 803d cf38 593d 7478 723b 16d3 dfbd
00000340: 2105 bc3c 32d7 3ebd 77e5 92bd 00a6 ecbc
00000350: cf4d ce3d cb22 5d3d 2f05 c2bb 1089 473c
00000360: cbfc 47be e5c8 6f3d ba03 d03d 2c80 593d
00000370: fd03 81bd 972b 03be 0e01 51be 5a70 a03d
00000380: 6be6 903d 6b28 583e 7390 473d cf2e ae3c
00000390: 61c7 cabd 84b5 f6bd 9f04 8cbd 6dd1 453d
000003a0: 9170 1bbd b23b 673d 91cf 0fbd 1247 b8bd
000003b0: c700 d33d efdd 4f3d 7bcc d83d d5fc 38bd
000003c0: ec0a a63c 9912 6ebd 6848 ab3b 37fc ac3c
000003d0: 68d0 e43d 4bf4 543e ce54 9bba 78a2 013e
000003e0: 8e60 6b3c 3103 253d d494 e9bc 6b28 093e
000003f0: 504d 8e3b a23a 1dbe 2cb8 03bd 1267 193e
-0.0048563415 0.079134636 0.029089943 -0.10209185 0.021826176 -0.01575072 -0.07317464 0.15059315
0.12171809 0.03507288 0.01237761 0.057931975 0.050494097 -0.06806679 0.106876306 0.06171523
0.06096199 0.038648557 0.06132997 -0.030400064 0.056287333 -0.04961993 -0.03547503 0.06544241
-0.006877382 -0.049267218 0.1377874 -0.039778747 0.11925376 -0.008492645 0.0077670664 -0.011414297
-0.04766697 0.059242997 -0.019906886 -0.09365618 0.0848442 0.0779141 0.015214481 -0.008009922
0.06671585 -0.058126785 -0.12833351 0.08069947 0.03804553 -0.103914596 0.17525338 -0.004026566
0.025030477 -0.07202905 -0.00628309 0.14255325 -0.060950696 -0.016856326 0.076819226 0.079927675
0.08257326 -0.05140445 0.01759158 -0.08749376 0.0714792 -0.035320893 0.021622106 -0.060494006
0.068000615 -0.004695148 0.07298544 -0.10026728 -0.051281177 0.1304419 -0.03493992 -0.13899721
-0.120704845 0.024208792 0.16488746 -0.09001903 -0.02253083 0.013019227 -0.033444148 -0.051243406
0.053222254 0.049992543 0.04862308 -0.09576562 0.116419874 -0.0045380103 -0.060907878 0.053166043
-0.053894453 0.0113994805 -0.019443603 -0.072888896 0.11141833 -0.11138093 0.08711401 0.06748297
-0.02415622 0.09351527 -0.06543551 -0.08100784 -0.06908085 0.108968705 0.036656212 0.018203672
-0.06632042 0.006779413 -0.036899574 0.006707227 -0.062196407 -0.090365276 0.19594486 -0.05080849
0.055936225 0.090218365 0.032122266 -0.054902352 -0.055604957 0.09262106 0.044669002 0.14589666
-0.09309352 -0.07498499 -0.015816366 -0.017555706 -0.120347366 -0.08325342 0.011588295 -0.030384585
0.039063636 -0.10908942 -0.007575706 0.0104963975 -0.046876192 0.045152318 -0.060540184 -0.11408666
-0.15748286 0.01802709 0.09135472 0.057946317 0.050883956 -0.037745636 -0.11244196 -0.09119147
-0.05480845 -0.07508376 -0.0491066 -0.01585755 -0.037751995 -0.0061932653 -0.0017883077 -0.0361964
0.035803046 0.007555113 -0.052816834 -0.036022488 0.06252601 0.003591042 -0.096038505 -0.05950779
-0.0046666204 0.24825636 0.13062531 0.14592332 0.12718022 -0.08570223 -0.02794054 0.0985231
0.022973057 -0.09054817 0.08356327 0.047467247 0.017504832 -0.030308124 0.04398255 0.0666551
0.04096882 0.19798627 0.030172884 -0.03675605 0.09462513 -0.029586494 -0.016688151 -0.009054222
0.00824348 -0.05589468 0.045336157 -0.059455186 0.10947193 0.09073982 0.028256498 0.038808938
-0.024564397 0.109137766 -0.08547889 0.04893427 -0.07570011 -0.16406485 0.026444 0.018576812
0.082939155 0.09128578 -0.057441816 0.10024519 0.062671416 0.053032693 0.0036998065 -0.10928933
0.022951664 -0.046591945 -0.07172673 -0.028887749 0.100734346 0.05398826 -0.005921028 0.012178674
-0.19530027 0.058541197 0.10156961 0.05310075 -0.06299589 -0.12809597 -0.20410559 0.07833929
0.07075199 0.21109168 0.048721742 0.021262554 -0.0990131 -0.1204634 -0.06836819 0.048295427
-0.03794915 0.056453414 -0.03511006 -0.089979306 0.10302883 0.05074876 0.105858766 -0.045162994
0.02026888 -0.058123205 0.0052271374 0.02111636 0.11172563 0.20796315 -0.0011850835 0.12659633
0.014366282 0.040286247 -0.02851335 0.13394324 0.0043427125 -0.15354398 -0.03215806 0.14980724

mixlayers.3.op.3.weight f4 [32]
00000000: 125e 6e3e b5bb 823e 5f92 4b3e 8112 823e
00000010: 0e08 353e bd71 3b3e 9e5e 613e d684 493e
00000020: e3c1 6f3e 7c43 723e 7bc4 553e c992 853e
00000030: 4321 943e fd17 7b3e d5fe 5d3e b6b6 3b3e
00000040: 1deb 4c3e a9c9 6b3e c4c2 823e 1b84 5a3e
00000050: 2d40 513e 5d08 5a3e 1a10 803e a9b8 813e
00000060: b215 5a3e 0016 373e 6934 513e d058 623e
00000070: 94ed 583e 85ad a33e 5498 3d3e 0e0f 6f3e
0.23278072 0.25533834 0.19880055 0.25404742 0.17678854 0.18305106 0.2200875 0.19679579
0.23413806 0.23658556 0.20875733 0.2608855 0.28931627 0.2452087 0.21679242 0.18331417
0.20011564 0.23026146 0.2553922 0.21339457 0.20434637 0.21292253 0.25012285 0.25336197
0.21297339 0.17879486 0.20430149 0.22104192 0.21184379 0.31968322 0.1851514 0.23345587

mixlayers.3.op.3.bias f4 [32]
00000000: 7e3c ea3c 5c91 293d 4ee9 d03d 9c53 a43d
00000010: 0ab7 a63d 5d53 0d3e 5af2 f73a 5ab4 6b3b
00000020: ef1b 0abc 93fc 053d 1998 073c 67dd a7bd
00000030: 2838 513d 67ec 47bd abfd 713d a6b7 c33c
00000040: 7d4f 3d3d 9b46 793c 6634 983c d6a4 d63b
00000050: 22d9 0a3d ffbe 0c3e 6f57 a0bd eaa7 38bc
00000060: ab16 ba3c 5a9c 883d 514e 133c f95d d13d
00000070: 0dca ad3c 4576 1f3d 32c6 bc3d 0fc9 2a3d
0.028593298 0.04139839 0.10200749 0.0802376 0.08140381 0.13801332 0.0018916831 0.0035965652
-0.008429511 0.032711577 0.008276009 -0.08196526 0.051078945 -0.048809435 0.059079807 0.023891281
0.046218384 0.015214588 0.018579673 0.0065504117 0.03389848 0.13744734 -0.07829177 -0.011270503
0.022715887 0.06670447 0.00899084 0.10223002 0.02121451 0.03893115 0.0921749 0.04169565

mixlayers.3.op.3.running_mean f4 [32]
00000000: 188f f2bb 2b1a 453a cb8f 333b 86ac a8bb
00000010: 1ec5 dd3c 65b9 b23c 5e4c bc3c e85f 863c
00000020: edff 55bc 53d1 9fbc bdd8 933c 4cb3 8d3c
00000030: 3b7c efbc d22b 513b b246 913c 265c 80bb
00000040: 2e4b 403c 4a7e 19bb 684c 3e3b bfb3 a03c
00000050: 938c 1dbc ba7c 5d3b e219 75bc d6ca 063c
00000060: 3cab dabb 18d9 e0bc a274 39bc 2c05 933c
00000070: d89d c8bb fd38 06bd 89ad 903c 015c 34bc
-0.007402312 0.0007518853 0.002739894 -0.0051475195 0.027071532 0.021816919 0.022985633 0.016403154
-0.013061506 -0.019508993 0.018047685 0.01729741 -0.029234042 0.0031916988 0.017733905 -0.003917235
0.011736674 -0.0023421221 0.002903724 0.01961696 -0.009616035 0.0033796267 -0.014959784 0.008227071
-0.0066732448 -0.027447268 -0.011319311 0.017946802 -0.006122332 -0.032769192 0.017660873 -0.011008264

mixlayers.3.op.3.running_var f4 [32]
00000000: 2688 1d3a 7fee be39 a8b1 b43a 257b ea39
00000010: ccb9 1d3a b3df 493a f5f4 8e3a 2254 083a
00000020: 77b3 533a cbfe c439 39ad 9b3a affb 333a
00000030: 0010 033a 102f 903a 9b83 433a 87b3 ad3a
00000040: db55 753a 4feb 173b ff76 b53a 4f70 ff39
00000050: ebb2 a439 5b86 a83a 5569 923a 0744 af3a
00000060: 31ba 823a e635 b83a 511e 313a e932 3a3a
00000070: 4aaf b13a 3584 d23a 9ebb c43a dd12 dc39
0.00060093624 0.00036417317 0.0013785856 0.00044723708 0.00060167606 0.0007700875 0.0010906743 0.0005200525
0.00080757536 0.0003757387 0.0011877186 0.0006865812 0.00049996376 0.0011000354 0.00074582704 0.0013252356
0.0009358802 0.0023181026 0.0013844668 0.00048721067 0.00031413822 0.0012857424 0.0011170307 0.0013371714
0.0009973702 0.0014054149 0.00067565317 0.0007102923 0.0013556269 0.0016061129 0.0015009528 0.00041975724

mixlayers.4.op.1.weight f4 [32, 1, 3, 3]
00000000: a95b 4bbc a605 18be 81f9 863d 861c 11be
00000010: a139 7dbc f676 723d 46d3 dfbd 4159 c63d
00000020: 433f 333d 96fe 5c3d b80f 8c3d 6d0a 29be
00000030: bade d43d 8475 0e3d 7e45 7cbd 85ce ffbc
00000040: f025 7fbd f426 da3b 7fcc d33c a050 4e3e
00000050: b858 253d 605b bf3d e847 203d 013c 65be
00000060: 2dfe 1f3c 1652 a8bc 3e46 00be cd81 16be
00000070: e847 c3bd 059e d13d b47c 51bd 5963 1a3d
00000080: ae8d 843d c9f7 06be 7dd7 40bd 5e01 a0bd
00000090: 6502 583e 908a 9bbd 9ebe 253d c1ad dd3d
000000a0: 3174 02bd e1ae 0a3d ebc5 b93d 897d 1abb
000000b0: 3b87 453d 49f2 b13d 630f 123d 358d dcbd
000000c0: 43f7 e1bd 822a 3ebe 6da8 1abd 0891 703c
000000d0: eb07 613d b83b 233e ab59 b53d f07a 633d
000000e0: 1a95 5e3d c9d8 fabc a6fc cfbd 1612 41bd
000000f0: 1684 173e 23de 243e d621 093e 2ee2 213d
00000100: d604 c4bd 7145 6abd 38d9 613d 48c2 68bd
00000110: 4de3 d3bc 2ab0 3c3e 9544 1ebd 8f73 2abd
00000120: 3824 a03d fd4f b2bd 6c6e 31be a08f 0a3d
00000130: 16aa edbd aec6 0cbd 19a0 60bc aa53 09bd
00000140: d35a 263e 5f35 b23d 354c 1d3e 243c 983d
00000150: 07ef 8bba 69cc 5d3d e84a 00bc 82ac b0bd
00000160: 3f78 2fbd 81a8 78bc e5d5 24be f9a7 c4bc
00000170: c9e3 833c 5789 803d 0c80 13bd 6296 36bd
00000180: 3a1d 35be 2726 4ebe 42e7 973d 52d8 e73d
00000190: 7384 0d3e 9564 52bd e714 56bc 1608 323d
000001a0: 1abd 28be c6fa 803d 495b 63bd 157a 24be
000001b0: a610 1a3c 1286 84bd 620f 2f3d b8a2 c23d
000001c0: 24f2 363e 68b6 21be 78f6 30bd fb58 0a3b
000001d0: 6bc9 1cbe d7ee 6ebd 065d 9ebd e1d6 60be
000001e0: a87c 8abd c685 9fbd 16ed 053c b36f 3bbc
000001f0: 810b 133d 4cf6 7c3e 25ca d1bc 77dd 873d
00000200: 6217 0b3e 02d4 cc3d b547 21bb 8335 983d
00000210: 9344 60bd 51ac fabd 27d5 5a3e f092 e03d
00000220: 27c5 243e 35b5 50bc bbf1 d63d d012 d33d
00000230: 623a 29bd d9ce 7abd 44b1 4fbe 2450 0ebe
00000240: 976c f0ba 7601 fb3d b6d1 db3d a3c6 d3bc
00000250: 20eb 2bbe c347 113e 5dd2 20be 7f1b 32be
00000260: 51eb 353d 183d c63d 4112 9e3d f3a7 4dbe
00000270: a9b7 ae3d f33f 68be aeb7 26be a280 d7bc
00000280: 352c f4bd e84c ef3c bef8 29bd 0f4b 26be
00000290: a972 893d dc0a 4bbe eea6 223d dee8 b0bd
000002a0: 3a80 993d f2de 843e 8982 7fbc e26a 20bd
000002b0: 7aad 90bd 9c55 0d3e be41 5ebd 5b58 873c
000002c0: 47ec e7bd 8fa9 953d 83d9 10be 64f2 debd
000002d0: e440 f1bc 53a4 bf3c a9f8 75bd 6cfa 683c
000002e0: 8fe5 9fbd e383 25bd db79 d73d d0ff c3bd
000002f0: 31e7 2f3c fc91 763d 8730 37be f8df ad3d
00000300: 5bcd e93c 8a73 2bbe 1432 b1bd 2430 a83d
00000310: 4e6d 1ebe 2def 9f3c 73c6 88ba 77e7 bfbd
00000320: d7f4 c03d f13b 4ebe 8e3d 27be b91f 00be
00000330: df4c 1f3d c72d a43c 339e 98bc 36b3 893d
00000340: 4424 253e ed80 0e3e 475c e93c 0374 f0bd
00000350: 2413 9439 e62e 80be 0965 8dbd 4127 133e
00000360: 333e 2abd bd68 efbd ccef 3ebe 4434 193c
00000370: adfb e33c 351b 013d 45b2 ed3d 8bb0 903e
00000380: 80fb a13d f13d e73d 0011 6d3d d94d debd
00000390: 7f8b 273e 26cc 0c3e 6a07 96bd eb7d c3bb
000003a0: 8fef 2b3e e391 03be fac5 c8bc f0d8 83be
000003b0: 197e ab3d 8699 4e3d 2862 90bd 3540 c3bc
000003c0: 0cc0 5f3d 309b 743d 4368 b93d b8a1 463d
000003d0: 9e89 a13d 0514 43bc 9dc4 b6bd 2429 a73c
000003e0: 3457 6d3c 4b2f babd b101 883e 470b af3d
000003f0: 065a 3c3d 0396 c3bc 2cfb 07be a70f a3bc
-0.01241199 -0.14845905 0.06590558 -0.14171037 -0.015455634 0.05919548 -0.10928969 0.096849926
0.043761503 0.05395373 0.068389356 -0.16507883 0.10394044 0.03478004 -0.06158971 -0.031226406
-0.06229204 0.0066574756 0.025854347 0.20147943 0.040367812 0.093436 0.039131075 -0.22386171
0.00976519 -0.020546954 -0.12526795 -0.14697953 -0.095351994 0.10235218 -0.051144317 0.0376924
0.06472336 -0.1318046 -0.047080506 -0.07812761 0.21094663 -0.07594788 0.04046499 0.108241566
-0.03184909 0.033858184 0.09070953 -0.002357336 0.04822467 0.0868879 0.035659205 -0.107691206
-0.110334896 -0.18570903 -0.03775828 0.014683016 0.05493919 0.1594075 0.088549934 0.055537164
0.054341413 -0.03062095 -0.10155611 -0.04713639 0.1479648 0.16100363 0.13391814 0.039522342
-0.09571235 -0.05719513 0.055138797 -0.056825906 -0.025865221 0.18426576 -0.038639624 -0.04161411
0.07819408 -0.08706663 -0.17327279 0.033828378 -0.11604707 -0.034369163 -0.013710045 -0.033527054
0.16245584 0.08701586 0.15361102 0.07433346 -0.0010676094 0.05415002 -0.007830359 -0.08626653
-0.042839285 -0.015176893 -0.1609722 -0.024005877 0.016099827 0.062761955 -0.036010787 -0.04457701
-0.1768693 -0.20131741 0.07417156 0.11320557 0.13820057 -0.051365454 -0.013066507 0.043464743
-0.16478387 0.06297831 -0.05550698 -0.16062196 0.009403383 -0.064708844 0.04273928 0.095036924
0.17865807 -0.15792239 -0.0432038 0.0021110165 -0.1531121 -0.058333244 -0.077325866 -0.2195697
-0.067620575 -0.07789187 0.0081742015 -0.011440205 0.035899643 0.2470333 -0.025609085 0.06634038
0.13583139 0.10001375 -0.002460939 0.074320816 -0.054752897 -0.12239898 0.21370374 0.10965526
0.16090833 -0.012738516 0.10495325 0.103063226 -0.041315444 -0.06123242 -0.20282465 -0.13897759
-0.0018342909 0.12256138 0.107333586 -0.025851553 -0.16788912 0.14187531 -0.15705247 -0.17393301
0.04441387 0.096796215 0.077183254 -0.20083599 0.08531124 -0.22680645 -0.16281006 -0.026306454
-0.11922494 0.029211476 -0.041496985 -0.1623957 0.06711323 -0.19828361 0.039709978 -0.08638166
0.074951604 0.25951344 -0.015595087 -0.03916443 -0.07064338 0.13802189 -0.054261915 0.016521623
-0.11324363 0.07307731 -0.14145474 -0.10886076 -0.029449888 0.023393786 -0.060051594 0.0142198615
-0.07807457 -0.04040898 0.10521289 -0.09570277 0.010736273 0.060197815 -0.17889605 0.08489984
0.028540304 -0.16743293 -0.0865213 0.08212307 -0.15471384 0.019523228 -0.0010435119 -0.0937032
0.094216995 -0.20140053 -0.16332075 -0.12512101 0.03889167 0.02004136 -0.018630123 0.06723635
0.16127115 0.13916369 0.028486384 -0.117408775 0.0002824302 -0.2503578 -0.069040366 0.14370443
-0.041563224 -0.11689899 -0.18646163 0.00935084 0.02782997 0.031520087 0.11606268 0.28259692
0.07909298 0.11291111 0.05787754 -0.10854692 0.16361807 0.13749751 -0.07325633 -0.0059659383
0.16790603 -0.1284862 -0.024508465 -0.25751448 0.083736606 0.05043938 -0.07049972 -0.023834327
0.05462651 0.05971831 0.090530895 0.04849407 0.078875765 -0.0119066285 -0.0892422 0.02040536
0.014486123 -0.09091052 0.2656379 0.08547073 0.04598429 -0.023875242 -0.13279408 -0.019904925
